clean_data/models/decoder.pth (torch, 833208 bytes, 12 tensors)

weight f4 [98, 128]
0	0xbf803fa5	-1.0019423
1	0xbdbef55c	-0.09324142
2	0x3f36cd1f	0.7140674
3	0xbefa9fc3	-0.48950014
4	0xbe658eaa	-0.22417703
5	0xbf94576a	-1.1589177
6	0xbebff31f	-0.37490174
7	0xbf4034e2	-0.7508069
8	0x3ed9d7d6	0.42547482
9	0x3f26a6c2	0.650982
10	0xbec6b60d	-0.3881077
11	0xbf2f4743	-0.6846811
12	0x3ec34d24	0.3814479
13	0x3ec85691	0.39128545
14	0x3e52a9d4	0.20572597
15	0x3f81c43a	1.0138009
16	0x3afab166	0.0019126355
17	0xbfd9870e	-1.699434
18	0xbeb1caac	-0.3472494
19	0xbe2dad87	-0.16960727
20	0xbd6d7355	-0.057971317
21	0x3eef393e	0.4672336
22	0x3f11a250	0.56888294
23	0xbfcb8a72	-1.5901625
24	0x3e671d99	0.22569884
25	0x3fe89fb9	1.8173743
26	0x3eec623a	0.4616869
27	0xbdcf7129	-0.101290055
28	0xbf94afd9	-1.1616164
29	0xbf7e3894	-0.9930508
30	0x3f1445dc	0.57919097
31	0xc007887f	-2.117706
32	0xbf83ca59	-1.0296127
33	0xbfbcf667	-1.4762696
34	0x3f5b63f2	0.8569938
35	0x3f04bd4c	0.51851344
36	0xbf485ea2	-0.782694
37	0xbf70ed4b	-0.9411208
38	0x3e6fd7f5	0.23422225
39	0xbfa309a3	-1.2737316
40	0xbef833f8	-0.4847715
41	0xbfd8b14c	-1.6929107
42	0xbf87f579	-1.0621787
43	0x3f57b3f6	0.84258974
44	0xbfaa3ccc	-1.3299804
45	0xbc4c9359	-0.012486302
46	0xbb891e5b	-0.004184527
47	0xbebe6d50	-0.37192774
48	0xbffc78f3	-1.9724411
49	0x3fd2651f	1.643711
50	0x3ee8f3ca	0.45498496
51	0x3e9e58c1	0.3092709
52	0x3e9c5834	0.30536044
53	0x3f1eac0d	0.6198128
54	0xbeddd865	-0.43329158
55	0xbedd8c89	-0.43271282
56	0xbf84196a	-1.0320256
57	0xbfe40e08	-1.7816782
58	0xbf83fc83	-1.0311435
59	0x3fde8d50	1.7386875
60	0xbec084a5	-0.376012
61	0x3fc67b50	1.5506382
62	0xbf11207c	-0.5669019
63	0xbe98ea16	-0.29866093
64	0x3f922269	1.1416751
65	0x3faa1acb	1.3289427
66	0x3e6bb07f	0.23016547
67	0xbdf154ef	-0.11783778
68	0x3ed66464	0.41873467
69	0x4010ebb5	2.2643864
70	0x3eb8b73b	0.36077294
71	0x3f2cf8f3	0.67567366
72	0xbf4e8238	-0.8066745
73	0x3fbdb9a7	1.4822282
74	0x3f24060e	0.6407174
75	0xbec3368f	-0.38127562
76	0x3f311223	0.691683
77	0xbeb3499c	-0.35017097
78	0xbf415377	-0.7551798
79	0x3f948443	1.1602863
80	0xbf355b43	-0.7084238
81	0xbed3de25	-0.4138042
82	0x3ee73b2b	0.4516233
83	0x3ecbd4dc	0.39810836
84	0x3c090239	0.008362346
85	0x3fb15962	1.3855402
86	0xbf2d5ce7	-0.6771988
87	0x3f96f9a4	1.1794934
88	0x3f6fe9da	0.93716204
89	0x3ddde1f2	0.10834111
90	0x3e3f87a2	0.18704084
91	0x3eeee695	0.46660295
92	0xbf073d15	-0.5282758
93	0x3f9e83cf	1.2383975
94	0x3dfd427f	0.12366199
95	0xbf0a76b6	-0.5408739
96	0x3ebb7421	0.36612037
97	0x3ee27e87	0.44237158
98	0xbe8e0fa9	-0.27746323
99	0x3f712131	0.9419127
100	0xbe2ac0eb	-0.16675155
101	0x3fa0e209	1.256898
102	0xbf366bf0	-0.7125845
103	0xbf12b99e	-0.5731448
104	0xbf172df2	-0.5905448
105	0xbfdcc209	-1.7246715
106	0x3fa168c9	1.2610103
107	0x3ef0a467	0.4700043
108	0x3e2f0803	0.170929
109	0x3fcd147a	1.6021874
110	0xc0644434	-3.5666628
111	0xbf0f10c8	-0.5588498
112	0x3f6772e8	0.9040971
113	0xbf0c0ac9	-0.54703957
114	0xbe8cfcf4	-0.27536738
115	0xc0137306	-2.3038955
116	0xbf573294	-0.8406155
117	0x3f90320e	1.1265275
118	0xbed7cd87	-0.42148992
119	0x3d573d5a	0.052548744
120	0x3f826061	1.0185663
121	0x3ebadafd	0.364952
122	0xbfc4c2ac	-1.5371909
123	0x3e990ca9	0.2989247
124	0xbfcc3ff5	-1.5957018
125	0xbf3ae0d4	-0.7299931
126	0x3f97fefb	1.1874689
127	0xbfd54c46	-1.6663902
128	0x3e882d13	0.2659689
129	0xbf5bdfe1	-0.8588849
130	0x3ddf4552	0.10901894
131	0xc009fed5	-2.1561787
132	0xbe9f6b99	-0.31136778
133	0xbeeea31c	-0.46608818
134	0xbf760866	-0.96106565
135	0x3e0763fa	0.13221732
136	0x3efcacc3	0.49350557
137	0xbea611be	-0.3243541
138	0xbf3ba4b2	-0.7329818
139	0xbf33f3ce	-0.7029389
140	0xbeba9fa8	-0.36449933
141	0xbec0426d	-0.3755068
142	0xbfa6a4c7	-1.3019036
143	0xbfc5380f	-1.5407733
144	0xbee765c9	-0.45194843
145	0x3ec65179	0.38734034
146	0xbf4dddc8	-0.80416536
147	0xc04ca6c0	-3.1976776
148	0xbf4ab6ad	-0.7918499
149	0x3f9a3198	1.2046385
150	0x3f1b3bd5	0.6063817
151	0x3cb5ec5b	0.02220743
152	0x402f406d	2.7383072
153	0x3fc0520d	1.502504
154	0x400cf646	2.2025313
155	0xbe64713c	-0.2230882
156	0x3eb924df	0.36160943
157	0x3db7f876	0.08982937
158	0x3fe08c06	1.7542732
159	0xbf5d4727	-0.86436695
160	0xbd7d0cf3	-0.061779927
161	0xbf3393ee	-0.701476
162	0x3fad0430	1.3516903
163	0x3d430b9d	0.047618497
164	0xbfcded2c	-1.6088004
165	0xbfe57fe1	-1.792965
166	0xbfff692a	-1.9953969
167	0xbf96ce94	-1.1781793
168	0x402c6496	2.6936393
169	0xbfdb7261	-1.7144281
170	0x3ebae92c	0.3650602
171	0x3f5df0cd	0.8669556
172	0xbfa897c0	-1.317131
173	0x3d66b606	0.056325935
174	0x3f3efd6a	0.7460543
175	0x3f8f429f	1.1192206
176	0x3f941359	1.1568404
177	0xbf40dbad	-0.753352
178	0xbff9747a	-1.9488671
179	0xbfa49fd5	-1.2861277
180	0xbf4da907	-0.8033604
181	0x400bbb62	2.183312
182	0xbfd3a884	-1.6535802
183	0xc00ac1c0	-2.1680756
184	0xbea4b457	-0.32168838
185	0xbf5c6852	-0.8609668
186	0xbf2905f8	-0.6602473
187	0x3f381a8a	0.71915495
188	0xbfcbdaf0	-1.592619
189	0xc0165843	-2.349137
190	0xbf83ae0f	-1.0287493
191	0x3f4cdab7	0.8002123
192	0xbf9d3c7d	-1.2284085
193	0xbfbb4315	-1.4629847
194	0x3cae7fae	0.021301117
195	0xbfb0882f	-1.379156
196	0xbf918ced	-1.1371132
197	0x3f439ac6	0.7640804
198	0x3f894f5a	1.0727341
199	0x3f40258e	0.75057304
200	0xbd7a0f5d	-0.061049808
201	0x3f87f138	1.0620489
202	0xbf61decc	-0.88230586
203	0xbf4711d2	-0.77761567
204	0xbf9bd28e	-1.2173631
205	0x3ecbcd4c	0.39805067
206	0xbed6f563	-0.4198409
207	0xbe27a289	-0.16370596
208	0xbf80b204	-1.0054326
209	0x3f9c7c57	1.2225446
210	0xbf8748a1	-1.056904
211	0x3fe384b4	1.7774873
212	0x3c0e2bae	0.008677406
213	0xc0033467	-2.0500734
214	0xbc6aaea4	-0.014323864
215	0x3ff1dbb6	1.8895175
216	0xbf8b0c5b	-1.0863146
217	0x3df30ea8	0.1186803
218	0xbeb4e7c9	-0.35333088
219	0x3e2c7d84	0.16844755
220	0x3f83806a	1.0273564
221	0x3e486d5a	0.19572964
222	0xbf9c6e87	-1.222123
223	0xbebbecb0	-0.36704016
224	0xbdd0351d	-0.101663806
225	0x3f57b814	0.84265256
226	0x3e3ab90d	0.18234654
227	0x3f4555f4	0.7708428
228	0x3d92526b	0.07144626
229	0x3fadf958	1.3591719
230	0x3fac69d6	1.3469799
231	0xbeffd40b	-0.49966463
232	0xbfa30be7	-1.2738007
233	0x3fb5bf23	1.4198955
234	0x3dfe52a2	0.12418105
235	0x3f99e9b6	1.2024448
236	0x3e764f0c	0.24053591
237	0x3f869de3	1.0516933
238	0xbe9aa66e	-0.302051
239	0xbeccd7c4	-0.40008366
240	0x3ec6b7bd	0.38812056
241	0x3ea8aa2e	0.32942337
242	0x3fe9ad02	1.8255923
243	0x3faa37f5	1.3298327
244	0x3fc24f56	1.5180461
245	0x3ed887fd	0.4229125
246	0x3ecc0cbd	0.3985347
247	0x3e53689d	0.20645376
248	0x3f96f844	1.1794515
249	0xbf2fb6e6	-0.68638456
250	0xc0012a35	-2.018201
251	0x3f4b43f6	0.79400575
252	0xbf807dd3	-1.0038399
253	0x3e8e686d	0.27814046
254	0xbef3034f	-0.47463462
255	0x3f06d8b2	0.526744

weight f4 [128, 128]
0	0xbd2a6b19	-0.041606043
1	0xbd7751ab	-0.06038062
2	0x3d05362d	0.03252237
3	0x3c78e5cf	0.015191509
4	0x3de14f2b	0.11001428
5	0xbcc03467	-0.023462487
6	0x3dd98984	0.10621932
7	0x3c4df589	0.012570747
8	0xbd4e793c	-0.050408587
9	0xbb9e2cdf	-0.0048271264
10	0xbaf90198	-0.0018997667
11	0xbc200299	-0.009766244
12	0xbc93d75d	-0.01804703
13	0xbb2be913	-0.0026231452
14	0x3d732a5d	0.059366573
15	0x3d7c09b5	0.061532695
16	0xbd1655d2	-0.03670294
17	0xbd7c73c2	-0.061633833
18	0x3d5b0684	0.05347301
19	0xbe062918	-0.13101614
20	0x3d675db5	0.05648585
21	0x3e03908c	0.12848109
22	0xbb1616f2	-0.002290186
23	0xbbdb2a01	-0.006688357
24	0xbd80c792	-0.06288065
25	0xbd0d1485	-0.034443397
26	0xbca0e8f8	-0.019642338
27	0x3ba4275a	0.005009574
28	0xbd842440	-0.06452227
29	0xbe19c217	-0.15015446
30	0xbd9c625a	-0.076359466
31	0x3cfadab2	0.03062186
32	0x3d207139	0.039170478
33	0xbd84449e	-0.064584
34	0xbc89132b	-0.016732773
35	0xbe07ac36	-0.13249287
36	0xbd0e21e1	-0.03470028
37	0x3e12a4cb	0.14320676
38	0x3cf62e4b	0.030051371
39	0xbe09e7fb	-0.134674
40	0xbd8e7326	-0.069555566
41	0x3dcc82bf	0.09985875
42	0x3d4ee195	0.0505081
43	0xbd9c6994	-0.07637325
44	0x3c771c48	0.015082426
45	0xbc556802	-0.013025286
46	0x3d90eac9	0.07076032
47	0xbdafdb1c	-0.08586714
48	0xbdbbb56e	-0.09165464
49	0xbd9f888d	-0.07789717
50	0xbdf54b33	-0.11977234
51	0xbdc018b2	-0.0937971
52	0xbd9d748c	-0.07688245
53	0xbcc9cf96	-0.024635118
54	0xbd947fc8	-0.07250935
55	0xbd4d43a3	-0.05011333
56	0x3d1d1152	0.038346596
57	0x3d9015a1	0.070353754
58	0xbdc07b2e	-0.09398495
59	0x3dc910bc	0.09817645
60	0xbe1bf1b5	-0.15228923
61	0x3e225da7	0.15856038
62	0xbda76085	-0.081727065
63	0xbe015c61	-0.12632896
64	0x3d180b95	0.03712042
65	0xbd09e651	-0.033666912
66	0x3ce8a9ab	0.028401216
67	0xbd331a69	-0.04372636
68	0xbd54aae2	-0.05192078
69	0x3d84df9a	0.06487961
70	0xbe22bd4b	-0.15892522
71	0x3d51fd8a	0.051267184
72	0xbaed96ba	-0.0018126585
73	0x3c6592a6	0.0140120145
74	0xbd41a752	-0.04727871
75	0xbd1f15a0	-0.038838983
76	0xbe1eb317	-0.15498005
77	0x3cb8ffc0	0.022582889
78	0x3d7da64d	0.061926175
79	0x3d8616c4	0.06547311
80	0x3d8abe8d	0.06774626
81	0xbd28f818	-0.041252226
82	0xbcf8ea2d	-0.030385101
83	0x3d31c35f	0.04339921
84	0x3d32feee	0.04370015
85	0x3e1a3cad	0.15062208
86	0xbd9b25ef	-0.07575595
87	0xbd665906	-0.056237243
88	0x3d963173	0.073336504
89	0xbb1583ad	-0.002281408
90	0xbde0c0ee	-0.109742984
91	0x3c870e99	0.016486453
92	0x3dde3c22	0.10851313
93	0x3d18b321	0.037280206
94	0x3de45fcf	0.111510865
95	0xbe2a06c1	-0.16604139
96	0x3dc58f47	0.096464686
97	0x3d578640	0.052618265
98	0x3d92eaa4	0.071736604
99	0xbcce433b	-0.025178542
100	0x3cd45922	0.025921408
101	0x3d536955	0.051614124
102	0xbd0fc613	-0.035101008
103	0x3db1e3e4	0.08686045
104	0xbd300d34	-0.04298134
105	0x3ca3308f	0.019920615
106	0xbdbb3ed9	-0.091428466
107	0xbbcb1e26	-0.0061986623
108	0x3ce1df3a	0.027572263
109	0xbac8322b	-0.001527374
110	0x3d48d3aa	0.049029984
111	0xbd1904b0	-0.037357986
112	0x3d2ac672	0.04169316
113	0x3e1b5f38	0.15173042
114	0xbd99b944	-0.0750604
115	0xbd29bdb1	-0.04144067
116	0xbc8c4962	-0.017124835
117	0xbd71b6fb	-0.059012394
118	0xbd3aca73	-0.045603227
119	0xbe34a3e6	-0.17640647
120	0x3dd0f888	0.102036536
121	0xbd80f365	-0.06296424
122	0x3cef4bf2	0.029211018
123	0xbd49bbd2	-0.049251385
124	0xbcbae128	-0.022812441
125	0x3bba7e75	0.0056913444
126	0x3c3f0200	0.011658192
127	0xbd5c1c07	-0.053737666
128	0xbc26b6b0	-0.010175392
129	0x3d54e8d0	0.05197984
130	0xbdfc3f09	-0.123167105
131	0x3d5cae63	0.053877246
132	0x3c0403a3	0.008057508
133	0x3ce6b34d	0.02816167
134	0xbe1483fc	-0.14503473
135	0xbd430694	-0.047613695
136	0xbdfb92ab	-0.12283834
137	0xbd845e5f	-0.06463312
138	0xbd8a1180	-0.06741619
139	0x3dcd30f2	0.10019101
140	0x3c4f6d08	0.012660272
141	0xbbe14a2e	-0.006875298
142	0xbd532083	-0.051544677
143	0xbd706a02	-0.058694847
144	0xbd71fceb	-0.059079092
145	0x3dd17e18	0.102291286
146	0x3d76ddd3	0.06027014
147	0xbd3c6615	-0.04599579
148	0x3c2126b9	0.009835892
149	0xbd027ed3	-0.03185923
150	0x3d868141	0.06567622
151	0xbc6f513f	-0.014606773
152	0x3d4877b5	0.048942287
153	0x3c465322	0.012104781
154	0xbd4a9264	-0.049456015
155	0x3d13f2d0	0.036120236
156	0xbdae7b27	-0.08519583
157	0x3d8550e4	0.06509569
158	0x3dc7adf8	0.09749979
159	0x3d090c3e	0.03345894
160	0x3c919199	0.017769622
161	0xbd006629	-0.031347428
162	0xbdbf9987	-0.09355455
163	0x3d7bdb50	0.06148845
164	0xbc8a0f41	-0.016852977
165	0xbe16e8aa	-0.14737192
166	0xbaca67b8	-0.0015442288
167	0xbd57e833	-0.052711677
168	0xbd8e435b	-0.06946441
169	0xbdb2538e	-0.08707343
170	0xbdb545d0	-0.08851206
171	0x3cc5536f	0.024087636
172	0xbcab2c7f	-0.02089524
173	0xbd1b96c9	-0.037985597
174	0xbc205628	-0.009786166
175	0x3e3fda55	0.18735631
176	0x3db7406e	0.08947836
177	0x3d9bb2c4	0.07602456
178	0x3d96da46	0.07365851
179	0xbccf3b0a	-0.025296707
180	0xbde0ea68	-0.109822094
181	0xbcb46a9d	-0.022023493
182	0x3c29fdf1	0.010375486
183	0xbab35dec	-0.0013684607
184	0x3db6b758	0.08921689
185	0xbd589fe3	-0.052886855
186	0x3dcdc414	0.100471646
187	0xbde6655f	-0.11249804
188	0x3e344391	0.176039
189	0xbe029736	-0.12752995
190	0xbca269eb	-0.019825896
191	0xbd2b7349	-0.04185799
192	0xbdef8572	-0.116953745
193	0x3d04feff	0.032469746
194	0x39331323	0.00017077899
195	0xbd684996	-0.056710802
196	0x3d820c30	0.06349981
197	0xbd93139f	-0.07181477
198	0x3e124b26	0.1428648
199	0xbd9ccc47	-0.0765615
200	0xbd16ab67	-0.036784556
201	0xbe04884d	-0.1294262
202	0x3c7f7784	0.01559246
203	0xbb68283b	-0.003542437
204	0x3da77ef8	0.08178514
205	0xbd85dc41	-0.06536151
206	0x3c73dee5	0.014884685
207	0x3c7833bf	0.015149056
208	0xbd331af8	-0.04372689
209	0xbda17fee	-0.07885729
210	0x3d551cc7	0.052029397
211	0xbd2e7062	-0.042587645
212	0xbc618ae1	-0.0137660215
213	0xbd9e43b2	-0.077277556
214	0xbdc39c0e	-0.095512494
215	0x3dc66a15	0.09688202
216	0x3cf55369	0.029947
217	0xbbe44cd3	-0.006967166
218	0x3d429a58	0.047510475
219	0xbe008d9d	-0.12554021
220	0xbc7f3d98	-0.01557865
221	0xbd130545	-0.035893697
222	0xbde1ae8e	-0.11019622
223	0x3db307a0	0.08741689
224	0xbdd75dd2	-0.10515942
225	0x3cfb3bc3	0.030668145
226	0xbd9ae448	-0.075630724
227	0xbcd2e7d7	-0.025745315
228	0xbcbe2a8b	-0.023213645
229	0xbb937270	-0.004499726
230	0xbde4780f	-0.11155712
231	0xbd35c887	-0.04438069
232	0xbd90d983	-0.07072737
233	0xbdc8580f	-0.09782421
234	0x3d3b6820	0.0457536
235	0x3d29a569	0.041417513
236	0x3d9746f1	0.07386578
237	0x3da3534b	0.07974871
238	0xbd9f067d	-0.077649094
239	0xbd5d1203	-0.053972255
240	0xbcd2f20b	-0.02575018
241	0xbdf7ed04	-0.12105754
242	0x3de57404	0.11203769
243	0x3d346f90	0.044051707
244	0x3dab5b06	0.08366971
245	0x3d403af5	0.046931226
246	0x3d77ac79	0.060467217
247	0x3dcb8767	0.09937935
248	0xbd178a21	-0.036996964
249	0xbd8d0dbc	-0.06887385
250	0x3d309907	0.04311469
251	0x3d4e9efe	0.050444596
252	0xbe00130d	-0.12507267
253	0xbc821291	-0.015877994
254	0xbd7fdd8b	-0.06246714
255	0x3de39bb3	0.11113682

bias f4 [128]
0	0xbdf534b3	-0.11972942
1	0x3d889685	0.06669334
2	0xbc45bf50	-0.012069538
3	0xbd86a063	-0.0657356
4	0xbd81809f	-0.06323361
5	0xbcbf2237	-0.023331745
6	0x3d819ae2	0.0632837
7	0x3bce9f5b	0.0063056177
8	0xbd4b8a06	-0.049692176
9	0xbd1b94dd	-0.037983764
10	0x3b23c3ff	0.002498865
11	0x3db653cc	0.08902702
12	0xbceb7cdc	-0.028746061
13	0x3d7d4d7f	0.061841484
14	0x3dfff77f	0.12498378
15	0x3d8e7b11	0.06957067
16	0x3baf86b9	0.0053566364
17	0x3d862e55	0.06551806
18	0x3c00604d	0.00783546
19	0x3dfcf665	0.123516835
20	0x3d6c2efc	0.057661995
21	0xbd95a477	-0.0730676
22	0x3d1914f4	0.037373498
23	0x3d307da0	0.043088555
24	0xbde7f869	-0.11326677
25	0x3d899f42	0.06719829
26	0xbd9aa56b	-0.07551082
27	0xbc058ab0	-0.008150741
28	0x3cce698d	0.025196815
29	0x3c8fa48c	0.017534517
30	0x3c8305a8	0.015993908
31	0xbb2c1011	-0.0026254694
32	0x3dd16eab	0.10226186
33	0xbd919738	-0.07108921
34	0xbd770c8a	-0.060314693
35	0xbd908791	-0.07057107
36	0x3b3bc4a2	0.0028651138
37	0x3cfb5da5	0.030684302
38	0x3dac449e	0.08411525
39	0xbd29189f	-0.041283246
40	0x3d87d56f	0.06632506
41	0xbdb45eca	-0.08807142
42	0xbd916ba6	-0.071006104
43	0xbddb6ac1	-0.10713721
44	0xbdc56bbb	-0.096396886
45	0xbda878b3	-0.082261465
46	0x3dd3f027	0.1034854
47	0x3d153416	0.036426626
48	0x3dc33f56	0.09533565
49	0x3c9e2cfa	0.019308556
50	0xbbfd218f	-0.0077249478
51	0xbd7a5088	-0.061111957
52	0x3d8c6434	0.0685505
53	0xbd07f016	-0.03318795
54	0xbcbc29d8	-0.022969171
55	0x3c52969c	0.012853291
56	0x3c9dc9b2	0.019261215
57	0xbd2ea7de	-0.04264056
58	0xbe1a8d01	-0.15092851
59	0x3c220534	0.009888936
60	0x3d9ce5e4	0.07661036
61	0x3cc7dedd	0.024398262
62	0xbdb475b4	-0.088115126
63	0xbd9292db	-0.07156917
64	0x3dab7311	0.083715566
65	0xbc40cdb9	-0.011767798
66	0xbdbd941b	-0.092567645
67	0x3dbac547	0.09119659
68	0x3bce1444	0.006289037
69	0x3c95786b	0.018245896
70	0x3d97303b	0.07382246
71	0x3d5d96c1	0.05409885
72	0x3d192300	0.037386894
73	0xbdb71e64	-0.089413434
74	0xbd4ef513	-0.05052669
75	0x3d78a6f9	0.060706113
76	0x3dd85675	0.10563365
77	0xbd0ad400	-0.033893585
78	0xbd16f1bf	-0.03685164
79	0xbdc700bc	-0.09716937
80	0xbdbfff98	-0.093749225
81	0x3cbac77f	0.022800205
82	0xbd984175	-0.0743436
83	0x3cdb86da	0.0267977
84	0x3c050c3c	0.008120593
85	0xbd34b600	-0.04411888
86	0xbc8fd6b9	-0.017558442
87	0xbdab1aa1	-0.083546884
88	0xbd29a808	-0.041420013
89	0x3e10af55	0.14129384
90	0x3d5e806b	0.054321688
91	0xbd09400f	-0.033508357
92	0xbdd9e71a	-0.10639782
93	0xbcac2d82	-0.021017794
94	0xbd81141e	-0.06302665
95	0xbd1bc4bb	-0.038029414
96	0x3c1b227b	0.00946867
97	0xbd6eb520	-0.058278203
98	0x3c7db2f0	0.015484557
99	0xbd8f20fe	-0.06988715
100	0x3df392d1	0.118932374
101	0xbe1c9060	-0.1528945
102	0xbd505a12	-0.050867148
103	0xbd51df7d	-0.051238526
104	0xba4721d2	-0.0007596287
105	0x3d2639b1	0.040582363
106	0x3d093bc0	0.033504248
107	0x3dc0b671	0.09409798
108	0x3da01d7c	0.07818124
109	0x3d5e1328	0.054217488
110	0x3c8b36b6	0.016993862
111	0xbda92ac8	-0.08260113
112	0x3d95502a	0.07290681
113	0x3c3a8f9c	0.011386778
114	0x3d91b166	0.07113914
115	0x3df90eea	0.12161048
116	0x3d0426f3	0.032263707
117	0x3dc6a21d	0.096988894
118	0xbd0f6bfd	-0.035015095
119	0xbe100cd1	-0.14067389
120	0xbdb27571	-0.087138064
121	0xbde8dbeb	-0.11370071
122	0x3d5ddd22	0.054165967
123	0xba4159ff	-0.0007375776
124	0xbd5694de	-0.052388065
125	0xbb3364c1	-0.0027373286
126	0x3d99327d	0.07480333
127	0x3d8bd02b	0.06826814

weight f4 [128, 128]
0	0xbde52ab6	-0.11189787
1	0x3c0bac7f	0.008525013
2	0x3c4d6433	0.012536096
3	0x3d3c296c	0.04593794
4	0xbd0b365d	-0.03398739
5	0xbda97928	-0.08275062
6	0xbd7997a5	-0.060935635
7	0xbc95f64a	-0.018305916
8	0x3ccc22d0	0.024918944
9	0x3ce89952	0.028393421
10	0x3da3c62b	0.07996782
11	0xbd77ed93	-0.060529303
12	0xbd05d4ea	-0.032673754
13	0xbcedb767	-0.029018117
14	0x3dca3b23	0.09874561
15	0x3d70d457	0.058796253
16	0x3bb51005	0.0055255913
17	0xbccdd80b	-0.025127431
18	0x3d0ec9a0	0.034860253
19	0xbd4cbff3	-0.049987745
20	0xbc163255	-0.0091672735
21	0x3dbb21cd	0.09137306
22	0xbcced366	-0.025247287
23	0xbd9a7008	-0.075408995
24	0xbdd4c59e	-0.10389255
25	0x3dc63a9f	0.0967915
26	0xbc83a715	-0.016070882
27	0x3dfab370	0.12241256
28	0x3cb6f397	0.02233295
29	0xbd253fe9	-0.040344153
30	0x3d80ac11	0.06282819
31	0xbd981755	-0.07426325
32	0xb82ded7c	-4.146759e-05
33	0xbd9209b7	-0.07130759
34	0x3d943702	0.072370544
35	0xbc95a86b	-0.018268785
36	0xbd4e804c	-0.050415322
37	0x3d8b09bb	0.06788965
38	0xbd89b45c	-0.06723854
39	0x3d7c38f2	0.061577745
40	0xbd441935	-0.0478756
41	0x3cd6f4fc	0.026239865
42	0xbb7f1237	-0.003892077
43	0x3d9220da	0.07135172
44	0x3dad74d6	0.0846955
45	0x3d2e1a6a	0.04250566
46	0x3dae64e5	0.08515338
47	0xbd65774a	-0.056021966
48	0xbc485944	-0.012228314
49	0xbbc21f1d	-0.005924119
50	0xbda5c515	-0.08094231
51	0xbd9eca42	-0.07753421
52	0x3dbdba99	0.09264106
53	0xbdaafdb0	-0.08349168
54	0x3dc8e72c	0.098097175
55	0xbd96a76a	-0.073561504
56	0xbd309af6	-0.043116532
57	0xbbd5b3c3	-0.0065216734
58	0x3b086196	0.002081012
59	0x3d8af005	0.06784061
60	0xbdb209bc	-0.08693263
61	0x3d3a8c8e	0.0455442
62	0xbdb6d9cc	-0.0892826
63	0x3d7c5637	0.06160566
64	0x3d9bcf75	0.07607929
65	0xbd00c7c7	-0.031440523
66	0xbc9ae089	-0.018905895
67	0xbd8bfb47	-0.06835037
68	0xbdcf9e29	-0.101375885
69	0xbd65336c	-0.055957243
70	0xbdd1a00e	-0.10235606
71	0xbc89d2fd	-0.01682424
72	0xbd7d4cf3	-0.061840963
73	0x3d432b7f	0.047648903
74	0x3ca7ae37	0.020468814
75	0xbc7abd57	-0.015303931
76	0xbdbcf47a	-0.09226318
77	0xbcec408f	-0.028839378
78	0x3c51013d	0.012756643
79	0x3d952bf8	0.07283777
80	0x3dbab58c	0.091166586
81	0x3bd627a8	0.006535489
82	0x3dcaee1d	0.09908698
83	0xbd1a862f	-0.037725624
84	0xbb85068b	-0.004059618
85	0x3dd5e645	0.10444311
86	0x3c68eac8	0.014216132
87	0xbdadb309	-0.08481414
88	0x3c4a0cf1	0.012332187
89	0xbc99343b	-0.018701663
90	0x3b835c4d	0.004008806
91	0x3d64d1e1	0.05586422
92	0xbc8fdc14	-0.017560996
93	0xbd6b59dc	-0.057458743
94	0x3d9bde62	0.076107755
95	0xba82b62d	-0.0009972506
96	0x3c9ea800	0.019367218
97	0xbb6291c4	-0.0034571746
98	0x3dbc69ad	0.091998436
99	0xbd61dff3	-0.055145215
100	0x3d4f8247	0.05066135
101	0xbd4c170d	-0.04982667
102	0x3ca9e74a	0.02074017
103	0x3be96af0	0.0071233436
104	0x3d92c23e	0.07165955
105	0xbdc5e29b	-0.09662362
106	0x3d680c04	0.056652084
107	0x3d188f64	0.037246123
108	0x3d911ff8	0.07086176
109	0x3ca64eea	0.020301301
110	0xbce8be90	-0.02841118
111	0xbd712254	-0.05887063
112	0xbdc1d0bd	-0.09463642
113	0x3dc51346	0.09622817
114	0xbdeeba67	-0.11656647
115	0x3d8b3cd2	0.0679871
116	0x3d4a5dc5	0.04940583
117	0x3d11b765	0.03557529
118	0xbccda66a	-0.025103766
119	0xbd89ed6b	-0.06734737
120	0xbd9d2022	-0.076721445
121	0x3d6f7f44	0.05847098
122	0xbd7fc3d0	-0.0624426
123	0x3cfd3a33	0.03091154
124	0xbd316069	-0.043304835
125	0x3d9ebdf8	0.077510774
126	0x3dd7487c	0.10511872
127	0xbca8f925	-0.020626614
128	0x3d73c15e	0.05951058
129	0xbd519a1c	-0.05117236
130	0xbdba0f94	-0.090850025
131	0xbb6d7992	-0.0036235792
132	0xbd792efe	-0.06083583
133	0x3dbc4c8c	0.09194288
134	0x3d4dc964	0.05024089
135	0x3c31352d	0.010815901
136	0xbbf55aad	-0.007487616
137	0xbd131a3f	-0.035913702
138	0xbd7d0eda	-0.06178174
139	0x3cf0fe04	0.029418
140	0x3dac0c56	0.084007904
141	0x3dff2758	0.12458676
142	0x3cad19db	0.021130493
143	0xbd42d4f0	-0.047566354
144	0x3bf5ec6c	0.0075049903
145	0x3dd618bd	0.10453937
146	0xbd64b283	-0.055834305
147	0x3c8c9048	0.017158642
148	0x3e082c21	0.13298084
149	0xbdabbf8e	-0.083861455
150	0x3d32e4cd	0.043675233
151	0x3c9b76df	0.01897758
152	0x3d885350	0.066565156
153	0xbd5d2931	-0.05399436
154	0x3d5f3176	0.05449053
155	0x3d6337dc	0.055473194
156	0x3d825975	0.06364719
157	0x3d67b934	0.056573108
158	0xbdd7908e	-0.105256185
159	0xbdb01cd6	-0.0859925
160	0xbd966b13	-0.073446415
161	0xbd42e259	-0.047579143
162	0x3cae9df0	0.021315545
163	0x3d730f3f	0.05934071
164	0x3d041ed0	0.032255948
165	0xbbeb5c21	-0.0071826135
166	0x3d51dc93	0.051235747
167	0xbd3dac97	-0.046307173
168	0x3d3ba46c	0.0458111
169	0x3d011fec	0.031524584
170	0x3d78de9a	0.060759164
171	0xbc02eeb3	-0.007991481
172	0x3cbee130	0.023300737
173	0x3d656ee9	0.056013975
174	0xbdd82a86	-0.10554986
175	0x3d6cd3da	0.057819225
176	0x3ca15f0e	0.019698646
177	0xbd30e152	-0.043183632
178	0xbc9070a9	-0.017631846
179	0x3ddcbcb0	0.10778177
180	0xbcf059ab	-0.029339632
181	0xbccf80a8	-0.025329903
182	0x3ca42c89	0.020040767
183	0xbb2ed3e0	-0.002667658
184	0x3d4722e4	0.04861726
185	0xbdc413f9	-0.09574122
186	0x3d656280	0.05600214
187	0xbcce75bd	-0.025202626
188	0x3daac9dc	0.08339283
189	0x3b9a52c4	0.0047095735
190	0x3c1a2ef0	0.009410605
191	0xbcc8a471	-0.024492474
192	0x3d4cf4e0	0.05003822
193	0x3d8faa69	0.07014925
194	0x3d7a88b2	0.06116552
195	0xbcfff8a7	-0.031246496
196	0x3d2a7763	0.041617762
197	0x3c4df75d	0.012571183
198	0xbc852045	-0.016250739
199	0x3c53ba41	0.012922824
200	0xbce289a4	-0.027653523
201	0xbe00e9cd	-0.12589188
202	0xbdac3cc5	-0.08410028
203	0xbd59f2ed	-0.053210188
204	0x3da4f9a8	0.08055431
205	0xbb19fc46	-0.0023496314
206	0xbd2b6902	-0.04184819
207	0xbb8e3b64	-0.004340576
208	0xbcb70642	-0.022341851
209	0xbdbba45c	-0.091622084
210	0xbd9589af	-0.07301652
211	0x3d059029	0.032608185
212	0xbd39db48	-0.04537514
213	0x3d282a63	0.041056048
214	0x3ba2191a	0.00494684
215	0x3d285318	0.04109487
216	0xbd26b6b7	-0.040701594
217	0x3cda98b1	0.026684137
218	0x3d902745	0.0703874
219	0xbd0081ef	-0.031373914
220	0xbc65aa21	-0.014017613
221	0xbd80bf38	-0.06286472
222	0x3d6dd2ea	0.05806247
223	0xbd8efe3c	-0.06982085
224	0xbd5a2d28	-0.05326572
225	0xbcb6f1ce	-0.022332098
226	0xbd9284da	-0.07154246
227	0xbc9743c8	-0.018464938
228	0xbd8bb29d	-0.06821177
229	0xbd0bfbd9	-0.034175728
230	0xbbaf5717	-0.005350958
231	0x3c53fa87	0.012938148
232	0xbd9c78dc	-0.076402396
233	0x3da5e2d3	0.08099904
234	0x3ddf57f5	0.10905448
235	0xbd66ee2a	-0.056379475
236	0x3ddf960b	0.1091729
237	0x3dbc700a	0.09201057
238	0xbc1ed544	-0.009694401
239	0xbd12b29b	-0.035814863
240	0x3cca2b3d	0.02467882
241	0x3cdf1d83	0.027235752
242	0x3bf2c570	0.0074087903
243	0x3dc11f33	0.09429779
244	0x3e052cdd	0.13005395
245	0x3de7988a	0.113083914
246	0xbd71646f	-0.05893367
247	0xbce1be12	-0.027556453
248	0x3d8e6002	0.06951906
249	0x3d83ddc8	0.06438786
250	0x3d9dad29	0.07699043
251	0x3ca84995	0.0205429
252	0x3bf69fbc	0.007526366
253	0x3c8fd216	0.017556231
254	0xbdea8a5f	-0.114521734
255	0xbd4083b3	-0.0470006

bias f4 [128]
0	0xbcebd4ee	-0.028788056
1	0x3dd1f6b9	0.10252137
2	0xbe0f2fe9	-0.1398312
3	0x3c0b7762	0.00851235
4	0xbd3439e0	-0.044000506
5	0xbc5c39f7	-0.013441554
6	0xbd6862c0	-0.0567348
7	0xbd38fc1f	-0.045162316
8	0x3d5df28d	0.054186393
9	0x3d3a5b29	0.045497093
10	0x3e02ba10	0.1276629
11	0xbd343f5d	-0.04400574
12	0x3d41d0cb	0.04731826
13	0x3df7bc05	0.12096409
14	0x3e30ffe4	0.17285115
15	0x3d1fba39	0.038995955
16	0xbd56e664	-0.05246581
17	0xbcafe541	-0.021471621
18	0x3c19c9b6	0.009386471
19	0x3cbd733a	0.023126233
20	0xbc69f79e	-0.014280228
21	0xbd28afae	-0.041183166
22	0x3d3584bb	0.044316035
23	0x3d72927d	0.059221733
24	0xbd933dc6	-0.07189517
25	0xbc869911	-0.01643041
26	0xbc86b954	-0.016445793
27	0xbe07788a	-0.13229576
28	0x3dbd0353	0.0922915
29	0xbc8bf842	-0.017086152
30	0xbcfcfb4f	-0.030881552
31	0x3d4fdace	0.050745778
32	0x3df4faac	0.11961874
33	0xbd52c291	-0.051455084
34	0xbcca5422	-0.02469832
35	0xbd72de04	-0.05929376
36	0x3c30dafc	0.010794397
37	0xbbd32f58	-0.006444853
38	0x3e22e079	0.15905942
39	0xbbbf8f75	-0.005845959
40	0x3d5ef451	0.054432217
41	0xbcea9166	-0.028633785
42	0xbcb92df8	-0.022604927
43	0xbd1a689b	-0.037697416
44	0xbd2150d8	-0.03938374
45	0xbcc78eb9	-0.024360048
46	0x3ca11734	0.019664384
47	0x3c37ca5f	0.011217683
48	0x3d28f646	0.04125049
49	0xbd54e83c	-0.05197929
50	0x3d53972f	0.05165785
51	0xbdb3c50e	-0.087778196
52	0x3c3ccb70	0.011523113
53	0xbe023345	-0.1271487
54	0xbdbf0ebd	-0.09328983
55	0x3db2aa70	0.087239146
56	0xbdf6fdc2	-0.12060119
57	0x3daf9963	0.08574178
58	0x3bf726c5	0.0075424635
59	0x3d311e51	0.043241803
60	0x3d1b220d	0.03787427
61	0x3d349de8	0.044095904
62	0x3d36ec49	0.044658933
63	0xbc7d243e	-0.015450535
64	0x3d0765ba	0.033056
65	0xbe223895	-0.15841897
66	0x3d8401d5	0.06445662
67	0x3b17300e	0.0023069414
68	0xbde115bd	-0.109904744
69	0x3da08d09	0.078394
70	0x3d89654d	0.06708775
71	0x3cf2360d	0.029566789
72	0xbc8cedcd	-0.017203236
73	0x3d3d6716	0.04624089
74	0xbe03b262	-0.12861016
75	0x3ddcf64c	0.10789165
76	0x3d2094b8	0.03920433
77	0xbd928c62	-0.07155682
78	0xbd4523e8	-0.048129946
79	0x3d74a7f0	0.05973047
80	0x3d39f565	0.045400042
81	0x3ccd73af	0.025079576
82	0xbd92345a	-0.071388915
83	0x3dcecfe2	0.10098244
84	0x3dce9edb	0.10088893
85	0x3c836135	0.016037563
86	0xbce412bb	-0.027840963
87	0x3c448e75	0.011996855
88	0xbc15e778	-0.009149425
89	0x3d184528	0.037175328
90	0xbc8186e5	-0.015811393
91	0xbb92e8f0	-0.0044833347
92	0xbd1c208b	-0.038116973
93	0xbde8e978	-0.11372656
94	0xbc7bb7d6	-0.015363654
95	0xbcfaef21	-0.030631604
96	0x3d5fd8d6	0.05465015
97	0x3da715fa	0.081584886
98	0xbd046ecb	-0.032332223
99	0xbd625b37	-0.05526277
100	0x3da0b4c6	0.0784698
101	0xbcd3edb7	-0.025870187
102	0xbdc801f9	-0.09766001
103	0xbc9b61d8	-0.018967554
104	0xbda598ec	-0.08085808
105	0xbd06a159	-0.032868717
106	0x3d3ec413	0.04657371
107	0xbc01de10	-0.007926479
108	0xbc98ca00	-0.018651009
109	0x3e0c57dd	0.13705392
110	0x3cd166f0	0.02556178
111	0x3cabaf43	0.020957595
112	0x3dd8c21e	0.105839
113	0x3d408ce1	0.047009353
114	0x3cfd7242	0.030938271
115	0x3dba50e5	0.09097461
116	0x3d21fedf	0.039549705
117	0x3e2c08d9	0.1680025
118	0xbce3a4fc	-0.027788632
119	0xbe323a66	-0.1740509
120	0xbde9de95	-0.11419407
121	0xbc65d0b8	-0.014026813
122	0x3d47786b	0.048698824
123	0xbdc1a5f2	-0.0945548
124	0xbddb814c	-0.10718021
125	0x3def2ba2	0.11678244
126	0x3ddb79fd	0.10716627
127	0xbcf9c682	-0.030490164

weight f4 [1, 128]
0	0xbd8da0d9	-0.06915445
1	0x3cdbe575	0.026842812
2	0xbdb1fd95	-0.08690945
3	0xbe19bc58	-0.15013254
4	0xbda9809e	-0.08276485
5	0xbc393bd9	-0.011305773
6	0xbe1413b8	-0.14460647
7	0x3cbefe8a	0.023314733
8	0x3ca4917a	0.0200889
9	0x3e4194b4	0.18904382
10	0x3cc488c1	0.02399099
11	0x3d92101e	0.0713198
12	0xbd479130	-0.048722446
13	0xbcefb97e	-0.029263254
14	0x3e135ef0	0.14391685
15	0x3defe361	0.11713291
16	0xbd0ce38d	-0.034396697
17	0xbdc6dfd8	-0.097106636
18	0xbe304261	-0.17212822
19	0x3cf8d8cd	0.030376816
20	0xbd8d480e	-0.06898509
21	0x3d096ca2	0.033550866
22	0x3d815238	0.0631451
23	0x3d6109cf	0.054940995
24	0xbd545d13	-0.051846575
25	0x3e042af0	0.12907004
26	0xbd8c07f0	-0.068374515
27	0xbe0c1ad4	-0.13682109
28	0x3e0c52c4	0.13703448
29	0x3dc3d990	0.09562981
30	0xbd018488	-0.031620532
31	0xbdba8ac8	-0.09108502
32	0x3e2c89ab	0.16849391
33	0xbe033063	-0.12811427
34	0xbd2526c8	-0.040320188
35	0xbdb6f059	-0.089325614
36	0x3e262174	0.16223699
37	0x3e3fa997	0.18717037
38	0x3e1b5200	0.15168
39	0xbdb7e69c	-0.08979532
40	0x3d90e14a	0.070742205
41	0xbd3adab9	-0.045618746
42	0xbd2fc8b4	-0.042916015
43	0xbe841b5b	-0.2580212
44	0xbd982d79	-0.07430548
45	0xbd960cc6	-0.07326655
46	0x3d1ba909	0.038003
47	0x3c64ebb3	0.013972211
48	0xbd4fb28b	-0.05070738
49	0xbbea1222	-0.007143275
50	0x3d648784	0.0557933
51	0xbe02ed14	-0.1278575
52	0x3d29b590	0.041432917
53	0xbd994834	-0.07484475
54	0xbdcdf4f4	-0.10056487
55	0xbd1a1084	-0.037613407
56	0xbdc79c9f	-0.0974667
57	0x3ddfe83f	0.10932969
58	0xbde4c68e	-0.11170684
59	0x3e3347b1	0.17507817
60	0x3d81bf31	0.06335295
61	0xbcea084e	-0.028568413
62	0xbd9c7626	-0.076397225
63	0xbd720381	-0.059085373
64	0xbebaac80	-0.36459732
65	0xbd71b765	-0.05901279
66	0x3d56601d	0.052337755
67	0x3d451568	0.048116118
68	0xbd4291cf	-0.047502335
69	0x3d47a526	0.048741482
70	0xbd4bb688	-0.049734622
71	0x3dfdffa0	0.12402272
72	0xbd9aa318	-0.07550639
73	0xbdcbd91f	-0.09953522
74	0xbd9f9770	-0.07792556
75	0x3d724b60	0.059153914
76	0x3de7d281	0.11319447
77	0x3deccc76	0.11562435
78	0x3d1d21ee	0.038362436
79	0x3d1b49a1	0.037912015
80	0xbdf024a8	-0.117257416
81	0xbcd4fbef	-0.025999038
82	0xbdb1a5a9	-0.08674175
83	0x3d9e2380	0.07721615
84	0xbdaa2cd4	-0.083093315
85	0x3d2d00b6	0.042237006
86	0xbd9e9405	-0.07743076
87	0x3dd944ea	0.106088474
88	0xbb4181e9	-0.0029526895
89	0x3ba3879d	0.0049905316
90	0x3ba9cbce	0.005181766
91	0xbd3ea4be	-0.04654383
92	0xbba07d6d	-0.0048977644
93	0xbd19affd	-0.03752135
94	0xbdb14098	-0.086548984
95	0x3c14b57a	0.0090764705
96	0x3d43c402	0.04779435
97	0xbd0a430a	-0.03375534
98	0x3ccd66fb	0.025073519
99	0xbd95945a	-0.073036864
100	0x3d0efbfc	0.03490828
101	0xbd9eed1e	-0.0776007
102	0xbd52b717	-0.05144414
103	0xbb16e1db	-0.0023022804
104	0x3c358161	0.01107821
105	0x3d9bca39	0.0760693
106	0xbe0045a2	-0.12526563
107	0x3d9e91a2	0.07742621
108	0x3cc2392d	0.023708904
109	0x3cbc5791	0.022990974
110	0x3e1009fd	0.1406631
111	0xbbfd8668	-0.0077369697
112	0x3daaa8e9	0.08332998
113	0xbd43410c	-0.047669455
114	0xbdc0b2ff	-0.09409141
115	0x3d3d573c	0.04622577
116	0x3b2d8ea6	0.002648273
117	0x3d3788f2	0.044808336
118	0x3d173046	0.03691127
119	0xbebef107	-0.37293264
120	0xbe165954	-0.14682513
121	0xbd93a481	-0.07209111
122	0xbdf45d44	-0.119318515
123	0xbd36b2b7	-0.04460403
124	0x3c2a3166	0.010387754
125	0x3bbd4d71	0.005777054
126	0x3d264fa1	0.040603284
127	0x3d6068e2	0.054787524

weight_ih_l0 f4 [384, 256]
0	0x3c91c7d1	0.017795475
1	0xbe22dfbe	-0.15905663
2	0x3ad27aff	0.0016058384
3	0xbc79f0d4	-0.015255172
4	0xbdc6cc79	-0.09706969
5	0xbdadb201	-0.08481217
6	0xbd879ac3	-0.06621315
7	0x3d6a98f0	0.05727476
8	0xbcd171d1	-0.025566967
9	0x3def1666	0.11674194
10	0x3c633f7a	0.013870114
11	0xbd447f75	-0.047973115
12	0xbcb88e75	-0.022528866
13	0x3dd43f63	0.103636526
14	0xbc9d2ba8	-0.019185856
15	0x3d73053a	0.059331156
16	0xbca4c094	-0.02011136
17	0xbc818a8c	-0.015813135
18	0x3ce94488	0.028475061
19	0xbd287d81	-0.041135315
20	0x3d91fc25	0.07128171
21	0xbd201b13	-0.03908832
22	0x3ca24d87	0.019812359
23	0xbbf5ff43	-0.007507236
24	0x3dc946bc	0.09827945
25	0xbca42612	-0.020037685
26	0x3dec3b51	0.11534751
27	0x3dd267cb	0.10273703
28	0xbd21c751	-0.039496724
29	0xbd3399cd	-0.043847848
30	0x3d746c60	0.059673667
31	0xbcab5d29	-0.020918446
32	0x3d18e7a9	0.037330303
33	0xbd205e00	-0.039152145
34	0xbbdebee7	-0.0067976597
35	0x3c01828d	0.007904661
36	0x3d0b6595	0.034032423
37	0x3d7c5f24	0.06161417
38	0xbd886f15	-0.06661812
39	0xbd8d2769	-0.068922825
40	0x3d88437b	0.06653496
41	0xbdaf8db9	-0.08571953
42	0x3c95eae3	0.01830048
43	0xbcd39365	-0.02582712
44	0xbcc0503f	-0.023475764
45	0xbe04e37d	-0.12977405
46	0xbbbc9673	-0.0057552396
47	0xbc57f39a	-0.013180638
48	0x3db5808b	0.08862408
49	0x3dac61ab	0.08417066
50	0x3e129ce8	0.14317667
51	0xbc97bda6	-0.018523049
52	0xbdc8d295	-0.0980579
53	0xbe177c96	-0.1479362
54	0xbd804045	-0.062622584
55	0x3e6ee540	0.2332964
56	0xbd095d0e	-0.03353601
57	0xbd2a96f6	-0.041647874
58	0xbda50fa3	-0.08059623
59	0xbd1759f4	-0.03695102
60	0x3bfc475f	0.007698938
61	0x3d84d8bb	0.064866506
62	0xbcf4fe6f	-0.02990648
63	0x3c4887db	0.012239422
64	0xbd9945dc	-0.07484028
65	0x3d2e96c0	0.042624235
66	0xbd0bbf4e	-0.03411799
67	0xbc3f542f	-0.011677786
68	0xbd1779f5	-0.03698154
69	0xbb274548	-0.0025523473
70	0x3cedcbe2	0.029027883
71	0xbc75391c	-0.014967229
72	0xbcc1c170	-0.023651809
73	0xbda6d73f	-0.08146524
74	0x3d9683e4	0.07349375
75	0xb9d8b453	-0.00041333082
76	0xbd44b4fa	-0.048024155
77	0xbd6a763e	-0.05724167
78	0xbe17dc83	-0.14830212
79	0x3dd05091	0.10171617
80	0xbd5c122e	-0.053728275
81	0xbc932b63	-0.017965024
82	0xbb78306c	-0.0037870659
83	0x3e1765d8	0.14784944
84	0xbd460601	-0.04834557
85	0x3c5d2750	0.013498142
86	0xbe07ace8	-0.13249552
87	0x3e011150	0.1260426
88	0x3db451c8	0.08804661
89	0x3e14987b	0.14511292
90	0x3db68af7	0.08913224
91	0x3c049ead	0.008094472
92	0xbd41f997	-0.047357168
93	0x3c6a5d08	0.014304407
94	0x3d9761e1	0.07391716
95	0x3d95aca8	0.07308322
96	0xbcd1e574	-0.025622107
97	0xbdd99726	-0.106245324
98	0x3cb49bb7	0.022046907
99	0x3be288a0	0.0069132596
100	0x3bfb5e31	0.0076711406
101	0xbd802991	-0.06257928
102	0x3c8b8487	0.017030967
103	0x3c57c0b1	0.0131685
104	0xbd0059e6	-0.031335734
105	0x3d8d0ec8	0.06887585
106	0xbd1887aa	-0.037238754
107	0x3d22b4fc	0.03972338
108	0xbdbf49b4	-0.0934023
109	0x3da8dd77	0.08245366
110	0xbd895ff9	-0.067077585
111	0x3c93213b	0.017960181
112	0x3caa37a6	0.020778488
113	0xbd14a05d	-0.036285747
114	0x3db0fa2f	0.08641469
115	0xbdc3bdf7	-0.09557717
116	0x3ad7bfdc	0.0016460377
117	0x3d8744ff	0.06604957
118	0xbd19a388	-0.03750947
119	0xbe8308ff	-0.255928
120	0x3da3adcb	0.07992133
121	0x3d9e2801	0.07722474
122	0x3d86809a	0.065674976
123	0xbe049d8e	-0.12950727
124	0x3d1c0509	0.03809074
125	0x3d680c6d	0.056652475
126	0x3cfed809	0.031108873
127	0xbbbb31a7	-0.005712706
128	0xbd085241	-0.03328157
129	0x3cd86564	0.026415534
130	0xbd71eec9	-0.059065614
131	0xbd8524c8	-0.06501156
132	0x3d2ba72c	0.041907474
133	0x3b6a367d	0.0035738044
134	0xbddd5f4a	-0.108091906
135	0xbd993127	-0.07480078
136	0x3d3770b9	0.044785235
137	0xbd0bc239	-0.034120772
138	0xbd5c57fc	-0.053794846
139	0x3c3bba96	0.01145806
140	0xbd065b39	-0.03280184
141	0xbdb3890d	-0.08766375
142	0x3e154106	0.14575586
143	0xbd5d5b9a	-0.054042436
144	0x3ca54476	0.020174246
145	0x3d916ae4	0.07100466
146	0xbc3672a4	-0.011135731
147	0xbd9c5635	-0.0763363
148	0xbe0c0fb8	-0.13677871
149	0xbda21940	-0.07914972
150	0x3dba8eef	0.09109294
151	0x3cedb0b4	0.029014923
152	0xbbe45908	-0.006968621
153	0xbdd466fa	-0.10371204
154	0xbd7b3b93	-0.06133611
155	0xbd7eefd5	-0.06224044
156	0xbddf2628	-0.108959496
157	0xbc450846	-0.012025898
158	0x3e02271e	0.12710235
159	0x3dd6a138	0.10479969
160	0xbc95614e	-0.018234875
161	0xbd0a16cd	-0.03371315
162	0x3d4bcfb6	0.049758635
163	0xbd7e9680	-0.062155247
164	0xbd75d204	-0.06001474
165	0x3d109db1	0.035306636
166	0xbca85397	-0.020547671
167	0xbd9d3f19	-0.076780505
168	0xbcae7762	-0.02129716
169	0x3cbd1bf1	0.023084613
170	0x3d72d372	0.05928368
171	0xbcbe45fe	-0.023226734
172	0xbda3ffde	-0.08007787
173	0x3d856745	0.06513838
174	0x3a42c133	0.00074293016
175	0x3d83112e	0.06399761
176	0x3dab38d6	0.0836045
177	0x3cc8a3d7	0.024492187
178	0xbc8fb99b	-0.017544558
179	0x3c944d90	0.018103391
180	0xbd89fd9d	-0.06737826
181	0x3b81581b	0.0039472706
182	0xbd9191cd	-0.071078874
183	0xbc253a9f	-0.010084777
184	0x3da8054a	0.08204134
185	0x3ba5c2e4	0.005058633
186	0xbd87df3e	-0.06634377
187	0x3d3c4764	0.04596652
188	0xbbbba412	-0.005726346
189	0xbce1c611	-0.027560266
190	0xbd82765d	-0.06370232
191	0xbba9ec1a	-0.005185616
192	0xbd73b126	-0.059495114
193	0x3d4f651c	0.050633535
194	0x3e6c8079	0.23095883
195	0x3d0f1f87	0.034942176
196	0x3d8d258f	0.06891929
197	0x3c9d3dda	0.019194532
198	0x3dfe7876	0.1242532
199	0xbd1cbff4	-0.038269
200	0xbd7eb227	-0.062181618
201	0x3d026397	0.031833258
202	0x3d2301fb	0.03979681
203	0x3d40d1b9	0.047075007
204	0x3dae6114	0.0851461
205	0x3d856a96	0.0651447
206	0xbd280e71	-0.041029397
207	0xbcbeddc5	-0.023299107
208	0xbd340d2e	-0.04395788
209	0xbdd0ab15	-0.10188881
210	0xbc144f09	-0.009052047
211	0xba9196e6	-0.0011107593
212	0xbc9cc44b	-0.019136569
213	0x3d60bfe4	0.0548705
214	0x3d616ca2	0.05503524
215	0x3dd24b3d	0.10268257
216	0xbc78456b	-0.015153269
217	0xb9767078	-0.00023502286
218	0xbd532759	-0.051551197
219	0x3d1b3023	0.037887704
220	0x3c28e658	0.0103088245
221	0xbda51212	-0.08060087
222	0xbda2f2b6	-0.0795645
223	0x3d5a47a6	0.053290986
224	0x3d70cef5	0.05879112
225	0x3d94beaa	0.07262929
226	0xbdb33289	-0.08749873
227	0x3d3abb63	0.045588862
228	0xbd500ebe	-0.05079531
229	0xbd536802	-0.05161286
230	0x3b26d058	0.0025453772
231	0x3d90954c	0.07059726
232	0x3ca9ef02	0.02074385
233	0xbd9ebcf7	-0.07750886
234	0x3a2a1454	0.00064880145
235	0x3d6b83ca	0.05749873
236	0xbd821a08	-0.06352621
237	0xbc88d77a	-0.01670431
238	0xbddb69c1	-0.1071353
239	0xbcc23e56	-0.023711365
240	0x3e038e52	0.1284726
241	0xbd84bf24	-0.0648177
242	0x3d902105	0.07037548
243	0x3df80e2a	0.121120766
244	0xbcce49bb	-0.025181642
245	0xbc89673a	-0.016772855
246	0xbd9ba45a	-0.07599707
247	0x3d325578	0.04353854
248	0xbcc9379a	-0.024562646
249	0x3b2655e0	0.0025380775
250	0x3d67394d	0.05645113
251	0x3cc05399	0.023477362
252	0x3dc2c8e4	0.09510973
253	0x3db85b7d	0.09001825
254	0xbdad38be	-0.08458088
255	0x3d7c3f95	0.061584074

weight_hh_l0 f4 [384, 128]
0	0x3df6d4a1	0.120522745
1	0x3d13b584	0.03606178
2	0xbcae5b3a	-0.021283735
3	0xbd322fe5	-0.043502707
4	0xbdec2fb0	-0.11532533
5	0xbdaf87e0	-0.08570838
6	0xbd99d9af	-0.07512223
7	0x3d89c1eb	0.0672644
8	0x3d4e5d0d	0.05038171
9	0xbbf61b3b	-0.0075105703
10	0x3e0969ea	0.1341931
11	0x3d58a32d	0.05288999
12	0x3dbc1ff6	0.091857836
13	0xbc3223e4	-0.010872815
14	0xbd8a99d7	-0.06767624
15	0xbe18064a	-0.14846149
16	0x39d29e0b	0.00040172072
17	0x3cdb9796	0.02680568
18	0xbdd2bed9	-0.102903076
19	0xbda4caec	-0.08046517
20	0xbe0d468e	-0.13796446
21	0xbd7fd997	-0.06246337
22	0xbe02ac91	-0.12761141
23	0x3dd1950c	0.102335066
24	0x3d610277	0.05493399
25	0x3d03f680	0.032217503
26	0xbd0de091	-0.03463799
27	0xbdb817c8	-0.08988911
28	0x3bc2b5da	0.0059420886
29	0xbdb893c6	-0.090125605
30	0x3de53843	0.11192372
31	0xbd96e05b	-0.07367011
32	0x3c0dfff0	0.008666977
33	0x3daa73e1	0.083228834
34	0xbd099309	-0.03358749
35	0x3e051bb4	0.12998849
36	0xbd641548	-0.055684358
37	0xbd3f3db0	-0.04668969
38	0x3d91550e	0.07096301
39	0xbd7502c9	-0.05981711
40	0xbd5ddcfe	-0.054165833
41	0xbce2d975	-0.027691582
42	0x3dbf7176	0.09347813
43	0x3d48429c	0.04889165
44	0xbd14ad7e	-0.036298268
45	0xbd4ba778	-0.049720258
46	0xbc9b790e	-0.018978622
47	0x3cfa27bd	0.030536527
48	0xbd66259c	-0.05618821
49	0x3d53651f	0.05161011
50	0xbd5e28ec	-0.054238245
51	0x3dca8941	0.0988946
52	0xbe2807f0	-0.16409278
53	0xbda8edd0	-0.08248484
54	0xbdc82cc9	-0.09774167
55	0x3d20fc4b	0.039303105
56	0xbdb738c7	-0.08946376
57	0x3d566127	0.052338745
58	0x3ca59c3a	0.020216096
59	0x3cc5451e	0.02408081
60	0x3e1e44f8	0.15455997
61	0x3d40c1b2	0.047059722
62	0xbc967eb8	-0.018370971
63	0x3d4aab34	0.04947968
64	0x3cec0e1c	0.028815322
65	0x3d0e3fa8	0.034728676
66	0x3c87f766	0.016597461
67	0xbdb8e89a	-0.0902874
68	0x3dcb717c	0.09933755
69	0xbd14d09f	-0.03633177
70	0xbcd2054c	-0.025637291
71	0xbd5c57e3	-0.053794753
72	0x3d25f1fb	0.040513974
73	0x3c48edea	0.012263754
74	0x3c1c3166	0.009533262
75	0xbdc21beb	-0.09477981
76	0xbda37259	-0.079807945
77	0x3d885800	0.0665741
78	0xbd2f0084	-0.0427251
79	0x3d4bce39	0.049757216
80	0x3d4b9e97	0.04971179
81	0x3c5eb356	0.013592562
82	0xbdbf24d5	-0.09333197
83	0xbd44348e	-0.047901683
84	0xbdddfe70	-0.10839546
85	0x3d9a3944	0.07530454
86	0xbe3e42d9	-0.18580188
87	0x3e54576a	0.20736471
88	0xbd53754f	-0.051625546
89	0x3d6a0fd1	0.05714399
90	0x3c0591b9	0.008152419
91	0xbd71c531	-0.059025947
92	0xbd8fe3df	-0.07025885
93	0x3e127931	0.14304043
94	0xbe3d2f25	-0.18475015
95	0xbdb5714f	-0.088595025
96	0xbd045edc	-0.032317027
97	0x3d456572	0.04819245
98	0x3d45fa41	0.048334364
99	0xbd172b3e	-0.036906473
100	0x3d548894	0.051888064
101	0x3d8ba609	0.06818778
102	0xbde4f1f2	-0.1117896
103	0x3d774d93	0.060376715
104	0x3ca4ae66	0.02010269
105	0x3e1934e4	0.14961582
106	0x3dfd3a2d	0.12364612
107	0x3db087f2	0.086196795
108	0x3d353e11	0.044248644
109	0x3d606ad4	0.05478938
110	0xbdb2b11e	-0.08725189
111	0xbe17b4dd	-0.14815088
112	0x3db60df7	0.08889382
113	0xbd6e437a	-0.05816982
114	0x3d9fc2b2	0.07800807
115	0x3ce61d7a	0.028090227
116	0x3bae5656	0.0053203506
117	0x3cfde7a5	0.030994246
118	0x3d7a2b33	0.061076354
119	0x3d234634	0.039861873
120	0x3d4870aa	0.04893557
121	0xbd8093e7	-0.0627821
122	0x3c848064	0.016174503
123	0x3dd3c21c	0.10339758
124	0xbce6f6a7	-0.028193785
125	0x3d60a7f8	0.054847687
126	0x3dabf315	0.083959736
127	0xbdc2452e	-0.09485851
128	0x3d6beba3	0.057597768
129	0xbd05832d	-0.032595802
130	0xbdd541b5	-0.10412923
131	0xbb714396	-0.0036813966
132	0xbdafc420	-0.0858233
133	0xbd3163a4	-0.043307915
134	0x3d7ef311	0.062243525
135	0x3ce93b02	0.02847052
136	0xbd8db6d8	-0.0691964
137	0x3dce9385	0.10086731
138	0xbbcd6531	-0.0062681665
139	0x3c68e3fa	0.01421451
140	0x3dd841dd	0.105594374
141	0xbd9b1879	-0.07573027
142	0x3c060d7f	0.008181929
143	0xbe0f8d91	-0.14018847
144	0x3da256a1	0.079266794
145	0xbd8287b0	-0.063735366
146	0x3dc694ef	0.096963756
147	0x3d9a9c42	0.07549335
148	0x3cd06977	0.025440915
149	0xbd949696	-0.072552845
150	0x3d73c6fb	0.059515934
151	0xbc811504	-0.015757091
152	0xbc5b48a0	-0.013384014
153	0xbcec15d8	-0.02881901
154	0x3db3ec05	0.087852515
155	0xbdbab7cd	-0.091170885
156	0xbc530d39	-0.0128815705
157	0xbca4361b	-0.02004533
158	0xbd497662	-0.049185164
159	0xbd5fc22f	-0.054628547
160	0xbcaeba4f	-0.021329073
161	0x3d58d7bc	0.052940115
162	0x3d746819	0.059669588
163	0x3d3edb47	0.046595838
164	0xbd928b3e	-0.071554646
165	0xbc6c752d	-0.014432234
166	0x3c6cfe6e	0.014464958
167	0x3db5318c	0.08847341
168	0xbc85cebb	-0.016333928
169	0x3d71cb7f	0.05903196
170	0xbd0e1029	-0.03468338
171	0xbe0cd1ae	-0.13751861
172	0x3d744aef	0.059641775
173	0x3d2565dd	0.040380348
174	0x3c1c006e	0.009521587
175	0x3cd0e9a7	0.02550204
176	0x3c76a5b1	0.015054152
177	0x3d61f7e8	0.055168062
178	0x3e1ab6a8	0.1510874
179	0x3e2d6549	0.16933168
180	0x3dcae8f6	0.09907715
181	0xbe4e8c1e	-0.20170638
182	0x3dfbe156	0.12298839
183	0xbdbc2079	-0.09185881
184	0x3dc528b5	0.09626905
185	0xbd9f5483	-0.07779791
186	0x3cc69e33	0.024245357
187	0x3e0318d9	0.12802447
188	0x3dbc7d10	0.09203541
189	0x3d011577	0.03151461
190	0xbd665800	-0.056236267
191	0x3c082ac5	0.008310978
192	0xbd25f0a7	-0.040512707
193	0x3d9300cd	0.07177887
194	0xbca670cc	-0.020317458
195	0x3ca10de6	0.019659948
196	0x3da2e67f	0.0795412
197	0xbd19c727	-0.037543442
198	0xbda5076a	-0.08058055
199	0xbdd018cc	-0.1016098
200	0xbc992140	-0.018692613
201	0xbdaac208	-0.0833779
202	0xbd9ab258	-0.075535476
203	0x3be27d95	0.006911943
204	0x3a5f3b8e	0.0008515649
205	0xbacf7822	-0.0015828649
206	0xbd9949df	-0.07484793
207	0x3dadae43	0.084805034
208	0xbd97b3b6	-0.07407324
209	0xbd4f2e1d	-0.050581086
210	0x3da888b7	0.08229201
211	0x3d2ddab7	0.04244491
212	0x3c26aae1	0.010172577
213	0x3c467b7a	0.0121144
214	0x3ca72a30	0.020405859
215	0xbdbcd4ba	-0.09220262
216	0x3d0bb8ba	0.034111716
217	0x3d531633	0.051534843
218	0xbd48e3ae	-0.049045257
219	0xbd389ee4	-0.045073405
220	0xbe134091	-0.14380099
221	0xbd941e1c	-0.072323054
222	0xbbb8a928	-0.0056353994
223	0x3dd6653e	0.10468529
224	0xbd0ee4fc	-0.034886345
225	0x3d5fdbca	0.054652967
226	0xbdd89be3	-0.10576608
227	0x3c7704b3	0.015076804
228	0xbcbffdf2	-0.02343652
229	0xbd200fb4	-0.039077476
230	0xbcf2afae	-0.029624786
231	0x3b8fc0b3	0.004386985
232	0xbdcc390b	-0.099718176
233	0x3d263aa1	0.040583257
234	0x3d96181c	0.07328817
235	0x3ca14fe1	0.01969141
236	0xbc756171	-0.014976845
237	0x3acfe8be	0.0015862209
238	0xbc8c98b4	-0.017162658
239	0xbd024f59	-0.031813953
240	0x3e147834	0.14498979
241	0x3d9af886	0.07566933
242	0x3c3ccf84	0.011524085
243	0x3d170197	0.03686675
244	0x3d999a6b	0.07500156
245	0xbd8be38d	-0.06830511
246	0x3dbddfb0	0.09271181
247	0xbd8c5821	-0.06852747
248	0x3c01a725	0.0079133855
249	0xbda0e61e	-0.07856391
250	0x3d8e9e17	0.06963747
251	0x3c7e614f	0.01552613
252	0xbde84691	-0.113415845
253	0x3da50b03	0.08058741
254	0xbd06ec87	-0.032940414
255	0x3bba79e0	0.005690798
