clean_data/models/decoder.pth (torch, 833208 bytes, 12 tensors)

weight f4 [98, 128]
0.19533435 -1.5607073 0.3275248 1.4492596 0.15775995 -0.7813437 -0.5397071 1.1411678
-0.50006235 1.6228316 -0.631252 0.43193343 -0.34949258 -0.78611463 -1.1277311 0.43018016
-0.7706855 -1.4379736 0.19150369 -0.205565 -1.029329 -1.4035046 1.7643687 -0.5160836
-0.033319846 0.89076656 -1.1217455 0.09139401 0.6039157 0.29051322 -0.32647568 0.13774122
0.40516385 0.6468077 0.65905666 -0.5023045 -0.40302128 -0.64660174 -0.34740412 0.763381
-0.42550987 -0.16818994 0.1272677 0.03229738 1.715486 -0.057583153 0.07030939 0.3924907
-0.9868956 1.7071394 1.6035607 0.20737045 -0.2625701 -0.44753775 0.08298929 0.6162402
-0.12558453 0.6787602 -2.3787327 -1.223129 -0.42767832 0.17181599 0.2443682 -0.22639027
0.38855308 -0.3669906 -1.0955997 0.771546 -0.74690926 1.46273 -0.45114496 -0.6631637
0.25182685 0.7087321 1.5883648 0.34656057 0.7801485 -0.45205483 -1.2101276 0.8160575
-0.3157892 -0.57336235 -0.74895334 0.05903552 0.00093235855 1.8365699 1.3228894 -0.30205804
-0.68510354 0.67163026 0.092109576 -1.3079758 -1.696989 -0.4502979 -0.5208424 1.3389213
-0.52841973 -1.3963248 -1.9737642 0.4478308 -2.0350158 -0.63634473 -0.6604588 0.7761143
1.0173517 -2.1262743 -0.40904534 0.9123873 0.7425655 -1.081211 0.25013858 0.80253005
-0.6715896 -1.2966592 0.4827183 -0.4506915 0.6923494 -1.8368443 -0.92243 -0.5843811
-0.6567735 -1.2127069 -0.91339946 -2.8507993 -0.23167507 -0.86816716 0.44901344 0.5652366
0.3686379 1.5448153 0.9224483 1.6100632 1.8413788 -0.08727149 -2.546215 -0.563115
0.6124756 0.099117085 -2.4177136 -0.55494946 -0.5655743 0.2001105 0.0770104 -1.6025587
-0.12902988 -0.9921745 -0.6492894 -0.9846978 1.4707769 0.9573782 -0.7712267 0.32510084
1.6640368 0.8918185 -0.9863388 1.361805 0.4531506 0.17265645 0.81151843 0.7835756
-1.493293 -0.646706 0.5169785 0.57089955 -1.756157 0.15541151 0.705483 -2.1234791
-2.0353703 -1.2621562 -0.69757706 2.4485755 -0.904762 -0.45665434 1.4381601 -0.65212774
0.6130858 -0.30002376 0.6429803 -0.1738043 -0.08887356 -0.03359895 0.8103182 2.250849
-0.3603859 -1.0670209 1.3970473 0.556425 1.7095332 1.0430148 0.41514102 0.5105931
2.065569 -0.47774 0.46317068 0.47820258 1.1619959 0.3467119 -1.1902713 0.6209951
1.7138023 -0.025192944 0.16726708 1.2942727 0.29605022 0.75700647 -0.7848489 0.5001336
-1.141873 -0.1403677 -2.584887 0.91404915 -1.9239527 1.8437635 -0.31510934 0.007450423
-1.1245309 -2.2778316 0.058524013 -0.9840493 -0.34787166 0.067803465 -0.82586753 0.086243175
1.1383309 -0.7975294 -0.47634056 -1.0836473 0.5997622 -0.5844044 0.49433234 2.3109705
1.1121677 -1.9832225 1.6372654 0.3740651 -0.9972427 -0.63476366 0.25411943 0.0754651
-0.076669045 -1.2277845 -1.5355614 0.06558718 -0.6723033 0.57803625 0.25472164 -0.52695984
-0.858417 -0.6670032 -0.0173719 -0.11775201 -0.09067829 0.98795617 0.1177494 0.65978336
00000000: ba05 483e 42c5 c7bf 55b1 a73e 5781 b93f
00000010: d38b 213e 2406 48bf 3f2a 0abf c911 923f
00000020: 1604 00bf f2b8 cf3f bb99 21bf 6126 dd3e
00000030: b1f0 b2be cf3e 49bf 7e59 90bf 9340 dc3e
00000040: a54b 45bf 850f b8bf 8b19 443e a27f 52be
00000050: 0dc1 83bf 0aa6 b3bf d5d6 e13f 0e1e 04bf
00000060: 647a 08bd 4709 643f 5b95 8fbf c82c bb3d
00000070: 389a 1a3f 26be 943e d227 a7be 090c 0d3e
00000080: a371 cf3e 3095 253f f0b7 283f 0797 00bf
00000090: ce58 cebe b187 25bf f4de b1be f06c 433f
000000a0: 6edc d9be fc39 2cbe 7752 023e 424a 043d
000000b0: 0c95 db3f 50dc 6bbd 5ffe 8f3d 8bf4 c83e
000000c0: 31a5 7cbf 8b83 da3f 7a41 cd3f eb58 543e
000000d0: 976f 86be ab23 e5be 4af6 a93d ebc1 1d3f
000000e0: 3b99 00be 3ac3 2d3f 283d 18c0 7e8f 9cbf
000000f0: a7f8 dabe 88f0 2f3e a83b 7a3e dad2 67be
00000100: 6ef0 c63e 31e6 bbbe 9c3c 8cbf 0a84 453f
00000110: 7235 3fbf bd3a bb3f 79fc e6be 19c5 29bf
00000120: 73ef 803e 786f 353f 8a4f cb3f 6370 b13e
00000130: d0b7 473f bb73 e7be 76e5 9abf 25e9 503f
00000140: 1faf a1be e0c7 12bf 68bb 3fbf 3bcf 713d
00000150: 8669 743a b914 eb3f 7154 a93f 5aa7 9abe
00000160: f262 2fbf f6ef 2b3f f2a3 bc3d c06b a7bf
00000170: f036 d9bf 728d e6be ed55 05bf c661 ab3f
00000180: 8446 07bf c5ba b2bf 4ea4 fcbf 144a e53e
00000190: b33d 02c0 7de7 22bf d413 29bf 6daf 463f
000001a0: 9538 823f e114 08c0 646e d1be 3792 693f
000001b0: c618 3e3f 1f65 8abf 2a12 803e 9c72 4d3f
000001c0: 4ced 2bbf eef8 a5bf da26 f73e 09c1 e6be
000001d0: cf3d 313f b71d ebbf 5f24 6cbf 009a 15bf
000001e0: 4f22 28bf fb39 9bbf 8cd4 69bf 7f73 36c0
000001f0: 3b3c 6dbe 3440 5ebf 17e5 e53e 59b3 103f
00000200: 1bbe bc3e 82bc c53f 9225 6c3f 8d16 ce3f
00000210: 4db2 eb3f 65bb b2bd 30f5 22c0 4e28 10bf
00000220: 33cb 1c3f e6fd ca3d d2bb 1ac0 2b11 0ebf
00000230: 7ac9 10bf c4e9 4c3e a1b7 9d3d a520 cdbf
00000240: 6920 04be 26ff 7dbf d537 26bf 2815 7cbf
00000250: 6b42 bc3f bd16 753f 1d6f 45bf 9e73 a63e
00000260: 28ff d43f 384e 643f b380 7cbf a04f ae3f
00000270: 5b03 e83e dacc 303e acbf 4f3f 6998 483f
00000280: 3a24 bfbf 868e 25bf b458 043f 7926 123f
00000290: c1c9 e0bf 3224 1f3e 899a 343f 15e7 07c0
000002a0: 8243 02c0 568e a1bf 6994 32bf 76b5 1c40
000002b0: 7c9e 67bf 99ce e9be a115 b83f d8f1 26bf
000002c0: 31f3 1c3f b79c 99be 5b9a 243f c1f9 31be
000002d0: 5703 b6bd 0d9f 09bd 0371 4f3f e90d 1040
000002e0: 8084 b8be 2494 88bf 72d2 b23f de71 0e3f
000002f0: fcd1 da3f 8281 853f 5d8d d43e 3bb6 023f
00000300: 4832 0440 569a f4be b524 ed3e f8d6 f43e
00000310: 48bc 943f 3984 b13e cf5a 98bf 89f9 1e3f
00000320: e05d db3f 6f61 cebc 1048 2b3e baaa a53f
00000330: e593 973e 2dcb 413f dceb 48bf c108 003f
00000340: e528 92bf 8dbc 0fbe ca6e 25c0 20ff 693f
00000350: 1544 f6bf 7100 ec3f 0356 a1be ae22 f43b
00000360: a1f0 8fbf fec7 11c0 e0b6 6f3d a8ea 7bbf
00000370: 3c1c b2be 8bdc 8a3d 0e6c 53bf 43a0 b03d
00000380: d4b4 913f e32a 4cbf e9e2 f3be f4b4 8abf
00000390: 048a 193f 879b 15bf 2119 fd3e f1e6 1340
000003a0: 835b 8e3f 3cda fdbf ea91 d13f 7685 bf3e
000003b0: 4c4b 7fbf df7f 22bf f11b 823e 728d 9a3d
000003c0: a904 9dbd 0b28 9dbf 478d c4bf 9252 863d
000003d0: 121c 2cbf 2ffa 133f e06a 823e d7e6 06bf
000003e0: 37c1 5bbf b9c0 2abf 844f 8ebc f727 f1bd
000003f0: 8ab5 b9bd b2ea 7c3f 9926 f13d 90e7 283f

weight f4 [128, 128]
0.067360595 0.044664007 0.1117765 0.07397769 0.21821752 -0.1263057 0.07082805 -0.089103155
0.011141653 0.110926405 -0.08125453 -0.12084629 0.006887487 0.23119037 0.07559243 -0.06569315
0.15757549 -0.024257533 0.087577045 0.07894334 -0.041229922 -0.1439971 0.098207265 0.22969152
0.08223731 -0.09204403 0.10314392 0.045500837 0.073619224 -0.0053329663 -0.04392911 -0.21097098
-0.16255851 -0.016481573 -0.11539576 -0.024088686 -0.00075338146 -0.06670789 -0.06956741 -0.05087565
0.12242618 0.03268138 -0.0678078 0.012678722 -0.04236071 0.06385076 -0.03531401 0.16143171
-0.067365766 0.05564073 -0.08815365 0.0319716 0.119041204 -0.09504959 0.05408472 0.05293817
0.037566286 -0.09869324 0.004581042 -0.07960523 0.070939794 0.063453384 -0.16904986 -0.012421599
-0.1286296 0.06249874 -0.040008683 -0.04993101 0.02296453 0.11849229 0.13043158 0.014293986
0.04610269 -0.03259035 -0.044484 0.15780632 0.10445606 0.09296947 -0.1448675 0.066907786
-0.09017859 0.026830086 -0.060945977 0.09063888 0.060258593 -0.01747677 0.017085524 -0.12404122
0.023048328 0.009941421 0.016548956 0.16913243 -0.021040767 0.06669528 -0.026003707 0.07797275
0.03126525 -0.021464277 0.076005936 0.09859176 0.09092739 0.04296774 -0.03009532 -0.030577399
-0.09662505 0.0016937942 0.021041565 0.0054210713 0.08570926 0.20636417 -0.0989766 -0.009760418
-0.10765352 0.044245593 -0.05361133 0.10779068 0.08612761 0.05080801 0.070386395 -0.03437793
-0.16456494 0.0039375206 -0.14976372 0.021381233 0.05156269 -0.10455951 0.028721437 0.032195315
0.04254097 0.06353098 0.056005348 0.04999719 -0.068306826 0.03940948 0.09143699 -0.038207654
0.051609997 0.038515918 -0.08075005 0.18015972 0.04727121 0.06961272 0.026980795 0.10706356
0.0089772595 -0.053746026 0.0221267 0.009952463 -0.07690906 -0.09488192 -0.041935734 -0.09353655
-0.05899987 0.03549821 -0.055278722 -0.021480862 -0.04340227 0.14286098 -0.11344163 0.019999336
-0.09884917 -0.055952832 -0.07490255 -0.024004593 0.079381794 0.031334046 -0.098922506 0.037149936
0.027380131 0.14404853 -0.034779623 -0.14804627 0.034963537 0.018343424 0.08596217 -0.08720813
0.025626905 0.04117786 -0.01566835 -0.11412192 0.024274413 -0.017927336 0.14419764 0.10431
0.020589108 -0.066337384 0.054902773 -0.012734807 -0.047457542 0.08408262 0.119850844 0.09828641
-0.019962821 0.039683037 -0.17088209 0.069640115 0.04514645 0.07657951 0.10474302 -0.0033973614
0.047888007 -0.14955612 -0.0017829 0.021301532 0.06070591 0.036097612 -0.11108713 -0.045010682
-0.09731221 -0.04259759 -0.16855946 0.03403898 0.06435389 0.019819273 -0.033138372 -0.004182446
0.003729581 -0.03551592 0.043820746 0.07388734 -0.04278108 0.03153749 -0.19039592 -0.12053571
-0.06368523 -0.01994368 0.02727064 -0.060725987 0.05784568 0.0680948 -0.12392402 0.023002515
-0.029937502 -0.05135334 -0.004628202 0.08158774 0.08770964 0.119814634 0.06135279 -0.13426569
-0.07717482 0.0056317872 -0.018552575 0.0303743 -0.0305458 0.12126955 0.021503411 0.025516119
0.023856234 -0.019758953 -0.046206627 0.048728716 0.13380165 0.044806395 -0.12895851 0.07613535
00000000: 5af4 893d 9bf1 363d 14eb e43d 9d81 973d
00000010: 6a74 5f3e 4856 01be 4c0e 913d b77b b6bd
00000020: 7b8b 363c 622d e33d c668 a6bd 427e f7bd
00000030: 6eb0 e13b 2bbd 6c3e 34d0 9a3d 218a 86bd
00000040: 785b 213e bcb7 c6bc 985b b33d 0cad a13d
00000050: b5e0 28bd fa73 13be e420 c93d 4134 6b3e
00000060: 096c a83d 9581 bcbd 1f3d d33d 165f 3a3d
00000070: adc5 963d 2ac0 aebb 03ef 33bd c708 58be
00000080: bd75 26be 5d04 87bc 9d54 ecbd a355 c5bc
00000090: 937e 45ba 259e 88bd 5c79 8ebd fc62 50bd
000000a0: 94ba fa3d e9dc 053d d1de 8abd 6aba 4f3c
000000b0: 6d82 2dbd 30c4 823d 6ca5 10bd 5b4e 253e
000000c0: 10f7 89bd 89e7 633d e789 b4bd a7f4 023d
000000d0: e0cb f33d 5ca9 c2bd f087 5d3d b2d5 583d
000000e0: 1bdf 193d ae1f cabd 911c 963b 1108 a3bd
000000f0: e248 913d d9f3 813d 681b 2dbe f683 4bbc
00000100: 7ab7 03be aefe 7f3d 25e0 23bd 7584 4cbd
00000110: 1c20 bc3c 16ac f23d db8f 053e 5331 6a3c
00000120: 2dd6 3c3d 757d 05bd db34 36bd fb97 213e
00000130: 0fed d53d c766 be3d 2558 14be f306 893d
00000140: 8daf b8bd c5ca db3c 7da2 79bd e1a0 b93d
00000150: b7d1 763d 712b 8fbc f1f6 8b3c 5309 febd
00000160: d9cf bc3c 58e1 223c ad91 873c 0d31 2d3e
00000170: b05d acbc 8997 883d ba05 d5bc 2db0 9f3d
00000180: fe0f 003d dad5 afbc 00a9 9b3d 7aea c93d
00000190: 2438 ba3d f1fe 2f3d 768a f6bc 747d fabc
000001a0: 5be3 c5bd 4d02 de3a 5c5f ac3c 3ea3 b13b
000001b0: 5688 af3d 2151 533e 3eb4 cabd 29ea 1fbc
000001c0: 7379 dcbd de3a 353d 8e97 5bbd 5cc1 dc3d
000001d0: ac63 b03d 0f1c 503d be26 903d dfcf 0cbd
000001e0: b683 28be 5106 813b a95b 19be b227 af3c
000001f0: 6633 533d 4c23 d6bd 3849 eb3c 3cdf 033d
00000200: 713f 2e3d 881c 823d dd65 653d dac9 4c3d
00000210: 73e4 8bbd d66b 213d 5143 bb3d a17f 1cbd
00000220: 0165 533d dec2 1d3d 4860 a5bd ca7b 383e
00000230: 759f 413d 1d91 8e3d d406 dd3c 2444 db3d
00000240: 5b15 133c cb24 5cbd 0e43 b53c a80f 233c
00000250: 7f82 9dbd 7451 c2bd cec4 2bbd 1790 bfbd
00000260: d9a9 71bd 9266 113d f16b 62bd a2f8 afbc
00000270: 94c6 31bd 264a 123e 1654 e8bd a6d5 a33c
00000280: 6f71 cabd cc2e 65bd 8266 99bd 48a5 c4bc
00000290: ec92 a23d 2158 003d e297 cabd 882a 183d
000002a0: 4c4c e03c 7581 133e 1475 0ebd 7199 17be
000002b0: ed35 0f3d f344 963c ef0c b03d 2d9a b2bd
000002c0: 84ef d13c 1eaa 283d e95a 80bc c1b8 e9bd
000002d0: 22db c63c 59dc 92bc 8ca8 133e 7ba0 d53d
000002e0: 7daa a83c e5db 87bd bbe1 603d a7a5 50bc
000002f0: d762 42bd 8233 ac3d 5c74 f53d 634a c93d
00000300: 1289 a3bc ae8a 223d b7fb 2ebe 7a9f 8e3d
00000310: 7ceb 383d b8d5 9c3d 8283 d63d 44a6 5ebb
00000320: 3726 443d 3d25 19be 32b0 e9ba 8d80 ae3c
00000330: c3a6 783d 17db 133d a681 e3bd 1f5d 38bd
00000340: a04b c7bd cf7a 2ebd da9a 2cbe 756c 0b3d
00000350: f9cb 833d 075c a23c 1abc 07bd e60c 89bb
00000360: fc6b 743b 2479 11bd 627d 333d 3f52 973d
00000370: 373b 2fbd 752d 013d 26f7 42be 6ddb f6bd
00000380: 676d 82bd ee60 a3bc ad66 df3c d0bb 78bd
00000390: 97ef 6c3d 4975 8b3d e0cb fdbd c56f bc3c
000003a0: 7e3f f5bc e157 52bd 2ca8 97bb 7917 a73d
000003b0: 1da1 b33d 6061 f53d 104d 7b3d f27c 09be
000003c0: d50d 9ebd db8a b83b 92fb 97bc 86d3 f83c
000003d0: 303b fabc 2b5c f83d ec27 b03c 2e07 d13c
000003e0: 266e c33c 87dd a1bc 2943 3dbd c397 473d
000003f0: 4d03 093e e986 373d b30d 04be daec 9b3d

bias f4 [128]
0.033322934 0.060583543 0.006341825 0.038901065 -0.09434321 0.011601506 -0.009427462 0.0036301392
-0.053485308 -0.0439445 -0.07112309 -0.016689207 -0.09174867 0.060733803 -0.01166121 0.009998661
-0.03659438 -0.016163414 -0.05158648 -0.060682897 -0.091486536 -0.0428091 0.05198393 -0.0032916954
0.061969455 0.111281686 -0.053549845 0.010839269 -0.04193 0.07571784 -0.033742692 -0.05946639
-0.033081077 0.034045238 -0.021759238 0.036913875 -0.060718548 0.0607814 -0.029800713 -0.06659592
0.0069147297 0.061618973 0.047967903 0.060510214 -0.019704958 0.031835742 -0.036256537 -0.022072477
0.07317704 0.08776573 0.05129193 0.08907795 0.13209328 0.06619543 0.016970163 -0.0021603925
-0.0135408435 0.053748142 -0.008396923 -0.045197956 -0.06832072 -0.01941566 -0.06275513 -0.11609816
-0.016421042 -0.036308415 -0.096930616 0.115426466 0.0063186944 0.056550305 0.025071306 0.051038947
-0.020065662 -0.10323286 0.073555246 -0.032938983 0.031616144 -0.13054235 0.009582644 0.15837488
0.059084885 0.05361638 -0.106093675 0.029349335 0.02270439 0.001216295 -0.0084195 -0.024498055
-0.06756124 0.0035389948 0.07845558 0.111014284 -0.027006796 -0.00036969662 0.043946784 -0.014375834
0.17416918 -0.059016846 0.0671668 0.070027545 0.13680805 0.04412736 0.03321988 -0.069121815
-0.10602896 -0.0225427 0.123880416 -0.0702635 0.06752296 -0.056887694 0.0040867305 -0.019960491
-0.054383278 0.08109786 0.010210563 0.036995232 0.039000574 -0.012200784 -0.07564929 0.07928863
-0.030458525 0.02069205 0.0214789 -0.019827118 0.06219046 -0.018845268 -0.11806128 -0.092178814
00000000: a17d 083d 7326 783d 15cf cf3b b956 1f3d
00000010: 0337 c1bd 3e14 3e3c a475 1abc a1e7 6d3b
00000020: 6913 5bbd 26ff 33bd fca8 91bd ceb7 88bc
00000030: bae6 bbbd 02c4 783d a90e 3fbc 6cd1 233c
00000040: fde3 15bd 2369 84bc 584c 53bd a18e 78bd
00000050: 4b5d bbbd 9858 2fbd 1aed 543d 7cb9 57bb
00000060: afd3 7d3d a7e7 e33d 1557 5bbd 3097 313c
00000070: cbbe 2bbd f411 9b3d c735 0abd 0893 73bd
00000080: 0680 07bd 0573 0b3d 6e40 b2bc 0133 173d
00000090: 03b4 78bd ebf5 783d a020 f4bc 7163 88bd
000000a0: f594 e23b 2d64 7c3d fe79 443d 8fd9 773d
000000b0: 4b6c a1bc 3266 023d bc81 14bd 57d1 b4bc
000000c0: d8dd 953d 85be b33d 7d17 523d 806e b63d
000000d0: 7643 073e 7891 873d 0305 8b3c 5f95 0dbb
000000e0: 6ada 5dbc 0327 5c3d 3f93 09bc 7e21 39bd
000000f0: bceb 8bbd 970d 9fbc c385 80bd dfc4 edbd
00000100: 6c85 86bc 22b8 14bd 8f83 c6bd b664 ec3d
00000110: 0d0d cf3b 4ba1 673d 5762 cd3c 370e 513d
00000120: be60 a4bc c06b d3bd 22a4 963d 07eb 06bd
00000130: ee7f 013d e5ac 05be 8600 1d3c 062d 223e
00000140: fe02 723d d99c 5b3d a447 d9bd 046e f03c
00000150: 8ffe b93c 166c 9f3a f1f1 09bc 25b0 c8bc
00000160: 8c5d 8abd 7bee 673b 52ad a03d 755b e33d
00000170: 5b3d ddbc d7d3 c1b9 8b01 343d 9e88 6bbc
00000180: 6859 323e a6bb 71bd bf8e 893d 9a6a 8f3d
00000190: 6917 0c3e e4be 343d 9211 083d bd8f 8dbd
000001a0: b625 d9bd 78ab b8bc 04b5 fd3d 4fe6 8fbd
000001b0: 7a49 8a3d 1203 69bd fbe9 853b 2f84 a3bc
000001c0: 00c1 5ebd a316 a63d 354a 273c 5088 173d
000001d0: 11bf 1f3d cce5 47bc 04ee 9abd 1462 a23d
000001e0: 2884 f9bc 6082 a93c 85f4 af3c 7b6c a2bc
000001f0: 6cbb 7e3d 6461 9abc 1dca f1bd 3fc8 bcbd

weight f4 [128, 128]
0.040019695 -0.033440873 -0.034324195 0.0073475684 -0.024263276 0.086967945 -0.045133825 -0.05525158
-0.10371166 0.123700894 0.038778447 -0.030267624 -0.1697801 -0.06799139 -0.004632601 -0.024002036
-0.07960903 -0.02643456 -0.13205893 -0.08685494 -0.09653306 -0.028484065 0.02232544 0.015305558
-0.07405659 -0.06353163 0.06172106 0.05909266 0.07506218 -0.05838177 -0.062393058 -0.13130492
-0.010679176 0.016041325 -0.0057473006 0.030388847 -0.04182463 0.007141218 -0.002916609 0.09791424
0.13717996 -0.10122342 -0.008000277 0.17098854 0.12001677 0.041886136 0.048127465 -0.041728344
0.028837686 -0.06871452 0.15339111 -0.032792084 -0.1341018 -0.031622697 -0.06746809 -0.097268805
-0.046367068 -0.012252704 0.07349287 -0.12276078 0.03875121 -0.098066285 -0.15579373 0.023228312
0.039205883 -0.060309406 0.16818932 0.017733788 0.088035785 -0.09036307 0.071894586 -0.1647084
0.084522665 -0.015989844 -0.03499285 0.03680018 0.05433273 0.039687693 -0.013430814 0.105073765
-0.038136918 -0.019363888 0.105416246 -0.029310673 0.057915818 0.09158429 -0.18342622 0.046982355
-0.115620576 0.056681678 -0.045290887 -0.0021145414 -0.007847694 0.13843085 0.02560162 0.010537865
-0.053127952 -0.08317582 -0.04175398 0.015361652 -0.07641147 -0.08907525 0.02049111 0.003153108
0.07324098 -0.0625221 0.0027812894 0.036404733 0.12024352 0.03852256 -0.12911001 0.11887366
0.101102784 0.0315156 -0.047056366 -0.01718489 0.070684366 -0.07821735 0.024234513 -0.064465195
0.031754524 0.050875623 -0.10001539 0.05480486 -0.044905756 -0.0064086444 -0.07167063 0.074931994
0.07184105 -0.036737885 0.041747697 0.06756048 -0.03388803 0.0097036725 -0.019192405 0.061751228
-0.03624315 -0.10239692 -0.06513007 0.09428921 -0.080968305 0.021777708 0.038694385 0.04616986
-0.02125737 -0.0068111294 0.047584243 0.057777647 0.0226477 -0.020001939 0.046129297 -0.084057786
0.034953114 -0.0025032863 0.10069248 -0.17730886 0.07261549 0.042924568 -0.060257062 -0.06904635
-0.08134512 0.11193192 0.062256414 -0.025462758 0.06463462 0.07179581 -0.041087277 0.1270421
0.033441696 0.066593386 0.05322955 0.014618512 0.020426026 0.0071758563 -0.060709428 -0.103502385
-0.0937966 -0.071611494 0.08538429 -0.059005 -0.011182357 0.09068309 0.07582104 0.07433895
0.04425386 -0.02521092 -0.0958428 -0.056098543 -0.03971143 0.05497065 0.056559827 0.084613174
0.061113063 -0.03725338 0.07597219 -0.031582158 -0.071040556 -0.0772654 0.10228139 0.035064418
0.06426182 0.024516884 0.07401394 -0.059465762 0.10457583 0.088224605 0.041596036 -0.029101092
0.1300272 -0.050139356 0.0763147 0.0019533935 0.048861876 0.079544984 -0.015106796 0.021879239
0.026244799 -0.00020066081 0.04164324 -0.027727978 -0.044108767 0.06918463 -0.06575832 0.013388857
0.09533922 0.028376648 -0.06569246 -0.026265435 -0.08772801 0.004609631 0.06487069 0.021194909
0.107711785 -0.07989868 0.00067626784 0.03544033 -0.008200247 -0.03840601 0.05496163 -0.04224146
-0.030683525 0.03978964 -0.13168319 0.02538455 -0.018137254 0.12138662 0.031778008 0.035949025
-0.020294748 -0.014145992 -0.033891153 -0.026561376 -0.04008356 -0.021311138 -0.058364812 0.026155354
00000000: b1eb 233d 4cf9 08bd 8797 0cbd dfc3 f03b
00000010: c7c3 c6bc 401c b23d 3fde 38bd 7b4f 62bd
00000020: c766 d4bd e556 fd3d 26d6 1e3d cff3 f7bc
00000030: d6da 2dbe 123f 8bbd 13cd 97bb eb9f c4bc
00000040: 0f0a a3bd 4a8d d8bc 753a 07be 01e1 b1bd
00000050: 20b3 c5bd 6a57 e9bc d7e3 b63c 2ac4 7a3c
00000060: fbaa 97bd df1c 82bd 39cf 7c3d 250b 723d
00000070: 33ba 993d b921 6fbd dd8f 7fbd cc74 06be
00000080: b6f7 2ebc 1969 833c da53 bcbb 08f2 f83c
00000090: 4e50 2bbd e100 ea3b 9424 3fbb 4387 c83d
000000a0: e778 0c3e 394e cfbd 9813 03bc 9f17 2f3e
000000b0: 5acb f53d cc90 2b3d 4e21 453d 57eb 2abd
000000c0: 033d ec3c 33ba 8cbd 8f12 1d3e fe50 06bd
000000d0: fb51 09be cd86 01bd b62c 8abd de34 c7bd
000000e0: 65eb 3dbd 91bf 48bc 6e83 963d 016a fbbd
000000f0: 97b9 1e3d fad6 c8bd 6488 1fbe 4d49 be3c
00000100: 5996 203d ff06 77bd d239 2c3e 7346 913c
00000110: 1b4c b43d 4610 b9bd 783d 933d 52a9 28be
00000120: 381a ad3d 22fd 82bc aa54 0fbd c9bb 163d
00000130: ff8b 5e3d 908f 223d eb0c 5cbc ea30 d73d
00000140: 7535 1cbd 04a1 9ebc 79e4 d73d f01c f0bc
00000150: 2339 6d3d 8b90 bb3d 15d4 3bbe 9270 403d
00000160: 7bca ecbd 0c2b 683d f082 39bd 1e94 0abb
00000170: 9d93 00bc d1c0 0d3e 7dba d13c 02a7 2c3c
00000180: b29c 59bd 1658 aabd 3906 2bbd 70af 7b3c
00000190: 9e7d 9cbd 166d b6bd f9dc a73c 60a4 4e3b
000001a0: 5eff 953d 960b 80bd 4b46 363b 211d 153d
000001b0: 3c42 f63d d5c9 1d3d 6a35 04be 0974 f33d
000001c0: fa0e cf3d 8016 013d 2dbe 40bd 54c7 8cbc
000001d0: f7c2 903d 6b30 a0bd 7587 c63c 5406 84bd
000001e0: 0811 023d f562 503d ded4 ccbd 107b 603d
000001f0: 19ef 37bd 9bff d1bb 0dc8 92bd f275 993d
00000200: 6721 933d 777a 16bd a2ff 2a3d 265d 8a3d
00000210: 2dce 0abd 27fc 1e3c 6439 9dbc dbee 7c3d
00000220: b273 14bd 7ab5 d1bd ea62 85bd b41a c13d
00000230: b6d2 a5bd 2a67 b23c 017e 1e3d 9b1c 3d3d
00000240: f023 aebc e52f dfbb b2e7 423d 41a8 6c3d
00000250: ab87 b93c 1bdb a3bc 13f2 3c3d 7d26 acbd
00000260: ff2a 0f3d 2d0e 24bb dc37 ce3d 7490 35be
00000270: 6eb7 943d acd1 2f3d 1cd0 76bd 2c68 8dbd
00000280: 4598 a6bd 903c e53d 9500 7f3d 4697 d0bc
00000290: 285f 843d ae09 933d 224b 28bd 5317 023e
000002a0: 29fa 083d 1d62 883d 3b07 5a3d 7c82 6f3c
000002b0: 7b54 a73c 7223 eb3b 73aa 78bd 0ff9 d3bd
000002c0: 6f18 c0bd 0ca9 92bd f5dd ae3d 3aaf 71bd
000002d0: 3436 37bc 0eb8 b93d 1048 9b3d 053f 983d
000002e0: 8943 353d 2287 cebc 3b49 c4bd 96c7 65bd
000002f0: 74a8 22bd e728 613d 47ab 673d ac49 ad3d
00000300: b151 7a3d 0097 18bd 4f97 9b3d 4b5c 01bd
00000310: b67d 91bd 523d 9ebd e878 d13d b59f 0f3d
00000320: b39b 833d a2d7 c83c 9f94 973d 5f92 73bd
00000330: da2b d63d 1aaf b43d 9b60 2a3d 6a65 eebc
00000340: da25 053e ed5e 4dbd e24a 9c3d 8104 003b
00000350: 6423 483d 7be8 a23d 7f82 77bc 173c b33c
00000360: 55ff d63c 7a68 52b9 1a92 2a3d c925 e3bc
00000370: 65ab 34bd acb0 8d3d 4cac 86bd f05c 5b3c
00000380: 3541 c33d 2576 e83c c589 86bd 9c2a d7bc
00000390: beaa b3bd 630c 973b edda 843d f2a0 ad3c
000003a0: ff97 dc3d eba1 a3bd 9147 313a e129 113d
000003b0: 545a 06bc 9f4f 1dbd 721f 613d 6205 2dbd
000003c0: 045c fbbc 76fa 223d f5d7 06be 43f3 cf3c
000003d0: 9494 94bc 8c99 f83d a829 023d 493f 133d
000003e0: 2c41 a6bc 97c4 67bc 73d1 0abd 3e97 d9bc
000003f0: a92e 24bd b294 aebc f10f 6fbd c143 d63c

bias f4 [128]
-0.08037643 0.014123973 -0.12215798 0.051965155 0.01480614 0.030955758 -0.054884672 0.05560618
-0.07247825 0.024036158 0.08274121 0.029229712 -0.0046774633 0.016535908 -0.06460276 -0.11146596
0.04595858 -0.054725237 0.022815643 -0.003385995 -0.08886728 0.034534086 0.040029515 0.04050597
0.06474945 -0.013698223 0.030613136 0.03788967 0.0032059576 -0.056251384 -0.06049597 -0.015474769
0.022518024 0.050226286 0.0021061704 0.016241314 -0.0023431422 0.083236575 -0.04099447 -0.05233925
-0.021786014 0.040396973 0.0055699083 0.026330877 0.04311174 -0.009299296 0.028965633 -0.099117234
0.085249886 -0.020200372 0.022287667 0.11352802 -0.022395901 0.102180175 0.072069705 0.05174752
-0.0060781185 -0.032684408 -0.047111914 0.037718605 -0.061145417 -0.0076349084 -0.057268903 -0.10683869
-0.029809201 -0.0378173 0.052797418 0.123302594 0.102895126 0.0209112 0.040921602 -0.0047060424
-0.029270787 -0.12353175 -0.010081827 0.020115232 -0.0044292645 -0.07575109 0.123605855 0.014172785
-0.01801029 0.080774345 -0.06860566 -0.039574962 0.08730316 0.040267102 -0.0082261665 0.076041125
0.0023299363 0.00817834 0.087146975 0.1065563 -0.11240666 0.10126605 -0.028370596 -0.033659294
0.0541874 -0.03578362 0.016197873 0.017176019 0.10614995 -0.009280911 0.10917639 0.0075296615
-0.07213474 -0.061023127 0.09869 -0.0048157135 0.032760777 -0.0703082 0.076322876 -0.07506077
0.061916362 0.12728456 -0.06815834 -0.051841475 -0.05950132 0.04233672 -0.07589363 -0.0032048577
-0.11011813 0.058155604 -0.023122624 0.107507505 0.09608657 -0.061537925 -0.1038034 0.024365759
00000000: 669c a4bd 3d68 673c f72d fabd 6ad9 543d
00000010: 7495 723c ee96 fd3c c0ce 60bd 4ec3 633d
00000020: 7a6f 94bd 7ae7 c43c 3974 a93d 2673 ef3c
00000030: 6845 99bb 5076 873c 744e 84bd 4448 e4bd
00000040: 103f 3c3d 9227 60bd dfe7 ba3c 92e7 5dbb
00000050: 0c00 b6bd 9d73 0d3d fdf5 233d 97e9 253d
00000060: 5c9b 843d 836e 60bc 66c8 fa3c 3332 1b3d
00000070: 0b1b 523b da67 66bd 9fca 77bd e389 7dbc
00000080: b877 b83c 14ba 4d3d ad07 0a3b 810c 853c
00000090: 678f 19bb f077 aa3d d1e9 27bd ae61 56bd
000000a0: 9578 b2bc 4c77 253d c783 b63b dab3 d73c
000000b0: f095 303d 135c 18bc 5649 ed3c fafd cabd
000000c0: 7e97 ae3d 407b a5bc a094 b63c 6181 e83d
000000d0: 9c77 b7bc d743 d13d 4899 933d 35f5 533d
000000e0: f42a c7bb 16e0 05bd 6cf8 40bd d37e 1a3d
000000f0: 9e73 7abd 412e fabb cc92 6abd 3ece dabd
00000100: 6d32 f4bc 50e6 1abd 1b42 583d 1286 fc3d
00000110: aeba d23d f74d ab3c 699d 273d 2535 9abb
00000120: 4ac9 efbc 37fe fcbd 3f2e 25bc b3c8 a43c
00000130: 5d23 91bb 6323 9bbd 1125 fd3d f834 683c
00000140: 518a 93bc 056d a53d 2081 8cbd 5b19 22bd
00000150: 00cc b23d 1eef 243d 0bc7 06bc 73bb 9b3d
00000160: d8b1 183b 72fe 053c 1d7a b23d 303a da3d
00000170: 7735 e6bd 9364 cf3d 7469 e8bc 54de 09bd
00000180: 9bf3 5d3d d891 12bd 67b1 843c b9b4 8c3c
00000190: 2565 d93d f60e 18bc df97 df3d 61bb f63b
000001a0: 61bb 93bd 63f3 79bd fc1d ca3d 22cd 9dbb
000001b0: 2a30 063d bffd 8fbd 2b4f 9c3d 76b9 99bd
000001c0: 039c 7d3d e256 023e 9a96 8bbd ba57 54bd
000001d0: a8b7 73bd 4569 2d3d 1f6e 9bbd 9708 52bb
000001e0: 9d85 e1bd 9234 6e3d a86b bdbc e52c dc3d
000001f0: 09c9 c43d 310f 7cbd e196 d4bd b39a c73c

weight f4 [1, 128]
-0.10780612 -0.13834889 0.097065784 -0.08056237 0.12026357 0.032968774 -0.038940627 -0.043731607
0.19826783 0.03604409 -0.10632824 -0.085230365 -0.051016763 0.12160308 -0.06715535 -0.10278948
0.12123803 0.105721876 0.054599244 -0.13998614 0.083162 -0.1066608 -0.10933906 -0.06608183
0.08050192 0.13910097 0.10404123 -0.118830964 0.066856146 0.0022007676 0.1006572 -0.13834715
-0.108936004 0.0655219 -0.08867581 0.1671879 0.09442445 0.19788745 -0.0899954 0.092297696
-0.1184284 0.1458896 -0.056663968 -0.07146241 -0.1616194 -0.14711271 -0.06281551 -0.0869185
0.10834925 0.08616893 0.12952343 0.22795111 0.0016761883 0.14203662 -0.0022256782 -0.15388213
0.12435354 0.070189685 -0.091458425 -0.13367659 -0.012957063 0.043227326 -0.06586939 0.0790261
-0.0908108 0.10434178 -0.022811525 0.07213056 0.06725524 -0.07631765 -0.099612504 -0.047543503
0.109695554 -0.10117179 -0.081627965 0.06748549 0.03833947 -0.08795947 0.122610554 0.08432844
-0.11675365 0.101360865 -0.14724855 -0.057949524 -0.10403418 0.072325 0.054119922 0.018027568
-0.065107204 -0.105549484 0.05150419 0.09880987 -0.015503084 -0.11590053 -0.045570217 -0.103195615
0.12502044 0.06557359 0.08249501 -0.04870943 0.1298987 0.07126656 -0.101119325 0.108637094
-0.077372074 0.12152864 0.09766637 0.14163177 -0.08199439 -0.10269862 0.091382846 0.047065917
0.06403821 -0.11028926 -0.12992088 -0.101262905 0.10190865 -0.08458776 -0.052265383 0.0756986
-0.06614936 0.09540472 -0.12280025 -0.046097394 0.07189565 -0.089613244 -0.23542246 -0.07800039
00000000: 74c9 dcbd 55ab 0dbe 6dca c63d e2fd a4bd
00000010: bf4c f63d 440a 073d 3580 1fbd ea1f 33bd
00000020: b906 4b3e f8a2 133d 9fc2 d9bd 428d aebd
00000030: f4f6 50bd 090b f93d bf88 89bd 4a83 d2bd
00000040: a54b f83d b684 d83d 75a3 5f3d 8758 0fbe
00000050: d750 aa3d fa70 dabd 28ed dfbd e955 87bd
00000060: 31de a43d 7c70 0e3e 9213 d53d a65d f3bd
00000070: e0eb 883d c13a 103b 5d25 ce3d e0aa 0dbe
00000080: d719 dfbd 5930 863d aa9b b5bd 4e33 2b3e
00000090: 9b61 c13d 02a3 4a3e 824f b8bd 9306 bd3d
000000a0: 978a f2bd 1564 153e 7a18 68bd e25a 92bd
000000b0: 8e7f 25be b7a4 16be 6ba5 80bd 5402 b2bd
000000c0: 36e6 dd3d 5679 b03d caa1 043e 046c 693e
000000d0: 8cb3 db3a 0c72 113e afdc 11bb 4793 1dbe
000000e0: 12ad fe3d 9cbf 8f3d 8e4e bbbd 84e2 08be
000000f0: dc49 54bc 230f 313d 88e6 86bd 70d8 a13d
00000100: 03fb b9bd 25b1 d53d 3cdf babc 30b9 933d
00000110: 1ebd 893d 6e4c 9cbd a401 ccbd fabc 42bd
00000120: 10a8 e03d 2833 cfbd 902c a7bd d535 8a3d
00000130: d909 1d3d 1824 b4bd 3e1b fb3d 64b4 ac3d
00000140: 8a1c efbd 4996 cf3d 53c8 16be 7b5c 6dbd
00000150: df0f d5bd 211f 943d daac 5d3d 8dae 933c
00000160: ed56 85bd 542a d8bd 0ff6 523d d45c ca3d
00000170: a600 7ebc 425d edbd d6a7 3abd 3958 d3bd
00000180: 5c05 003e 724b 863d 25f3 a83d 8a83 47bd
00000190: 2a04 053e 34f4 913d a617 cfbd 207d de3d
000001a0: 4075 9ebd 02e4 f83d 4e05 c83d eb07 113e
000001b0: adec a7bd a753 d2bd ee26 bb3d 31c8 403d
000001c0: 7726 833d 56df e1bd fb09 05be ed62 cfbd
000001d0: 7bb5 d03d 593c adbd 3a14 56bd de07 9b3d
000001e0: 5179 87bd 8d63 c33d b37e fbbd 9fd0 3cbd
000001f0: 073e 933d 2687 b7bd 9612 71be abbe 9fbd

weight_ih_l0 f4 [384, 256]
-0.09576824 -0.05165455 0.16829206 0.19046316 0.019802822 -0.09317798 0.061882418 0.14637357
-0.0169674 0.011172333 0.070238434 0.105490796 0.03367812 -0.03154294 -0.04971497 0.18479644
0.101139806 0.09325847 -0.04456482 0.12379186 -0.033417735 0.0025657816 0.112447724 0.1553133
0.10602533 0.0018256028 0.08657897 0.06701093 0.025547767 0.037275508 -0.085318945 0.091466844
-0.07193067 0.06936544 -0.039467312 -0.16526066 -0.06377028 -0.0044110906 0.035182077 0.00925888
-0.02679649 0.067169726 -0.14019579 0.009175997 0.04731835 -0.07899606 -0.072669014 0.07783714
-0.037412714 -0.08693658 -0.0067916927 -0.041613355 0.00048741203 -0.0103569785 0.12824118 0.03828908
-0.010261361 0.041925177 -0.078568466 0.08243224 0.070058465 0.026375424 0.057372317 0.023053212
0.00045322676 -0.018969106 -0.033994853 0.020366844 -0.10500965 0.06582944 -0.117548816 -0.078813806
0.097279266 -0.106633656 -0.08277478 0.038318787 0.021777386 -0.057563197 -0.06513041 0.08476944
-0.08518266 -0.06295513 0.030929808 0.079853326 0.006610648 0.111239165 0.028920675 0.05742534
0.044718638 -0.08535397 -0.06257752 -0.038861945 0.049595784 0.0132471705 0.06494366 0.09242569
0.071712025 -0.0437222 -0.033414416 -0.042391066 -0.064760454 0.021556616 -0.02660459 0.07541517
0.041136216 -0.015453212 -0.08659446 -0.054500736 0.0026178386 -0.12956414 -0.071531504 0.09149713
-0.051400006 0.045091096 -0.019968448 -0.09928676 0.10362664 0.013459135 -0.045655362 -0.1417082
-0.07224028 0.022542482 -0.012046851 -0.113475434 0.1302086 -0.090310656 -0.14985971 -0.11176728
0.12940444 -0.023483194 0.0142988525 -0.0669234 0.06723575 -0.009606255 -0.020388717 -0.032920424
0.16184437 -0.1407434 -0.16623747 0.009166086 0.07152411 0.081687525 -0.004418369 0.023867235
-0.06657945 -0.14337954 0.04225343 0.11691189 -0.00772074 0.04196119 -0.08669978 -0.005001503
0.16042311 0.033853002 -0.13735168 -0.05558775 0.056330808 -0.09793489 0.08578044 -0.006557853
-0.044745952 -0.07011663 0.1361787 -0.051603463 0.008350604 -0.11022736 0.020488681 0.104420036
-0.05200841 0.07663271 0.024285091 -0.050746482 -0.05322504 -0.07707795 0.18853737 -0.14140292
0.119366646 -0.11564434 -0.12422626 -0.09428154 0.013828113 -0.11235665 0.1357899 0.13618669
0.13687657 0.053524476 0.16485904 0.0035760442 -0.11326564 0.11583169 0.019702312 -0.14543903
-0.04099502 0.05380661 -0.054005783 -0.09762613 -0.096095674 -0.013271855 0.024262037 0.0922677
0.13150443 0.049523935 -0.05438608 0.025811877 -0.03750457 -0.0017114693 -0.11432262 -0.01164401
0.06308486 0.06420279 -0.01808979 0.08387233 -0.08132748 0.06039774 0.060573976 -0.17106459
0.04132891 0.1543119 -0.024123482 0.029508825 0.061141253 -0.16881786 -0.1271791 0.029095827
-0.12075742 0.12649281 0.1394077 -0.07113797 -0.03334602 0.009156381 0.115394965 -0.15205978
-0.022303518 -0.0799317 0.030679168 -0.0040116496 -0.048256405 -0.04319287 0.09238937 -0.07303156
0.056885246 -0.032790918 -0.0880545 -0.090184964 0.19955228 -0.06630485 -0.15173791 0.22936398
-0.069453016 -0.013075807 0.07580489 0.11052639 0.045775574 0.04175467 -0.11716664 0.012555463
00000000: 2422 c4bd b993 53bd c154 2c3e c608 433e
00000010: 8739 a23c 19d4 bebd 6b78 7d3d f4e2 153e
00000020: 38ff 8abc 290c 373c 2bd9 8f3d 8f0b d83d
00000030: 11f2 093d 2b33 01bd eda1 4bbd 473b 3d3e
00000040: 6322 cf3d 4cfe be3d 9a89 36bd 9686 fd3d
00000050: 09e1 08bd ac26 283b fe4a e63d 730a 1f3e
00000060: cf23 d93d 1149 ef3a 5150 b13d 073d 893d
00000070: 8d49 d13c 34ae 183d b3bb aebd f852 bb3d
00000080: 6350 93bd 780f 8e3d 7aa8 21bd 173a 29be
00000090: fe99 82bd e98a 90bb 151b 103d 8fb2 173c
000000a0: 5084 dbbc 4890 893d 7c8f 0fbe ec56 163c
000000b0: e3d0 413d b0c8 a1bd 7ed3 94bd 1469 9f3d
000000c0: 133e 19bd ce0b b2bd d98c debb c472 2abd
000000d0: 568b ff39 51b0 29bc a851 033e 03d5 1c3d
000000e0: 441f 28bc bcb9 2b3d 81e8 a0bd 3cd2 a83d
000000f0: d07a 8f3d 4611 d83c 3cff 6a3d 17da bc3c
00000100: 119f ed39 1965 9bbc 303e 0bbd 5ed8 a63c
00000110: 4d0f d7bd 96d1 863d 6fbd f0bd 2269 a1bd
00000120: 5a3a c73d bf62 dabd d385 a9bd 29f4 1c3d
00000130: 7d66 b23c 63c7 6bbd 1863 85bd 9a9b ad3d
00000140: 3f74 aebd 9fee 80bd 8260 fd3c 248a a33d
00000150: 229e d83b 5cd1 e33d 0deb ec3c d536 6b3d
00000160: e42a 373d 10ce aebd a528 80bd b42d 1fbd
00000170: f324 4b3d a90a 593c 2e01 853d ae49 bd3d
00000180: c1dd 923d 0d16 33bd 8edd 08bd 41a2 2dbd
00000190: 21a1 84bd 8097 b03c def1 d9bc 4573 9a3d
000001a0: 737e 283d 782f 7dbc 7058 b1bd 2a3c 5fbd
000001b0: 0b90 2b3b 76ac 04be 1c7f 92bd d962 bb3d
000001c0: d088 52bd 71b1 383d df94 a3bc db56 cbbd
000001d0: 343a d43d b483 5c3c 1e01 3bbd f41b 11be
000001e0: b6f2 93bd 03ab b83c 2860 45bc cf65 e8bd
000001f0: 6755 053e cbf4 b8bd d374 19be 3ee6 e4bd
00000200: 9982 043e d45f c0bc bc45 6a3c 230f 89bd
00000210: e6b2 893d 8e63 1dbc 3d06 a7bc 91d7 06bd
00000220: 88ba 253e 0a1f 10be 283a 2abe 5a2d 163c
00000230: 3c7b 923d ca4b a73d f7c7 90bb 3885 c33c
00000240: cf5a 88bd 16d2 12be ef11 2d3d 806f ef3d
00000250: 43fe fcbb 7fdf 2b3d a78f b1bd a6e3 a3bb
00000260: f545 243e 72a9 0a3d eba5 0cbe fbaf 63bd
00000270: 22bb 663d 1692 c8bd a8ad af3d 42e3 d6bb
00000280: 8847 37bd 4f99 8fbd 6e72 0b3e 275e 53bd
00000290: f9d0 083c e2be e1bd e1d7 a73c 2cda d53d
000002a0: c506 55bd 9cf1 9c3d 87f1 c63c 8bdb 4fbd
000002b0: 8002 5abd 0bdb 9dbd f10f 413e edcb 10be
000002c0: 8076 f43d f1d6 ecbd 566a febd ae16 c1bd
000002d0: 4f8f 623c 3e1b e6bd 820c 0b3e 8674 0b3e
000002e0: 5f29 0c3e 7b3c 5b3d cfd0 283e 115c 6a3b
000002f0: d1f7 e7bd 2a39 ed3d be66 a13c f8ed 14be
00000300: 65ea 27bd 5264 5c3d 2b35 5dbd 35f0 c7bd
00000310: cfcd c4bd 3272 59bc 2ec1 c63c d9f6 bc3d
00000320: 19a9 063e 9cd9 4a3d f0c3 5ebd 6e73 d33c
00000330: 649e 19bd 6153 e0ba fa21 eabd 85c6 3ebc
00000340: a332 813d c17c 833d 0a31 94bc 42c5 ab3d
00000350: 068f a6bd 9f63 773d 6b1c 783d 8e2b 2fbe
00000360: 8148 293d f003 1e3e 9c9e c5bc 7ebc f13c
00000370: 406f 7a3d 97de 2cbe 3d3b 02be 5f5a ee3c
00000380: ab4f f7bd 5587 013e e4c0 0e3e c9b0 91bd
00000390: d695 08bd a504 163c 3254 ec3d 8fb5 1bbe
000003a0: deb5 b6bc 3bb3 a3bd e152 fb3c 2874 83bb
000003b0: 82a8 45bd 02eb 30bd a336 bd3d 9291 95bd
000003c0: 8100 693d c54f 06bd eb55 b4bd e5b2 b8bd
000003d0: 6f57 4c3e d6ca 87bd 2f61 1bbe 64de 6a3e
000003e0: 623d 8ebd e93b 56bc 983f 9b3d a95b e23d
000003f0: 2b7f 3b3d f206 2b3d 10f5 efbd 6eb5 4d3c

weight_hh_l0 f4 [384, 128]
0.08614932 -0.070772365 0.05149927 -0.13564786 -0.06257272 -0.039334267 0.10510725 -0.08285121
0.04563799 -0.16192235 -0.054707173 0.032438673 0.027915139 0.04175407 -0.04201804 0.07296169
-0.06748141 -0.13484673 0.11484317 0.056823526 0.033348907 0.071148366 0.04133304 -0.08739467
0.07754306 0.028269257 -0.010881414 0.10217078 0.14074531 -0.046253756 -0.041456394 -0.013080917
-0.008795209 0.013066263 0.20371567 0.032861274 0.078234844 -0.16895075 0.17305228 -0.059160694
-0.051430877 0.02707805 0.15088378 -0.021367678 -0.08747832 -0.12276195 0.11992394 0.009509205
0.015705822 -0.0045299474 -0.072721116 -0.09543324 0.068549 -0.08413946 -0.024905976 0.04849998
0.029787038 -0.020648021 0.03799108 0.056533087 -0.098335855 0.14585234 -0.011844886 0.085617594
0.06381274 0.022881672 0.1268824 -0.10143362 -0.00045991503 0.026791757 0.04016703 0.06218743
0.004298813 0.025561202 0.02320254 0.1457139 -0.014682664 -0.040986665 -0.035975154 0.049366485
-0.07304869 0.089197345 -0.13363318 0.0015528778 -0.20712927 0.016144134 0.030708581 0.07237766
0.08489252 0.19029826 0.05511782 -0.041452136 0.10585925 -0.10496729 0.10712396 0.089450106
0.049749505 0.050984908 -0.012346531 -0.07415699 -0.059262607 -0.0378249 -0.10916748 0.08653217
-0.17703578 -0.053864144 0.12469056 0.08433045 0.04896203 0.04195371 0.037013285 0.039380964
0.08436024 0.044374507 0.091203906 0.0006928996 -0.06610327 0.031448 -0.12614544 0.17245679
0.01855542 0.027527167 0.1082766 0.21656698 0.006629796 0.11336773 -0.15398017 0.078738555
-0.027404577 0.032232065 -0.011022789 -0.048155673 -0.17976642 0.29030034 -0.14432079 -0.15091206
0.0062270556 -0.069648966 -0.025789317 -0.01859659 -0.092665456 0.087631285 -0.021421786 -0.08243288
-0.08378043 -0.008819015 -0.092409864 0.08964553 0.040786743 -0.030257644 -0.017605172 -0.20021828
-0.18638065 0.19052356 -0.041172374 0.14325415 -0.026045423 -0.01654806 -0.16384423 0.07131636
0.10632112 -0.072008364 -0.035022017 -0.095167734 0.22003308 -0.045766648 -0.025050899 0.15136184
-0.11416096 -0.068341635 0.11960864 0.09079559 0.12865879 0.23868667 0.0029820683 -0.045706715
0.18460847 0.08748826 0.03685059 0.08075304 -0.00991678 -0.14938454 0.039512973 -0.019147528
-0.14189854 -0.085514 0.0799622 -0.033769324 -0.4115098 -0.020892901 0.004177102 0.009048651
-0.15814978 0.02641302 -0.119796164 -0.058730505 -0.02374728 0.02693159 -0.073787816 -0.109805025
-0.0393557 -0.108741395 0.080533646 -0.084255785 -0.038346764 0.063538425 0.06962318 -0.09221878
0.05546614 -0.12612091 -0.020090684 -0.037517037 0.09021712 -0.0878348 0.0024306222 0.0497181
-0.016753687 0.117244 -0.024798207 0.0017253153 -0.044740345 -0.13914484 0.014078056 0.0035888106
-0.050713044 -0.11506507 0.024496552 0.07121497 0.08058429 -0.10991341 -0.12318356 0.043635946
-0.076636724 0.12170323 0.022905497 -0.020651069 -0.022106705 0.054786023 -0.15822718 0.109722584
0.20179841 -0.027731074 -0.05203567 -0.03294654 0.08407797 0.03336822 -0.05779148 0.00876196
0.038877532 0.16890319 -0.045488704 -0.017436557 0.025276106 0.088336684 0.043575156 0.035514936
00000000: 0e6f b03d 1af1 90bd e6f0 523d 46e7 0abe
00000010: 2026 80bd f81c 21bd 7842 d73d e5ad a9bd
00000020: e7ee 3a3d f9ce 25be a114 60bd 6ade 043d
00000030: 4aae e43c 5106 2b3d 1c1b 2cbd f06c 953d
00000040: b233 8abd 4315 0abe e532 eb3d c9bf 683d
00000050: dd98 083d 3cb6 913d d54c 293d fafb b2bd
00000060: e5ce 9e3d ee94 e73c f547 32bc ea3e d13d
00000070: 8a1f 103e 9474 3dbd 2ece 29bd 5851 56bc
00000080: c819 10bc e113 563c d79a 503e 8b99 063d
00000090: 9739 a03d 6d01 2dbe 9e34 313e 7c52 72bd
000000a0: 2fa9 52bd c9d2 dd3c 4781 1a3e 450b afbc
000000b0: d527 b3bd 9e6a fbbd af9a f53d 7fcc 1b3c
000000c0: 7fa9 803c f46f 94bb cfee 94bd 8172 c3bd
000000d0: 6b63 8c3d 4f51 acbd 9e07 ccbc eaa7 463d
000000e0: f203 f43c 0a26 a9bc 899c 1b3d 3d8f 673d
000000f0: 4f64 c9bd 515a 153e 0d11 42bc 4758 af3d
00000100: 41b0 823d 5872 bb3c 76ed 013e 6ebc cfbd
00000110: c020 f1b9 637a db3c 2f86 243d 3fb8 7e3d
00000120: 0fdd 8c3b ba65 d13c 4113 be3c 0636 153e
00000130: 8e8f 70bc a2e1 27bd af5a 13bd 8334 4a3d
00000140: 8d9a 95bd 19ad b63d 23d7 08be ef89 cb3a
00000150: b219 54be b440 843c 9090 fb3c bd3a 943d
00000160: 21dc ad3d 8cdd 423e 39c3 613d b7c9 29bd
00000170: bccc d83d 17f9 d6bd cf63 db3d 9e31 b73d
00000180: 23c6 4b3d 8dd5 503d 1b49 4abc 9fdf 97bd
00000190: 59bd 72bd 48ee 1abd 3393 dfbd c737 b13d
000001a0: de48 35be a6a0 5cbd c45d ff3d 71b5 ac3d
000001b0: 698c 483d a7d7 2b3d 3e9b 173d ef4d 213d
000001c0: 10c5 ac3d 0bc2 353d 1dc9 ba3d b4a3 353a
000001d0: 2761 87bd 9ecf 003d 452c 01be 8398 303e
000001e0: 8901 983c a780 e13c 1fc0 dd3d bcc3 5d3e
000001f0: c23e d93b 572d e83d faac 1dbe ae41 a13d
00000200: 907f e0bc c505 043d ee98 34bc e23e 45bd
00000210: b014 38be 3fa2 943e d4c8 13be b188 1abe
00000220: 540c cc3b 1ea4 8ebd 1e44 d3bc e057 98bc
00000230: 63c7 bdbd 0878 b33d be7c afbc 92d2 a8bd
00000240: 1395 abbd a17d 10bc 6241 bdbd 1398 b73d
00000250: 0010 273d e1de f7bc b938 90bc 0506 4dbe
00000260: 92da 3ebe 9c18 433e 5da4 28bd 37b1 123e
00000270: 365d d5bc cc8f 87bc c8c6 27be 500e 923d
00000280: e3be d93d 1f79 93bd 3f73 0fbd 4de7 c2bd
00000290: 5a50 613e cf75 3bbd 8b37 cdbc 99fe 1a3e
000002a0: 39cd e9bd b3f6 8bbd 60f5 f43d 0af3 b93d
000002b0: 21bf 033e 476a 743e ce6e 433b f736 3bbd
000002c0: 010a 3d3e 0b2d b33d a5f0 163d da61 a53d
000002d0: fd79 22bc 43f8 18be 5bd8 213d 47db 9cbc
000002e0: da4d 11be f721 afbd 39c3 a33d b451 0abd
000002f0: 6ab1 d2be 9727 abbc 12e0 883b cb40 143c
00000300: 04f2 21be 1e60 d83c b157 f5bd 668f 70bd
00000310: a889 c2bc a39f dc3c 111e 97bd 75e1 e0bd
00000320: 7133 21bd cfb3 debd d3ee a43d 4c8e acbd
00000330: 7f11 1dbd 6f20 823d 9996 8e3d 33dd bcbd
00000340: 7730 633d d725 01be 3895 a4bc 77ab 19bd
00000350: c1c3 b83d bbe2 b3bd 134b 1f3b 35a5 4b3d
00000360: 073f 89bc 9f1d f03d 9c25 cbbc fa23 e23a
00000370: a741 37bd fc7b 0ebe a6a7 663c 4032 6b3b
00000380: 7bb8 4fbd 3ca7 ebbd feac c83c 27d9 913d
00000390: 6009 a53d 481a e1bd aa47 fcbd 9bbb 323d
000003a0: b7f3 9cbd 8b3f f93d 4fa4 bb3c 6e2c a9bc
000003b0: 1f19 b5bc 4f67 603d 4e06 22be 3cb6 e03d
000003c0: 3ea4 4e3e 472c e3bc 5b23 55bd f3f2 06bd
000003d0: 1231 ac3d 1dad 083d c2b6 6cbd 538e 0f3c
000003e0: 0c3e 1f3d f5f4 2c3e 5d52 3abd 1cd7 8ebc
000003f0: d60f cf3c dde9 b43d dd7b 323d 1c78 113d

bias_ih_l0 f4 [384]
0.07361899 -0.047423 -0.0039505605 0.09771247 -0.015428701 -0.017406039 0.019344112 0.018633103
-0.054607872 0.074199915 -0.0059874337 0.043301903 0.056555968 0.027565219 0.023798414 0.015710926
0.031098634 -0.043909837 -0.032497812 -0.08745366 -0.03967553 -0.06618442 0.08524441 0.14845423
-0.08699202 -0.008180052 0.010582908 0.057298243 -0.042322703 0.100118406 -0.025894297 0.078305595
0.0030067933 0.09456348 -0.009026361 0.0019811508 0.09649429 0.017101116 0.02899985 -0.04064505
0.035390284 0.033487856 -0.009185438 0.08064267 0.032393962 0.1266076 0.070312485 0.019244386
-0.04128247 0.054502763 0.0077395947 0.01145362 0.06362285 0.028548462 -0.05545162 0.010043069
0.04681261 0.03274619 -0.05477649 -0.0133812865 0.05802287 0.0140413735 -0.028555864 0.061374206
0.1304831 -0.11119182 0.057124298 0.030591318 0.0073492546 0.007027666 -0.08017426 0.0142074255
-0.0545367 -0.049304143 0.117391795 0.104797944 0.06723754 0.009608254 -0.09677202 -0.021133602
-0.05027108 0.049394865 0.114695795 0.0093482835 0.062983446 -0.007179239 -0.027226951 -0.028123775
0.031037705 -0.045343466 0.08911083 0.0037838684 -0.066460155 0.020861033 -0.068869 0.04829251
0.063186385 -0.042430013 0.035273578 -0.05695627 0.05699752 0.015269499 -0.015352085 0.03286865
0.10226366 0.04191986 0.09127872 0.053693406 0.052456703 -0.08001181 0.09766306 -0.030126497
0.11621617 -0.058623374 -0.022116149 0.073934875 0.04974229 0.012652966 -0.011859954 0.016278798
0.05983444 -0.028691798 -0.010945423 0.0014830644 0.022957247 0.023909451 -0.03921581 -0.066343114
0.075763725 -0.15865952 -0.09925192 -0.030255307 -0.1395784 -0.023303533 -0.017112482 -0.123312786
0.006569997 -0.061874777 -0.1287375 0.04059481 -0.07153682 0.08055158 -0.102854945 -0.022844689
0.01416416 -0.043092515 0.05732584 -0.10764224 -0.0105780745 -0.01940519 0.0043668253 -0.097855
0.038582075 0.029016804 -0.053501163 -0.053698506 -0.010443973 -0.117744304 -0.008358486 -0.080384605
-0.118227996 -0.0058092456 -0.059484083 0.040433045 -0.05250876 -0.023175053 -0.11887474 -0.0777287
0.013409802 -0.013035673 0.017895326 -0.0030165124 -0.13681798 -0.11056004 0.0036740787 0.0401088
-0.005831876 -0.044063322 -0.07481441 -0.02484716 -0.057591848 -0.02464325 0.066241615 0.004818708
0.004439645 -0.10936484 -0.1464871 -0.066704504 0.051548745 -0.050491128 -0.038769174 -0.04941526
-0.12822196 -0.120071605 -0.08467957 0.029424362 0.03241701 -0.058698438 0.025168693 0.012775767
-0.019588552 -0.04027126 0.040665157 -0.14180559 -0.070710436 -0.054759547 -0.04837791 -0.12974598
-0.059684683 -0.12172462 -0.04833973 0.025822716 -0.054603923 -0.02672647 -0.022944603 0.052968133
0.07983133 0.010807588 0.038439933 -0.011158372 0.059879035 -0.07220172 -0.0016810142 -0.075099505
0.020527106 -0.054846693 -0.15042366 -0.06631784 -0.019191 -0.14992383 -0.119489744 0.020549847
0.040066976 -0.09547518 -0.012727478 -0.023805244 -0.1151098 0.012269428 0.031399727 0.1052626
0.031769957 0.06598006 -0.109856404 -0.0016568118 -0.030713491 -0.038197596 -0.1164757 -0.0324937
-0.014322836 0.075073995 -0.13583235 -0.11032214 0.036970243 -0.09551054 -0.13065049 -0.038664144
00000000: 8ec5 963d 9f3e 42bd b473 81bb 7a1d c83d
00000010: aac8 7cbc 1c97 8ebc 8b77 9e3c 73a4 983c
00000020: 81ac 5fbd 20f6 973d 3c32 c4bb 565d 313d
00000030: 3ba7 673d 74d0 e13c e4f4 c23c 33b4 803c
00000040: 90c2 fe3c cdda 33bd 6d1c 05bd e81a b3bd
00000050: cf82 22bd b28b 87bd 9f94 ae3d 6304 183e
00000060: df28 b2bd a005 06bc ef63 2d3c 90b1 6a3d
00000070: 925a 2dbd e10a cd3d 4720 d4bc af5e a03d
00000080: 9f0d 453b 7faa c13d 4de3 13bc 32d6 013b
00000090: cc9e c53d a417 8c3c 1891 ed3c 6d7b 26bd
000000a0: 67f5 103d 902a 093d 857e 16bc fc27 a53d
000000b0: 88af 043d 6ca5 013e feff 8f3d 67a6 9d3c
000000c0: cf17 29bd 4a3e 5f3d 6d9c fd3b f7a7 3b3c
000000d0: b24c 823d 77de e93c 3d21 63bd af8b 243c
000000e0: 94be 3f3d de20 063d 505d 60bd 2f3d 5bbc
000000f0: 64a9 6d3d ca0d 663c fded e9bc 8563 7b3d
00000100: 5d9d 053e 89b8 e3bd 2bfb 693d a59a fa3c
00000110: 04d2 f03b 5648 e63b 6732 a4bd 43c6 683c
00000120: e061 5fbd 24f3 49bd 1c6b f03d 4ea0 d63d
00000130: d6b3 893d f06b 1d3c 6930 c6bd 6020 adbc
00000140: 0ce9 4dbd 4552 4a3d a1e5 ea3d 8b29 193c
00000150: 77fd 803d d23f ebbb 0e0b dfbc d563 e6bc
00000160: c942 fe3c 12ba 39bd bd7f b63d c7fa 773b
00000170: 431c 88bd c2e4 aa3c 310b 8dbd 5ece 453d
00000180: dd67 813d 18cb 2dbd 077b 103d fa4a 69bd
00000190: 3b76 693d ec2c 7a3c 5087 7bbc 47a1 063d
000001a0: 9c6f d13d 29b4 2b3d 56f0 ba3d 9eed 5b3d
000001b0: d7dc 563d 3bdd a3bd 9203 c83d d8cb f6bc
000001c0: be02 ee3d 101f 70bd ed2c b5bc 2b6b 973d
000001d0: 92be 4b3d 634e 4f3c 4150 42bc 1d5b 853c
000001e0: f514 753d 100b ebbc 6e54 33bc 6263 c23a
000001f0: d610 bc3c c1dd c33c c2a0 20bd e6de 87bd
00000200: 032a 9b3d a477 22be 9744 cbbd fad9 f7bc
00000210: a4ed 0ebe 0de7 bebc 7a2f 8cbc 6a8b fcbd
00000220: 2149 d73b 6870 7dbd c3d3 03be be46 263d
00000230: e581 92bd 3af8 a43d 9da5 d2bd c924 bbbc
00000240: cb10 683c c781 30bd 80ce 6a3d 8973 dcbd
00000250: a94f 2dbc a2f7 9ebc 9617 8f3b 3468 c8bd
00000260: 3d08 1e3d a6b4 ed3c 0924 5bbd f7f2 5bbd
00000270: 331d 2bbc ed23 f1bd 08f2 08bc afa0 a4bd
00000280: 8521 f2bd 7c5b bebb 95a5 73bd 1f9d 253d
00000290: 6d13 57bd 9cd9 bdbc 9a74 f3bd 3a30 9fbd
000002a0: c9b4 5b3c 9393 55bc 3899 923c aeb0 45bb
000002b0: 031a 0cbe 4d6d e2bd d0c8 703b 2049 243d
000002c0: 5219 bfbb be7b 34bd 4c38 99bd 458c cbbc
000002d0: 6ee5 6bbd a4e0 c9bc afa9 873d 41e6 9d3b
000002e0: 717a 913b acfa dfbd b700 16be 5f9c 88bd
000002f0: c724 533d c9cf 4ebd 6dcc 1ebd a867 4abd
00000300: 9e4c 03be 1ae8 f5bd 7b6c adbd 5c0b f13c
00000310: b3c7 043d c66d 70bd 932e ce3c 7351 513c
00000320: 2c78 a0bc 7af3 24bd 8290 263d 7c35 11be
00000330: a2d0 90bd 8c4b 60bd ea27 46bd 21dc 04be
00000340: ed77 74bd c24a f9bd e1ff 45bd 298a d33c
00000350: 5da8 5fbd 78f1 dabc 52f6 bbbc 1df5 583d
00000360: 9c7e a33d 4f12 313c 3173 1d3d 9bd1 36bc
00000370: b843 753d 7fde 93bd 7a55 dcba c5cd 99bd
00000380: 7628 a83c eda6 60bd a908 1abe a6d1 87bd
00000390: 7236 9dbc a285 19be 0ab7 f4bd 2758 a83c
000003a0: 451d 243d 7e88 c3bd e986 50bc 3703 c3bc
000003b0: b0be ebbd b605 493c 009d 003d eb93 d73d
000003c0: 3721 023d 8e20 873d 65fc e0bd 6129 d9ba
000003d0: dc9a fbbc 1575 1cbd d08a eebd 1d18 05bd
000003e0: 54aa 6abc 65c0 993d a317 0bbe 93f0 e1bd
000003f0: 1c6e 173d 089b c3bd 3ec9 05be 4b5e 1ebd
