clean_data/models/encoder.pth (torch, 638744 bytes, 5 tensors)

weight f4 [467, 128]
000000 1a 25 07 bf d9 a5 60 3f 3c 18 a6 3f b7 85 27 bf
       -0.5279099 0.87753063 1.2976146 -0.6543841
000010 df ca 98 3f 36 c2 10 3f bb 45 b3 3f ee 3c 06 3f
       1.1936911 0.5654634 1.4005655 0.5243672
000020 df 3e ca 3c f2 6f e5 3e 1f 88 d9 3f cf 63 50 bf
       0.024688182 0.4481197 1.6994666 -0.81402296
000030 6d a3 77 3f 11 b0 94 3f 64 24 a5 bf c8 ba a2 3f
       0.9673374 1.1616231 -1.290173 1.2713251
000040 08 c4 1e bf 73 e4 dd be 3c a2 1a 3f 13 a7 5e bf
       -0.6201787 -0.43338355 0.604038 -0.86973685
000050 6e 19 79 3f bf 58 ac 3f d8 08 91 3f ce ed a7 3e
       0.9730443 1.3464583 1.1330824 0.32798618
000060 0b 85 53 3d 5d 7e b8 bc 7e 2b ce 3e 15 b0 4b 3f
       0.05164055 -0.022521192 0.40267557 0.79565555
000070 87 a1 1a bf cf 4b 75 3f ad 45 a1 bf 35 cf 79 3d
       -0.6040272 0.958188 -1.2599388 0.060988624
000080 5d 43 27 be c2 0f 60 bf d5 bb c7 3c c4 15 d4 be
       -0.16334291 -0.87524045 0.024381557 -0.41422856
000090 b9 0a 73 bc 06 3d d9 3c 4c 42 d0 be 79 22 10 3f
       -0.014834099 0.026518356 -0.4067558 0.563026
0000a0 1a 75 12 bf ca a6 7a 3f ed 24 5b be 70 14 e3 3f
       -0.5720993 0.9791075 -0.21400805 1.7740612
0000b0 b7 6b 82 3f e4 1a be bf d5 76 fa 3e 46 68 de be
       1.0189122 -1.4851956 0.48918787 -0.4343893
0000c0 ff 37 b5 bf 03 5f cc 3f f7 ac 64 3d 8e 49 c8 be
       -1.4157714 1.5966495 0.055829015 -0.39118618
0000d0 84 72 c3 bf b7 8d ad 3f 77 8f e6 3f cf 32 0c 3f
       -1.5269322 1.3558873 1.8012532 0.5476503
0000e0 ab e3 c8 bd fc e5 90 bf 02 d1 59 3e e4 6d d7 bf
       -0.09809049 -1.1320186 0.21271136 -1.6830411
0000f0 7c 8f 3a 3e 53 cd 1e 40 77 55 57 3f 07 66 a5 3d
       0.18218797 2.481282 0.84114784 0.08076101
000100 51 84 01 3f f7 d1 2a bf 1a 85 ef bf d0 6c 19 3f
       0.50592524 -0.6672663 -1.8712494 0.5993166
000110 48 06 cf 3e d6 97 a4 3f 72 e2 dd 3d a0 14 9b bf
       0.4043448 1.2858837 0.10834207 -1.2115669
000120 b0 28 ed bf 91 ea 68 be 69 c3 e0 be ef d5 72 bf
       -1.8528042 -0.2274573 -0.43899086 -0.94857687
000130 9e 45 1b bf d8 c8 d6 bf 89 0e 61 bf 89 be 40 bf
       -0.606531 -1.6780043 -0.87912804 -0.75290734
000140 99 4e ab be 4d a4 3f bf dc 73 57 be c1 02 eb be
       -0.33458403 -0.7486008 -0.2104029 -0.4590054
000150 6d cc 25 bf 55 37 14 bf 7e b7 14 3e cf dd 79 bf
       -0.64765054 -0.5789693 0.14523122 -0.9760408
000160 61 f3 a1 be d1 d3 82 3f c1 f5 99 3f 33 62 95 be
       -0.31630996 1.0220891 1.2028123 -0.29176483
000170 f9 c4 ed be 8b 70 f1 3f dd 82 32 3e 58 ef e7 3f
       -0.4643934 1.886247 0.17432733 1.8119917
000180 19 d7 34 bf f1 60 a8 be 9b 59 f3 3f 75 b0 d3 3e
       -0.7064071 -0.3288646 1.901172 0.41345564
000190 ea ab 1e 40 d8 21 10 bf ef 21 bb bf 27 d1 9e bf
       2.4792428 -0.5630164 -1.4619731 -1.2407578
0001a0 d8 f8 11 bf eb 92 03 bf d6 72 71 bf b2 9a 6c be
       -0.5702033 -0.51396054 -0.9431585 -0.23105887
0001b0 6a 27 c3 be ab e3 83 be 09 6f 7f 3d 9c f0 f6 bd
       -0.38116008 -0.25759634 0.06236175 -0.12057611
0001c0 9a e3 aa 3c b8 58 cc 3f 65 83 1a bf e9 b1 7b 3d
       0.020860482 1.5964575 -0.6035674 0.061448965
0001d0 18 49 1a bf 85 a9 7e be af 41 62 3f 9f b6 55 3f
       -0.6026778 -0.24869354 0.88381475 0.8348178
0001e0 3b 99 8e bf 66 2e 50 bf bd 32 de be 88 3f 12 bf
       -1.1140512 -0.813208 -0.43398085 -0.5712819
0001f0 cb f3 22 3e ca 17 85 bf bb 8a 53 3e f4 34 e5 3d
       0.15913312 -1.0397885 0.2065839 0.11191741
000200 2e f8 9f bf 5a 4e 01 40 c2 57 59 3e 05 7e b8 3f
       -1.2497613 2.0204072 0.21224883 1.4413458
000210 a4 38 cd 3f 69 1d e0 3f 07 0e 9e 3e 59 44 2a 3f
       1.603291 1.7508975 0.30870077 0.6651054
000220 63 1c d9 3f 5d b3 a1 be 3e 2b 78 3f 4e 9c 09 40
       1.6961788 -0.31582156 0.9694098 2.150165
000230 9c 9d c2 3f 2b 65 27 bf 5c 0e e9 3f bc 55 27 3f
       1.5204349 -0.65388745 1.8207507 0.65365195
000240 da 4f 66 3f 26 a5 10 bf 0c 0e 19 3d 0d 7d c4 3e
       0.89965594 -0.56501997 0.03736691 0.38376656
000250 d2 3c 36 bf ed 87 35 be ba ed 53 be ef 52 98 bf
       -0.71186554 -0.17727633 -0.20696154 -1.1900309
000260 4d 4c 36 3e 03 b9 35 bd c8 cb f8 3f d5 1c 22 bf
       0.17802544 -0.044365894 1.9437189 -0.63325244
000270 ac 97 6f 3f 49 fd c6 be 4f 80 39 3e 65 d5 d1 bd
       0.9359081 -0.38865116 0.18115352 -0.1024578
000280 7b 13 7c 3f 08 a6 0d c0 83 ae 60 3f 21 14 4c bf
       0.98467225 -2.2132587 0.87766284 -0.79718214
000290 e2 17 58 3f 57 a0 25 bf 85 c4 89 bf 08 af d7 3f
       0.8441144 -0.64697784 -1.0763098 1.685029
0002a0 24 5f b1 bf 11 42 99 be eb 8a 3e bd 75 dc 21 3f
       -1.385716 -0.29933217 -0.0465192 0.63227016
0002b0 23 d5 34 3d 35 4b 32 be 58 6b 60 3f dc 74 c7 bf
       0.044148576 -0.17411502 0.87663794 -1.5582538
0002c0 66 d5 47 3f c8 80 94 be e3 2b 15 40 11 c9 33 3f
       0.78059995 -0.29004502 2.3308036 0.7022868
0002d0 29 7d 0d 40 2a 6d 8f bc a7 1d ad 3f 4f c6 32 bf
       2.2107642 -0.017508108 1.3524674 -0.69833845
0002e0 e6 81 82 3f a1 f4 20 bf 3a 00 4c 3f 1d 10 bf bf
       1.0195892 -0.62873274 0.79687846 -1.4926792
0002f0 d4 e0 c1 bf 54 63 98 3d 09 0c ca bf d8 7e ab 3f
       -1.5146737 0.0744082 -1.5784923 1.3398085
000300 93 bd 20 3f ae 59 12 bf d5 4a eb 3e 9f 62 0d bf
       0.6278927 -0.5716809 0.4595553 -0.5522861
000310 15 c9 88 bf 60 f9 c4 bf 88 97 0e bf 8b 3f 07 c0
       -1.0686365 -1.5388603 -0.5569997 -2.1132534
000320 1c ae 09 bf 0e 21 79 3e 7f 30 14 3f b1 c0 53 3f
       -0.53781295 0.24329016 0.578865 0.827159
000330 f7 4d f8 bc 99 31 06 3f 4b 27 8a bf ad 8c 26 bf
       -0.030310614 0.5241943 -1.0793241 -0.65058404
000340 14 58 0d c0 4e d3 01 3e 85 85 b7 be c8 8e 4c 3f
       -2.2085009 0.12678263 -0.35844055 0.79905367
000350 20 18 35 bd bc d6 a1 3e 25 d8 12 3f 00 d0 19 3e
       -0.04421246 0.31609142 0.5736106 0.15020752
000360 45 8f cd bf 27 0f 0f 3f 2e cc 23 3f 83 9a e1 be
       -1.6059347 0.55882496 0.6398343 -0.44063196
000370 05 2d 09 bf 2a 08 04 3f 4c 0a 19 3f 34 8f 1c 3f
       -0.5358432 0.5157496 0.59781337 0.6115601
000380 56 ad 67 3f 68 ce 5f bf 2b 97 8a bf a4 18 9a 3e
       0.90498865 -0.87424326 -1.0827383 0.30096924
000390 66 25 f0 3d 54 88 bd be aa a8 d2 be c5 8d 61 3f
       0.11725883 -0.37018073 -0.41144305 0.8810695
0003a0 f4 a6 46 3f e8 85 13 3f f2 1c 94 3e 2c 96 99 bf
       0.775985 0.576262 0.28928334 -1.1998954
0003b0 83 d7 7f bf 0a e8 43 3f a8 6d c6 3f 61 aa f6 3e
       -0.9993822 0.7652594 1.5502214 0.48176864
0003c0 b4 47 66 3f 18 67 9a 3e f2 31 cc 3e dd 52 d5 3f
       0.8995316 0.3015678 0.39881855 1.6665913
0003d0 de 80 dc 3e 03 fe 81 3f 34 02 68 bf 68 1a 4b 3f
       0.43067068 1.0155643 -0.9062836 0.7933717
0003e0 54 df bb bf c2 ad 1f 40 67 0b ba bf 49 80 40 bf
       -1.4677529 2.4949803 -1.453473 -0.7519575
0003f0 38 3c 2f bf 4b b5 61 bf c9 fc 50 bb 05 fe 18 3f
       -0.6845126 -0.88167256 -0.0031888953 0.59762603

weight_ih_l0 f4 [384, 128]
000000 1e 5f 05 bd b4 65 e1 bd 2f 61 ae bd e0 59 1a bd
       -0.032561414 -0.110057265 -0.0851463 -0.037683368
000010 fa fc 90 3d 4b 8b 49 be e7 65 8a 3d 7d c5 82 bd
       0.070795015 -0.19682042 0.067577176 -0.06385324
000020 e4 26 6a bd d8 30 9e 3d 48 8f 3a bd 5c 9b ec bd
       -0.057165995 0.0772416 -0.0455468 -0.1155307
000030 d7 af af bd 6b 4c b1 bd df 45 94 be 5c 8e 87 3d
       -0.08578461 -0.08657154 -0.28959557 0.0661895
000040 75 72 29 be dd c0 25 be b3 a8 b9 3d 70 85 17 be
       -0.16547568 -0.16186853 0.0906538 -0.14796996
000050 ab 12 a2 bd 1e a8 ec ba 6f 8d 8a bb e4 36 df 3c
       -0.07913717 -0.0018055474 -0.004228286 0.027247854
000060 6a ca 36 3c a5 52 15 3e e2 17 f2 3a 92 6d 8a be
       0.011156658 0.14582308 0.0018470252 -0.2703672
000070 5d c3 5a be 14 a3 0c bd b5 0f 00 be 91 a5 b0 3e
       -0.21363588 -0.03433521 -0.12505992 0.34501317
000080 96 d4 db bc 84 99 30 bc c3 fc 37 be d2 db 7a 3c
       -0.026834767 -0.0107787885 -0.17967515 0.015311198
000090 4c 33 80 bd 0e 97 d9 bd af 5e 76 bc 3e 92 b1 3d
       -0.06259784 -0.106245145 -0.015037223 0.086704716
0000a0 1c 44 76 3d 62 61 f6 3d 2d 25 4b be 78 62 9d bd
       0.060123548 0.12030293 -0.198384 -0.07684797
0000b0 77 be d5 bd 50 6c f3 bd 32 fb 9d bd df 38 4a 3d
       -0.10436719 -0.11885893 -0.07713927 0.049370643
0000c0 49 f9 a5 3d 2e 4a e0 3d d7 20 69 be 80 8a aa 3c
       0.08104188 0.10951649 -0.22766434 0.020817995
0000d0 fe e7 2e be 3c 3e 31 be 89 6a 8f bd e0 aa 0e 3e
       -0.17080685 -0.17308897 -0.07002742 0.13932371
0000e0 e7 b5 45 be 1c a5 72 39 87 b7 b8 bd 0b df 43 be
       -0.19307671 0.00023140426 -0.0901938 -0.19128053
0000f0 23 83 3d 3d 24 5a 3d 3e dd df 60 3d 7d 08 c5 3d
       0.04626764 0.18491417 0.054900993 0.0962076
000100 36 41 f8 3d 88 22 08 be 15 1e 23 3e 6d d5 f6 3d
       0.12121813 -0.13294423 0.15929444 0.120524265
000110 e3 8e 19 3e b2 20 21 be 2c 92 f5 3c 71 50 5a bd
       0.14995913 -0.15735129 0.029976927 -0.05329937
000120 59 ef 60 bd da d3 6c ba 97 fd a5 bd 65 9c 51 3e
       -0.05491576 -0.0009034254 -0.08105009 0.20469816
000130 7d b0 88 3e b9 88 9f bc 65 0a a2 3d 57 70 79 3d
       0.2669715 -0.019474374 0.07912139 0.06089815
000140 51 2b b1 3d e8 26 35 3d 32 bc b6 bc f6 cd 31 3e
       0.0865084 0.044226557 -0.022306535 0.17363724
000150 2e 02 7b be 62 36 47 3d 8d d1 f3 bd 63 c0 c2 bd
       -0.2451255 0.048635848 -0.11905203 -0.09509351
000160 42 8b 91 bd 3d 96 12 3e ea 65 87 3d 60 32 c5 bd
       -0.071066394 0.14315124 0.066112354 -0.09628749
000170 64 60 17 3e 00 91 14 3e d0 6d 05 3e 2b 82 5e bc
       0.14782864 0.14508438 0.13030171 -0.013580839
000180 08 c9 3f bd 0b c3 a4 be 4c 36 b1 bd 05 d0 83 3d
       -0.046822578 -0.32180056 -0.086529344 0.06436161
000190 70 8d 4e 3c 5b 4d 67 be 7d 4f aa bd b6 ab 29 bd
       0.0126069635 -0.22588103 -0.083159424 -0.041423522
0001a0 23 bf fc 3d 4d e4 9f bd 92 d4 2b 3e a3 82 4a 3e
       0.12341144 -0.07807217 0.16780308 0.19776396
0001b0 19 74 05 be 70 e1 40 3d f0 80 78 3e 4e 73 5b bd
       -0.13032569 0.047089994 0.24267936 -0.05357676
0001c0 e0 16 e6 bc 0d f9 4f 3d 75 27 36 bc f0 22 da bb
       -0.02808708 0.050774623 -0.011117806 -0.006656997
0001d0 f2 9d 85 3c c1 ef 30 bd 5a 9d 1e bd 84 32 00 be
       0.016310666 -0.043197397 -0.03872428 -0.1251927
0001e0 43 d7 08 3e 60 20 2b 3e d0 3e f8 3d 70 9e 2f be
       0.13363366 0.16711569 0.121213555 -0.17150283
0001f0 41 6a b8 bd dc af 80 bd 63 4f 69 3e 01 1b dd 3d
       -0.09004641 -0.062835425 0.2278419 0.10796166
000200 eb 45 7b be ed 53 b5 3d a9 22 07 be 96 18 0c bd
       -0.2453839 0.08853898 -0.13196816 -0.034203134
000210 d3 d4 d7 3d b4 b6 b5 3d 99 c3 25 bd b1 55 bd bd
       0.1053864 0.088727385 -0.04046974 -0.0924486
000220 e2 37 c0 bd f7 ac 77 3c 2d 8f 21 be 65 01 22 3e
       -0.09385659 0.015116922 -0.15777273 0.15820844
000230 e1 da 10 bd fd 60 3c be 44 5c 69 bd 67 f6 c9 bd
       -0.03536499 -0.18396373 -0.056972757 -0.09861451
000240 2e 9e 58 3c 7f 53 4b 3d c0 ca 60 3d 37 12 9e 3d
       0.013221307 0.049640175 0.054880857 0.07718318
000250 9c 36 c5 3c 0f f4 7a bd 0f be 4b 3e 08 03 60 3d
       0.024073891 -0.06126791 0.1989672 0.05469039
000260 dc 65 35 3e ef 61 a7 bc b5 94 56 3e d3 ee 15 bd
       0.17714638 -0.02043244 0.20955165 -0.036604714
000270 45 19 27 bb 96 17 01 3d 00 40 a1 3c dd e3 3c be
       -0.002549724 0.031516634 0.019683838 -0.18446298
000280 50 5d ba bd 13 51 48 3e 78 e3 0a 3e f9 27 c7 3d
       -0.09099829 0.19562177 0.13563335 0.09724421
000290 78 0d 42 3e af ea 8e bd 23 b4 2b be 50 db 07 be
       0.1895045 -0.06978356 -0.16767935 -0.13267255
0002a0 cc 44 58 3b 68 f9 67 bd d1 9b 2d bd 53 10 e7 bc
       0.003299999 -0.056634337 -0.042384926 -0.028206026
0002b0 06 08 05 be b1 41 26 bd 14 cc d0 bc 2c 7c 17 3d
       -0.12991342 -0.040589992 -0.025487937 0.036983654
0002c0 2d 55 8a bd c9 47 d0 bc 48 63 ee bc cd ee 0b be
       -0.06754527 -0.025424855 -0.029100075 -0.13665314
0002d0 92 05 b8 3d 76 84 25 be db 71 dc 3d 63 ba 86 bd
       0.089854375 -0.16163811 0.10763904 -0.06578519
0002e0 88 b9 96 3d d0 e6 01 bd 76 f3 85 3d c4 83 be 3c
       0.07359606 -0.03171426 0.06540577 0.02325619
0002f0 d2 ee 58 be d5 e4 2d 3d 31 15 f5 bd 73 68 a8 bd
       -0.21184853 0.04245456 -0.119669326 -0.08223047
000300 aa 21 25 3e c8 b5 17 3e f9 fa d9 3d 0b a6 04 3d
       0.16126123 0.14815438 0.10643572 0.032384913
000310 00 be b8 3d f9 6c 5d 3d c0 99 41 3d 94 a5 97 bc
       0.090206146 0.054059003 0.047265768 -0.018511571
000320 04 86 8b 3d f6 e7 0d 3e ea f1 76 3d e6 5e 05 be
       0.06812671 0.13858017 0.0602893 -0.13024482
000330 c3 96 19 bb 50 b4 8a bd 8b d9 56 3d fb 96 d8 3c
       -0.0023435808 -0.06772673 0.05245356 0.02643918
000340 d0 31 47 bd 53 5b 85 bc 10 c8 b3 3d 20 bb 92 ba
       -0.04863149 -0.016278898 0.08778393 -0.0011194684
000350 35 57 9b bd 40 7c d3 3d 08 44 5d 3e e0 97 84 3d
       -0.07584993 0.10326433 0.21607983 0.0647428
000360 09 03 f6 3b 2b 5f af 3d 24 c1 1b be f8 3b fa bc
       0.007507686 0.08563074 -0.15210396 -0.030546173
000370 f7 bc 7b bc 3e f0 10 3d d6 21 89 3e f1 07 1b bd
       -0.015364877 0.035385363 0.26783627 -0.03784937
000380 5f 56 20 3e 9d 8f 17 be 4d b1 72 bc 0d 14 0d bd
       0.15657948 -0.14800878 -0.01481278 -0.03444295
000390 21 f5 13 be d2 4d 81 bd f4 9a 0a 3d 85 ac 64 bd
       -0.14448978 -0.06313671 0.03383918 -0.05582859
0003a0 ab 66 8c be 5b 66 eb bd 24 da 84 3c 03 5c b1 bd
       -0.2742208 -0.11494132 0.016217299 -0.08660128
0003b0 da 3d 7f bd b8 3a a2 3d a3 89 22 be 2a 4f eb 3d
       -0.062314846 0.07921356 -0.15872817 0.11489709
0003c0 d8 0d 5f bd fb e5 be 3d 26 83 59 3c e8 40 86 3e
       -0.05445656 0.09321209 0.013275897 0.26221395
0003d0 52 5c 18 3d c3 66 d2 bc bd 11 6b 3d a0 15 00 be
       0.03719742 -0.025683766 0.057389963 -0.1250825
0003e0 8c 21 ee bc 06 cd f1 3c 94 94 fe 3c b3 c6 f1 3d
       -0.02906873 0.029516708 0.031076707 0.11805477
0003f0 e6 15 cb bd 05 0f 39 3d 53 e0 c6 bd 79 a7 27 3e
       -0.09916286 0.04518034 -0.09710755 0.1637248

weight_hh_l0 f4 [384, 128]
000000 a0 97 55 3d 83 a4 b0 be bc 94 22 3e 1c de 21 3c
       0.052146554 -0.34500512 0.1587705 0.009879615
000010 68 c6 bf 3d c7 e4 40 3e 88 cb 7d bd 61 42 c4 bd
       0.09364015 0.18837272 -0.06196168 -0.09582973
000020 82 03 98 bd e8 04 18 3e d7 94 e1 bd f1 db c3 bd
       -0.07422544 0.14845622 -0.11014717 -0.09563435
000030 0e a8 0c bd 3a 41 82 3e eb 37 27 3e 94 30 0a 3e
       -0.034339957 0.2544039 0.16329925 0.13495094
000040 b5 fb 7e 3d dc 17 b8 ba 2b dc d6 bd 5d 58 0e be
       0.062251765 -0.0014045197 -0.104912125 -0.13900895
000050 c3 4f b2 3d 7e 6d e8 bd 5f 80 77 bd 05 6c b8 3d
       0.087066196 -0.11349009 -0.06042516 0.09004978
000060 3a 49 c6 bd 4a 4a 18 3e 21 09 d1 bd 0f 8a 56 3c
       -0.096819356 0.14872089 -0.10206819 0.013094439
000070 74 71 22 3e bb a9 13 be 47 c6 1e 3e d8 3c 83 3e
       0.15863591 -0.14420216 0.15505324 0.25632358
000080 4d 22 d2 3d 97 48 87 3e 2e 71 95 3e 25 93 5a bd
       0.102604486 0.2642257 0.29187912 -0.053362984
000090 f3 f8 80 3d 7a c0 8c 3d b0 a6 0a bc 23 09 0b be
       0.06297483 0.068726495 -0.008462593 -0.13577704
0000a0 8c 30 33 3e ff 68 9d 3d f2 47 12 3c 88 ec 65 bd
       0.17498988 0.07686042 0.008928286 -0.056133777
0000b0 2a a7 46 be 22 26 b4 3d 4e f0 14 3e c9 66 c8 bd
       -0.19399706 0.08796336 0.14544794 -0.0978523
0000c0 6f c5 66 be 5b c3 5c be 82 59 92 be 48 4d b2 3d
       -0.22536252 -0.21558897 -0.28583914 0.087061465
0000d0 e7 3c 49 be c5 90 cb 3e a9 f2 ff bd 96 a0 8f bc
       -0.19652139 0.39758888 -0.124974556 -0.017532628
0000e0 ad b2 37 3c a5 df 99 3c 87 b2 92 bc f0 25 4f 3d
       0.011212033 0.0187834 -0.017907394 0.05057329
0000f0 c5 9e c4 bd d5 e5 a4 3d a6 5b 9f 3d d7 b6 04 be
       -0.096005954 0.080516495 0.077811524 -0.12960373
000100 88 3a ce bc a6 d0 c9 3d 0c 1a c2 bd a6 3f 88 3d
       -0.025174394 0.0985425 -0.09477624 0.06652765
000110 27 16 7d 3d 14 f9 7b 3e f0 45 a1 3e a1 58 2b 3e
       0.061788704 0.24606735 0.3149867 0.16733028
000120 86 7a 15 be b2 fe 0b be 25 07 a9 3d 98 62 91 3d
       -0.1459752 -0.13671377 0.08253316 0.070988834
000130 08 d7 0d be b8 64 f1 3d 53 ae 8a bb 1c b5 c3 bd
       -0.13851559 0.11786789 -0.004232207 -0.09556028
000140 e7 d4 8a bd 6c 9e ce 3c a3 3b af 3d 9d d0 ad 3b
       -0.06778889 0.025222026 0.08556297 0.0053044097
000150 d4 96 77 be df 82 54 bd 10 60 31 3c e3 7c 63 3d
       -0.2417863 -0.05188262 0.010826126 0.055539023
000160 2f 1c 02 bb 18 3b 01 be 89 bc f8 3d 70 3d 5b 3e
       -0.0019853225 -0.12620199 0.12145335 0.21410155
000170 a5 cc 64 bd 63 44 05 3d db 03 ef 3c 7b 83 c3 bd
       -0.055859227 0.03253592 0.029176643 -0.09546562
000180 48 2e 4f 3c 3d 2e 4e be 8f 59 46 be e5 70 3a be
       0.012645312 -0.20134826 -0.19370101 -0.18207128
000190 62 73 d5 3d ab d2 05 be 09 ca 68 bd af 66 10 be
       0.10422398 -0.13068645 -0.0568333 -0.1410167
0001a0 ce 04 79 3c 75 1d ac bd 8f 20 94 3d e1 10 19 3e
       0.015198899 -0.08404056 0.072327726 0.14947845
0001b0 77 5e 43 bd 83 0f 60 be 1d 0d 4e be af 84 7f be
       -0.04769751 -0.21880917 -0.2012219 -0.24952959
0001c0 2d 1a 24 bc 08 83 97 3e 86 bf 2f 3d 97 86 86 be
       -0.010016006 0.29592156 0.04290726 -0.2627456
0001d0 40 f1 04 be df 9a 5f bd 1e f6 09 3e b8 d9 30 3e
       -0.12982655 -0.054591056 0.13472793 0.17270553
0001e0 3c 8a 44 be a3 d8 28 be b2 e5 1d be c5 dc 12 be
       -0.19193357 -0.1648889 -0.15419653 -0.1434203
0001f0 2b d7 96 3d 78 27 25 3e ac 7b 60 bd dc d9 22 bd
       0.07365259 0.16128337 -0.054805443 -0.03975855
000200 f1 f3 3b 3e 06 bb 58 3e 78 a6 ed 3c 51 2f 2c be
       0.18354775 0.21165094 0.029010043 -0.16814925
000210 b8 23 8b 3d 33 3e 01 be 93 a0 90 3d d5 1b 17 be
       0.06793922 -0.12621383 0.07061877 -0.14756711
000220 f2 37 e6 3d 86 83 ca 3d 3c 0d b9 bc 93 2b bc bd
       0.112411395 0.09888367 -0.022589318 -0.091879986
000230 d5 4f 5d bd a6 b8 86 3e 54 00 74 3d b5 fd ea bd
       -0.054031212 0.2631275 0.059570625 -0.11474172
000240 58 1c cc bd 3b 3e 3d 3e fb b6 4b 3d 33 75 18 bd
       -0.09966344 0.1848077 0.04973505 -0.037221145
000250 c8 7f 31 3b 27 0e 0b 3e ac b5 3e 3e 9f 2d b8 3c
       0.002708422 0.13579617 0.1862399 0.022482691
000260 ba 11 3e 3e bf 7b 62 bd 74 a4 1e bd b0 32 3e 3d
       0.1856145 -0.055293795 -0.038731053 0.046435058
000270 40 53 ee 3d e5 f1 c4 3d 4a a6 0a be c7 0b 7b bd
       0.116369724 0.0961645 -0.13539997 -0.06129053
000280 b0 42 b5 3c 75 c9 79 bc 3d 84 da 3d 1a 4a c2 bd
       0.022126526 -0.015245785 0.10669754 -0.0948679
000290 eb ad 4c 3e 94 ac 0d bc a7 aa 93 3d ba 6d b0 bd
       0.1998822 -0.008647103 0.07210284 -0.08614679
0002a0 24 ff b1 3d 87 ab 5e 3d f8 88 2c 3d b8 c9 b6 3d
       0.08691242 0.0543628 0.04212281 0.089251935
0002b0 95 a1 be bc 47 b0 c0 bd c9 32 8f bd 6b 22 f7 bd
       -0.023270408 -0.09408622 -0.069921084 -0.120671116
0002c0 45 93 6a 3e ff 58 b5 3c 65 2c 2d bd ae 2c 0d be
       0.22907741 0.022137163 -0.042278666 -0.13786575
0002d0 2a 6d b4 bd 1a fc e9 bd 0a 7d 4f bd cf a9 4d 3d
       -0.08809884 -0.11425038 -0.050656356 0.05021077
0002e0 20 0c a9 3d 06 4d 5e 3d d9 d9 75 3e fb b7 4d bd
       0.08254266 0.054272674 0.24008884 -0.050224286
0002f0 2f ec 82 3d 82 e3 18 3e 26 e8 0d be e5 36 fe bd
       0.06392705 0.14930537 -0.13858089 -0.12412814
000300 38 be 90 bd 80 d6 cc 3d b5 b5 2b bc f5 c5 0b be
       -0.07067531 0.1000185 -0.010480334 -0.13649733
000310 97 03 e9 bc ea c2 ba bc 13 29 41 3d e9 7f 88 3e
       -0.028444095 -0.02279802 0.047158312 0.26660088
000320 d6 21 60 3e 6f a7 2c bd 1b 06 2d 3e 43 ce 39 be
       0.21887907 -0.042151865 0.1689686 -0.18145089
000330 31 d9 b2 bc 23 7c d2 bd ab 9d 7f bd b8 26 18 3d
       -0.02183208 -0.102775835 -0.062406223 0.0371463
000340 b7 4f 8c 3d 0e 23 d3 3c 8d 73 cf bc bb c2 22 3d
       0.06851142 0.025773551 -0.025323654 0.03973649
000350 9a 9e 8c be 5a 8f fd 3c 43 d6 50 3e b9 1d 93 be
       -0.27464753 0.030952144 0.20394234 -0.28733614
000360 e7 d6 92 bc 7b 1c 25 bd 7c b0 3c 3e 80 d7 38 be
       -0.017924739 -0.040310364 0.18426698 -0.18050957
000370 e7 6c 70 3d 48 ce 8e bc c5 2b d3 bd 44 ce 92 be
       0.058697607 -0.017432347 -0.10311083 -0.28672993
000380 ed 59 cf bc 02 62 47 bc af a2 77 3e ae 09 bc be
       -0.025311435 -0.012169363 0.24183153 -0.36726135
000390 b6 b7 ea 3e 14 78 b8 3d e4 d2 a9 3c 41 3f e9 bc
       0.45843285 0.09007278 0.020730443 -0.028472545
0003a0 9f b7 82 be d4 aa f5 bd 97 2d 4e 3e c7 c0 c9 bd
       -0.25530717 -0.119954735 0.20134579 -0.098512225
0003b0 9c 5d 7e be c7 9b 42 be 14 41 52 3d 48 3a 51 3d
       -0.24840397 -0.19004737 0.051331595 0.051080972
0003c0 9d 18 09 be 4d 9b 3e 3d 38 26 90 3d 2a 35 b0 bd
       -0.13388295 0.046534825 0.0703854 -0.0860389
0003d0 26 a3 75 3e c4 dc 9f bd 41 bf f4 bd 49 84 83 3d
       0.23988017 -0.078057796 -0.11950541 0.06421716
0003e0 62 3b 49 3c 79 67 64 be 8a 9f 1c 3e a6 d3 53 3e
       0.012282224 -0.22305097 0.15295234 0.20686206
0003f0 d2 e3 94 bb c9 09 8a be c4 70 1c be d8 30 ad 3d
       -0.00454376 -0.2696059 -0.15277392 0.08456582

bias_ih_l0 f4 [384]
000000 f0 81 3d 3e 23 41 6e bc 86 f7 86 3e 9e 2f 81 bd
       0.18506598 -0.014541897 0.2636072 -0.063079104
000010 35 52 d5 3d 6c a9 42 3d ae ad 6e 3e f9 cc e6 3d
       0.1041607 0.047524855 0.23308441 0.11269564
000020 c2 a3 ab bd 8c b5 d1 3e f6 4b 0c 3e b2 c3 94 3a
       -0.08380844 0.40958822 0.13700852 0.0011349826
000030 a3 d0 c2 bd 96 27 d6 3c 59 63 bf 3d a4 e4 37 3e
       -0.095124505 0.026141923 0.09345121 0.17958313
000040 e7 72 1a 3d dd 41 05 3e dd e7 c4 3d cc b0 4d 3e
       0.037707236 0.13013406 0.09614537 0.20086974
000050 58 96 53 3e 21 93 ab 3c 4a 69 0b 3c 5c f7 ac 3c
       0.2066282 0.02094418 0.00850899 0.021114044
000060 44 ab d0 3d 17 d7 16 3c e2 ce 72 3a 64 df 12 ba
       0.10188916 0.009206555 0.00092623953 -0.0005602746
000070 ea a4 98 3d 27 95 8b 3e 27 e0 5d bc 4c 48 7a bd
       0.0745333 0.27262232 -0.013542212 -0.061104104
000080 df a6 8a 3e 6f 3d 9e bc f8 21 78 bc 65 6d 18 3d
       0.27080438 -0.019316403 -0.0151448175 0.0372137
000090 c0 c8 55 3e 89 fe 21 3d db 49 43 bd 92 3a d7 bd
       0.20877361 0.039549384 -0.047677856 -0.10509218
0000a0 6b b0 23 3c 7c be 0d 3e 7b f8 17 bd 49 6f 97 3d
       0.009990792 0.13842195 -0.037102204 0.07394273
0000b0 d4 b6 80 bc 70 6d 5a 3e 90 94 e1 3d 15 ec 36 bc
       -0.01571218 0.2133081 0.11014664 -0.011164685
0000c0 05 ec ab bb 19 ce 44 3e db 28 6d bd 6d 55 23 bd
       -0.0052466416 0.19219245 -0.05790029 -0.03987639
0000d0 83 c0 4a 3d e0 06 d0 3d 0c 85 3a 3d af 44 52 3c
       0.0495 0.10157561 0.04553704 0.012833758
0000e0 fe 79 97 3c 11 fa 7d 3d ab 33 d5 bd 3c 00 33 3c
       0.018490788 0.06200606 -0.104102455 0.010925349
0000f0 26 fe 85 3e 0e 3a 20 3c 17 f3 b3 3d 5c b3 37 bc
       0.26170462 0.009779466 0.087866 -0.011212196
000100 6f 17 a1 bd a3 40 9f 3d 8f 24 53 3d c3 96 6d bd
       -0.07865798 0.07776 0.051548537 -0.058005106
000110 0a dc 3e 3e 76 0e 09 3e 7d 74 aa 3d 8c b2 32 3e
       0.18638626 0.13384423 0.083229996 0.17450923
000120 58 fc e1 bc ca 46 c3 3d 78 ff ff bc cc d6 d7 3d
       -0.027586147 0.09534986 -0.031249747 0.10539016
000130 4a 35 a1 bd fb 0f 9f 3b 12 d0 16 3d 05 5f 0f 3d
       -0.07871492 0.0048542 0.036819525 0.035002727
000140 bc 6a ed bb b2 bb da 3d c4 02 55 3d 70 8e c2 3d
       -0.0072453897 0.10680331 0.05200459 0.09499824
000150 f4 36 74 3d 5a 6e 95 3d 38 e9 26 3e 95 eb 8a bc
       0.05962272 0.072964385 0.16299903 -0.016958037
000160 dd ed b3 3d 81 9b 7c 3d fb 49 f6 3d 78 1c ab bd
       0.08785603 0.061671738 0.120258294 -0.08355039
000170 07 7b 93 3d 0d 36 09 bd 6c 33 c8 3d 68 d8 68 bd
       0.072012 -0.033498812 0.09775433 -0.056847006
000180 c6 4c 68 3e 08 aa ed b9 a9 39 2e bd 9c 69 04 3e
       0.22685537 -0.00045330846 -0.042535458 0.12930912
000190 2b 3a 4d bd 3d 80 d0 3d 66 59 bc bd a0 ef ca 3d
       -0.0501043 0.101807095 -0.09196739 0.09908986
0001a0 13 17 9f bc d8 93 f7 3e 00 eb 2e 3d 2b 24 30 bd
       -0.019420182 0.48354983 0.042704582 -0.043003242
0001b0 b7 58 d5 3c cc 18 74 3d 08 1c 85 3c 3e f5 bd 3d
       0.02604328 0.05959396 0.016248718 0.09275292
0001c0 fa 74 d7 3d b0 5e a9 3b 98 98 9c 3d a8 01 ab bd
       0.105203584 0.0051687583 0.076462924 -0.08349925
0001d0 32 9c 8d 3e 30 55 77 bd d5 ae d1 bb ad 05 94 3e
       0.2765823 -0.060383976 -0.0063990154 0.2891058
0001e0 92 ed 3e 3e e9 45 3e bd d2 c2 b8 3b 97 ee 7b 3c
       0.18645313 -0.04645339 0.0056384588 0.0153767085
0001f0 9a c0 be 3d d5 a4 5d 3d a2 78 b2 3b e7 f3 f4 3d
       0.093140796 0.054112274 0.0054465095 0.11960583
000200 ca b7 21 be 68 13 a6 3d f1 07 7a 3d d2 5f ac 3c
       -0.15792766 0.0810917 0.06104273 0.021041784
000210 3c 87 ba 39 b9 ae ae bd 7e 15 e3 bd 87 d4 2a be
       0.00035577442 -0.085294195 -0.11088084 -0.16682635
000220 e6 5d 94 bd be a5 88 3d f8 12 c9 bc e1 55 94 bd
       -0.07244472 0.06672238 -0.024545178 -0.072429426
000230 b6 77 d4 bd c4 ec 67 bb 8c 7f 57 be e3 6f 53 3d
       -0.103743955 -0.0035388926 -0.21044749 0.051620375
000240 60 dc 1c bd 17 28 81 bd d9 6d 92 3d 3c 5b 4e bd
       -0.038296103 -0.06306475 0.07149858 -0.050379977
000250 ad f0 56 3d 26 84 f2 bd 43 f6 f7 3d 10 97 16 3d
       0.05247562 -0.118416116 0.121075176 0.03676516
000260 c2 a2 63 3c 56 d0 41 bd a6 99 76 3d 37 94 e9 3c
       0.013893785 -0.047317825 0.060205124 0.028513057
000270 ff ea 5e bd df 7d e0 bc 74 6f 07 bd d4 2e bb 3d
       -0.05442333 -0.02740377 -0.033065274 0.09139791
000280 44 98 b6 3d 56 ef 1c bb 12 3d 8a bd 35 7c 01 bb
       0.08915761 -0.0023946366 -0.067499295 -0.001975787
000290 91 77 e6 bc dc 74 f2 bd 6a 66 d5 bd 9b a2 b3 3d
       -0.028133186 -0.118386954 -0.104199246 0.08771249
0002a0 84 32 ed bd 51 70 85 bd a7 45 a7 3c a6 02 b0 bd
       -0.11581901 -0.06515563 0.020418955 -0.08594255
0002b0 14 80 bd 3d 9d 6b 02 bb 29 1a c1 3c e1 c4 3a bd
       0.092529446 -0.0019900568 0.023572044 -0.045597915
0002c0 8a 85 8d 3d 21 54 9a bd d6 7e e9 bd 88 10 ce bc
       0.06910236 -0.075355776 -0.11401145 -0.025154367
0002d0 24 25 46 3d 53 49 50 3e 69 e7 73 3e 23 77 37 bd
       0.048375264 0.20340471 0.23818745 -0.044791352
0002e0 51 82 e3 bd fd dc 87 bd 83 48 82 3d b3 3a 66 3d
       -0.1110884 -0.06633947 0.06361487 0.056208324
0002f0 4b 18 01 be 1e f0 d3 bd b1 b4 36 bd ee b3 1f 3d
       -0.12606923 -0.10348533 -0.044605915 0.038989954
000300 97 72 d6 3c 17 65 57 bd cf db 27 be 78 3b 5a 3d
       0.026177688 -0.05258664 -0.16392444 0.05327937
000310 c5 1e 1f 3e d0 68 d9 3d f4 de 3f be 31 40 0a 3d
       0.15539081 0.106156945 -0.18737394 0.033752624
000320 1f 73 3b 3a cc 37 c5 bd 28 28 d3 bb e5 7c c1 3d
       0.0007150638 -0.09629783 -0.006443996 0.0944765
000330 b9 6f 29 3e b3 76 0a be a6 f0 e6 3b 8e ce c0 bc
       0.16546525 -0.13521843 0.0070477305 -0.023535993
000340 bc 0b dd 3d cb bc 31 be 9d 48 80 3e ad b0 18 be
       0.10793254 -0.17357175 0.250554 -0.14911146
000350 f2 92 7c bd 43 5e 91 3d 79 76 eb bd 50 07 3a be
       -0.061663575 0.07098057 -0.11497206 -0.18166852
000360 e3 26 14 bd 36 b6 3b 3c 95 13 98 bc 73 0a 32 3d
       -0.036169898 0.011457017 -0.018564025 0.043466996
000370 24 b3 3e 3e 05 d2 93 bd c4 81 ab bd eb 29 82 bd
       0.18623024 -0.072177924 -0.0837436 -0.063556515
000380 ea 90 a7 3c 03 55 84 bd 2b 99 2c 3d 1c a9 ca 3d
       0.020454843 -0.06461527 0.04213826 0.09895536
000390 4e 31 0b 3e 4a 56 66 3d 13 a6 db bd 58 22 bf bc
       0.13593027 0.056234635 -0.107250355 -0.023331806
0003a0 9f 04 50 3d 83 df 3c 3c 2a 56 44 bd 38 d1 0e 3e
       0.050785657 0.011527899 -0.047933735 0.13946998
0003b0 d8 d7 07 be e8 69 1f 3e 15 27 3f bd 5f 68 dd 3c
       -0.13265932 0.15567744 -0.04666813 0.027027307
0003c0 39 74 8c bd 0d af 26 3d e4 2e 18 be 80 84 0e 3e
       -0.06858105 0.040694285 -0.14861637 0.13917732
0003d0 37 0c d1 bd 28 83 57 3e dd 06 88 bd 1e b6 49 bd
       -0.10207408 0.21046126 -0.06641934 -0.049245946
0003e0 a7 73 32 3d 8b c3 ad 3d f2 c2 14 bd b4 8e b8 bd
       0.043567326 0.084845625 -0.036318727 -0.090115935
0003f0 b5 f3 9e bc 97 2b ca 3c 21 2c ae bd 94 85 8d bd
       -0.019403318 0.024678988 -0.08504511 -0.06910244

bias_hh_l0 f4 [384]
000000 3c 0b 97 3d 59 34 99 3c 01 7f 08 3e 8a f1 8f bd
       0.0737519 0.01870172 0.13329698 -0.07028492
000010 ba 23 21 bd 97 e8 be bc 36 74 8d 3e df b5 51 3e
       -0.039340712 -0.023304267 0.27627724 0.20479535
000020 3a b5 79 bc f4 ed aa 3e 93 24 e4 3d f7 bc 62 3c
       -0.015240962 0.3338467 0.111397885 0.013838998
000030 ee 4e a5 bd 0c 82 b7 3d 05 26 3f 3e d8 eb e2 3d
       -0.08071695 0.08960351 0.18666847 0.1108014
000040 6f 7a 30 3e dd bc 03 3d bc c6 1f 3d 8f 13 1a 3e
       0.17234205 0.032162536 0.039007887 0.15046524
000050 be ce 80 3e a2 d7 ec 3c 91 5d 7e 3c 2c dd 4a bb
       0.25157732 0.028911415 0.015525238 -0.0030954583
000060 69 88 b7 bc 0d 5d bf bd e4 f6 69 3d 57 f1 fa 3d
       -0.022403913 -0.0934392 0.05712022 0.12253063
000070 cb 97 99 bc 38 08 9f 3e 1a 04 b8 bc 4f 8f 9d 3c
       -0.018749138 0.31060958 -0.022462893 0.019233374
000080 59 df 7b 3e 19 21 e3 3d 0d f8 5d 3d 13 2f 94 bc
       0.24596919 0.11090297 0.054191638 -0.018088853
000090 0a fb 70 3d 56 62 42 bd 42 4b f5 bd 56 aa 18 3d
       0.05883316 -0.04745706 -0.11977245 0.03727182
0000a0 cd ce 86 3d a3 43 fa 3d cc 67 20 bd b5 58 2d 3d
       0.06582413 0.12219932 -0.03916149 0.042320926
0000b0 f7 06 e9 3d 59 d3 ce 3d 35 2b 2c 3d 73 52 6a 3d
       0.113782816 0.10098905 0.042033393 0.057207536
0000c0 b8 03 c2 3d dd f2 88 3e 91 91 1e 3d 78 95 8b bd
       0.094733655 0.2674779 0.03871304 -0.06815618
0000d0 8d 6c 0f 3e 24 5b c4 3d cd f2 fb 3d 9a b5 8b bc
       0.14006253 0.09587696 0.1230217 -0.017054368
0000e0 df 86 b6 3d 4f 66 fa 3d ae e9 84 bd 08 c2 c9 3d
       0.08912443 0.12226545 -0.06489883 0.09851462
0000f0 60 f7 65 3e 3d a8 9c 3d 53 1a fa 3a ad 6c fb bc
       0.22457647 0.076492764 0.0019081332 -0.03069147
000100 fd 42 43 3d dc 50 a2 3d 14 8b 3e 3d 64 58 3d bd
       0.047671307 0.07925579 0.046519354 -0.046226874
000110 43 b5 3d 3e 4e 33 08 3e 51 13 ba 3d 42 a4 37 3e
       0.18526177 0.13300821 0.090857156 0.17933753
000120 60 5a 7b bd 66 38 85 3d e6 2c 70 bd 7f 54 2a 3c
       -0.061365485 0.06504898 -0.05863657 0.010396122
000130 c7 02 47 3d 19 1b 80 3d 40 8d c2 bc 5a 26 5d 3d
       0.048586633 0.062551685 -0.023748994 0.053991653
000140 ab ce 92 3c 31 69 9e 3d 57 ae 08 bc ad b7 2a 3d
       0.017920813 0.077349074 -0.008342347 0.041679073
000150 c2 f7 78 3d 72 d5 74 3d 49 50 b3 3d 81 49 51 bc
       0.060783155 0.05977387 0.087555476 -0.012773872
000160 74 ad 2f bd 4c 6d db 3d 3b 41 89 3d 37 c8 b3 bd
       -0.042890027 0.10714206 0.06701895 -0.08778422
000170 f0 2b dd 3c 10 20 34 bd 8f 5c 1f bd 69 68 bc 3c
       0.02699849 -0.04397589 -0.03890663 0.022999005
000180 e9 4e e1 3d c1 71 35 bd 70 a7 49 3d 95 b0 ee bb
       0.11001379 -0.044297937 0.049231946 -0.007284234
000190 ff 7b ef bc 60 16 4b 3e 70 4f ff bb b3 32 68 3d
       -0.02923393 0.19832754 -0.007791452 0.056688976
0001a0 4c 7e cf 3c de f1 03 3f ca f3 04 3d 7d 36 b0 3d
       0.025328778 0.51540935 0.032459058 0.08604143
0001b0 96 bd 0d bd 29 9e 63 3d 1a bd 16 3e 2c 1c 1e 3e
       -0.03460463 0.055570755 0.14720574 0.15440434
0001c0 22 dd 91 3d a2 a6 84 3c c7 b0 91 3b 32 ca 02 3d
       0.07122256 0.016192738 0.0044461223 0.03193111
0001d0 d2 19 a8 3e 6d 7a aa bd d2 d0 09 bd 50 d8 5a 3e
       0.328322 -0.08324132 -0.033646412 0.21371579
0001e0 52 39 07 3e 9f da 48 bc 28 1b 4d bd ce a8 e7 3d
       0.1320546 -0.012259155 -0.050074726 0.11311494
0001f0 8e aa 4e 3e 64 16 31 bb 37 fd b9 3d 6e 16 0e 3e
       0.20182249 -0.0027021402 0.090815 0.13875744
000200 c1 ff b0 bd c8 10 15 bd f9 82 05 bd ec 14 74 3d
       -0.08642531 -0.036392957 -0.03259561 0.059590265
000210 a6 ed a4 3d bf 99 26 bd a5 17 85 bd 3a 5d dc bd
       0.0805314 -0.040673967 -0.064986505 -0.10759969
000220 e6 33 bc 3b 91 fc 97 bd 78 ea 96 3b 90 1c a6 b9
       0.0057434915 -0.0742122 0.0046055876 -0.00031683268
000230 67 e7 9b bd cb 03 e4 bd 72 37 84 be 58 8f 48 3d
       -0.07612496 -0.11133536 -0.2582355 0.04896483
000240 b4 43 dd 3d b0 e8 47 3d be 7c 91 3d b1 e6 0b be
       0.10803929 0.048805892 0.07103871 -0.1366222
000250 bf 9b dd 3c a2 ce 02 be 8d 7c c6 3d 7e 00 a5 bd
       0.027051805 -0.12774137 0.09691725 -0.080567345
000260 ed bc 45 bd e4 70 da 3b b0 d6 8a bd 2c 2c 07 be
       -0.048275877 0.0066662896 -0.0677923 -0.13200444
000270 e4 42 37 3d 52 22 b0 3b 47 3e e5 3c 06 a8 4e bd
       0.044741526 0.005375185 0.027983798 -0.05045321
000280 cc 9f fd 3d 5d 6c ed bd ff 3d f6 bc d0 6f c9 bb
       0.123839945 -0.11592934 -0.030058859 -0.0061473623
000290 9f b8 6c 3a d1 a6 0a 3d 66 54 a8 bd 41 d6 bb 3d
       0.0009030196 0.033850495 -0.08219223 0.09171725
0002a0 20 91 a4 b8 5e 44 9a 3d ac a4 d7 bd 85 97 1b be
       -7.847161e-05 0.07532571 -0.105294555 -0.15194519
0002b0 44 8e 21 3e e8 63 3f 3d 9f 81 61 bb e5 db 15 3d
       0.15776926 0.046726137 -0.0034409536 0.03658666
0002c0 76 22 06 3b ee e5 e7 bd 94 77 7c bc 1a 22 79 3d
       0.0020467318 -0.113231525 -0.015409369 0.060823537
0002d0 56 f6 ba 3c a7 ff 42 3d 36 9c 1e 3e c4 82 82 bd
       0.02282254 0.04760709 0.15489277 -0.06372598
0002e0 19 c5 e4 bb de c0 d6 bd b6 f4 62 3d fa c8 9d ba
       -0.0069815037 -0.10486005 0.055409156 -0.0012038045
0002f0 2a fd 21 be e0 f4 99 bd 8e 34 97 bd f1 92 69 3d
       -0.1581923 -0.07517409 -0.07383071 0.0570249
000300 6e a4 23 bd bb 66 b8 bd ac 3d db bd 19 be 4a 3d
       -0.039951734 -0.09003969 -0.10705122 0.049497698
000310 12 50 28 3e dc 40 16 3e 5f 75 47 be cb ca 92 bc
       0.16436794 0.1467318 -0.19478367 -0.017918965
000320 68 f7 00 be de a4 a0 3c e7 4a 81 3d be fe 1f 3d
       -0.12594378 0.019609865 0.063131146 0.0390613
000330 0e c9 86 3c fe b2 8d bd f5 1d eb 3d 02 9c 0e bd
       0.016453292 -0.06918906 0.11480323 -0.03481675
000340 aa 70 cf 3d 9d 20 35 be 85 09 97 3e f1 65 e4 bd
       0.10128911 -0.17688222 0.2949945 -0.11152256
000350 41 51 98 bd 71 9f bb bc c7 52 03 be 10 90 92 bd
       -0.07437373 -0.022903176 -0.12824546 -0.07156384
000360 69 38 bd bc 9a 72 2e 3d e5 aa b9 bb b7 44 4f bd
       -0.023098188 0.04258976 -0.005666124 -0.05060264
000370 3d 96 4c 3e c6 7a ec 3b bb 05 55 3d 28 5d 9d bd
       0.19979186 0.007216784 0.052007418 -0.07683784
000380 1d c1 e4 3b f7 ee 66 3d 39 e8 48 bc fe 03 d6 3c
       0.0069810287 0.05638024 -0.012262397 0.02612495
000390 49 8d 8f 3d d2 20 e2 3c 08 2d b7 bd ee 94 be bc
       0.0700937 0.02760354 -0.08944136 -0.023264375
0003a0 3f 26 b1 bd 01 bf 1b 3d 94 0b 65 bd f8 1a 23 3e
       -0.08649873 0.038023952 -0.055919245 0.15928257
0003b0 72 9a 92 bd 8b 46 47 3e 24 1b 3c bd fe 43 03 be
       -0.07158364 0.19460504 -0.04592432 -0.12818906
0003c0 19 2e bb bd c9 f9 a8 3d 46 9a 7a bd 2e 53 97 3d
       -0.09139652 0.08250768 -0.061182283 0.07388912
0003d0 dd 3e 9f bd 05 b6 99 3e e7 26 54 be 27 d1 bd 3d
       -0.07775662 0.30021682 -0.20717965 0.09268408
0003e0 9c 49 6d bc e8 28 73 bd e3 ee bb bd 4e ec 2c be
       -0.014482882 -0.059365183 -0.091764234 -0.16887018
0003f0 ad 56 dc bc 5d 9e 5f bb 09 ea 2e be 77 8d b5 bd
       -0.026896799 -0.0034121491 -0.17081465 -0.08864873
