clean_data/models/encoder.pth (torch, 660760 bytes, 5 tensors)

weight f4 [510, 128]
0	0xbf05573e	-0.52086246
1	0xbfb8f82d	-1.4450737
2	0xbda08df1	-0.07839573
3	0xbf434380	-0.7627487
4	0xbf2566a0	-0.6460972
5	0x3f3d840d	0.7402962
6	0xbfa776a1	-1.3083078
7	0xbed06295	-0.40700212
8	0xbf99f510	-1.2027912
9	0xbf87e8f9	-1.0617973
10	0xbf1ef973	-0.6209938
11	0xbf0b938e	-0.54522026
12	0xbf97b294	-1.1851373
13	0x3f8c80e7	1.0976838
14	0xbf2347e7	-0.6378159
15	0xbd8bd2a4	-0.06827286
16	0xbf5cc957	-0.8624472
17	0x3f211ec6	0.6293758
18	0xbfd8be40	-1.693306
19	0x3e65837f	0.22413443
20	0xbebff661	-0.3749266
21	0xbf77451c	-0.9658983
22	0x3f6d8b4f	0.92790693
23	0xbf7ac1fa	-0.97952235
24	0x3f04b498	0.51838064
25	0x3dd9d35a	0.10636015
26	0x3c1f4d95	0.009723087
27	0x3ee053c8	0.4381392
28	0xbe2a1f4e	-0.16613504
29	0x3fa8f00b	1.3198255
30	0x3ebfeb6b	0.37484297
31	0xbef0d164	-0.47034752
32	0x3d245597	0.040120687
33	0x3f66a876	0.901008
34	0xbf98aaad	-1.1927086
35	0x3d98811b	0.074465
36	0xbf6157e0	-0.8802471
37	0x3e53be77	0.20678125
38	0xbfa1d135	-1.264197
39	0xbfa15454	-1.260386
40	0xbfec6c14	-1.8470483
41	0x3f251cb6	0.64496934
42	0xbf413ede	-0.7548655
43	0xbf3d1219	-0.7385574
44	0x3ef8ee65	0.4861938
45	0x3c8d4757	0.017245932
46	0x3f8c9749	1.0983669
47	0x3f536dc5	0.8258937
48	0x3c0e49e2	0.008684607
49	0xbf301b5d	-0.68791753
50	0xbd9b6b0e	-0.075887784
51	0x3f0168de	0.5055064
52	0xc00b3512	-2.1751142
53	0xbfb203ce	-1.3907411
54	0x3c2cff70	0.010558948
55	0x3fd6c3d3	1.6778511
56	0x3f0968fc	0.5367582
57	0xbe9257a1	-0.2858248
58	0x3fdb4a5c	1.7132068
59	0x3f6c5679	0.92319447
60	0xbf653d90	-0.8954706
61	0x3e294c5b	0.16533034
62	0x3f095491	0.53644663
63	0xbf16d788	-0.58922625
64	0xbe9b260b	-0.30302462
65	0x3f2afae9	0.6678911
66	0x3e1876ad	0.14889021
67	0x3e70eac8	0.23527062
68	0xbf85d5ac	-1.0455832
69	0xbf4f7636	-0.8103975
70	0xc0039c68	-2.0564213
71	0xbea594f4	-0.32340205
72	0xbe845080	-0.25842667
73	0xbe388cd4	-0.18022472
74	0xbf9062ff	-1.1280211
75	0xbf84fe86	-1.0390174
76	0xbe85d435	-0.26138464
77	0xbfbbf11a	-1.4682953
78	0xbf30d501	-0.6907502
79	0x3f8148c5	1.0100332
80	0xbe7e9ec1	-0.24865247
81	0x3ee04833	0.43805084
82	0x3eb38de7	0.350692
83	0x3f199e7b	0.60007447
84	0x3f80bbd0	1.0057316
85	0x3f9a1203	1.2036747
86	0xbf353eb3	-0.70798796
87	0x3ffdaf3e	1.9819105
88	0xbf9cf8a7	-1.2263383
89	0x3f379d80	0.717247
90	0x3f070bca	0.52752364
91	0xbfd3f224	-1.655827
92	0xbfaeaa7c	-1.3645778
93	0x3e59ec2a	0.21281496
94	0x3e21c52b	0.1579787
95	0x3e25fdf4	0.16210157
96	0xbf802b2f	-1.0013179
97	0xbf7e4ac2	-0.9933282
98	0xbff0f1e4	-1.8823819
99	0x3e6bdae5	0.2303272
100	0x3faa6893	1.3313164
101	0x3f2d9de1	0.6781903
102	0x3ef27008	0.47351098
103	0x3fe79508	1.8092356
104	0xbf569f5e	-0.83836925
105	0xbfa32030	-1.2744198
106	0x3fb6c91a	1.4280121
107	0x3e14c01c	0.14526409
108	0xbfae3250	-1.3609104
109	0xbf71b7d1	-0.94421107
110	0x3f75b249	0.95975167
111	0x3f5d5952	0.86464417
112	0x3f92617f	1.1436003
113	0x3f13c356	0.57719934
114	0x3fc3349c	1.525043
115	0x3f87a71f	1.0597876
116	0x3f498cc3	0.7873041
117	0xc00d9e7e	-2.2127986
118	0xbfde3c6d	-1.736219
119	0xbf0804f1	-0.5313254
120	0xbf925a90	-1.1433887
121	0xc0219b1f	-2.5250928
122	0xbf06c8c5	-0.526501
123	0x3f5772d8	0.8415961
124	0xbf81655d	-1.0109059
125	0x3f8c0ebe	1.0941999
126	0x40069d24	2.103341
127	0xbdaacad9	-0.08339471
128	0xbede6195	-0.43433824
129	0xbfa73a14	-1.3064599
130	0xbf4f7804	-0.81042504
131	0xbf1af9e5	-0.6053756
132	0x3eb29885	0.34881988
133	0x3f9b0a7f	1.2112578
134	0xbf326508	-0.6968541
135	0x3e7d901c	0.24762005
136	0xbfe3be88	-1.779252
137	0x3ee7a77b	0.45244965
138	0x3e51f779	0.2050456
139	0x3f8bb728	1.091527
140	0x3e28a71e	0.1647
141	0xbf12774d	-0.5721329
142	0xbf2fe1bb	-0.6870381
143	0x3db8fef1	0.09033001
144	0xbfbb7eb5	-1.4648043
145	0x405c7931	3.444897
146	0x3fab9c45	1.3407065
147	0xbdd82067	-0.10553055
148	0x3f507aca	0.8143736
149	0xbf241e85	-0.6410907
150	0x3de8bb33	0.113638304
151	0xbd42a1ab	-0.04751746
152	0xbe3f2ee7	-0.18670236
153	0x3f45eaef	0.77311605
154	0x3f246233	0.6421234
155	0xbf915d63	-1.1356624
156	0x3ff15878	1.8855124
157	0xbe8f130b	-0.27944216
158	0x3f19979a	0.5999695
159	0xbea3e039	-0.32007006
160	0xbfc516e3	-1.539761
161	0xbfc370ca	-1.5268795
162	0x3f441822	0.76599324
163	0xbf838bed	-1.0277077
164	0x3f5f3d68	0.87203074
165	0xbf95d4ca	-1.1705563
166	0xbe0fa245	-0.14026745
167	0x3f504de7	0.8136887
168	0xbee62ac3	-0.449545
169	0xc00ca9c8	-2.1978626
170	0xbd2e16fe	-0.042502396
171	0x3f367d63	0.71285075
172	0xbf85e068	-1.0459108
173	0xbe03048a	-0.127947
174	0xbfb30891	-1.3986989
175	0x3fbdbcb0	1.4823208
176	0xbecb5a6e	-0.3971743
177	0xbf89a56c	-1.0753608
178	0x3f57a6dc	0.8423898
179	0x3fc2c178	1.5215292
180	0x402ac2ce	2.66814
181	0xbfd817db	-1.688228
182	0x3f7cbb9e	0.9872378
183	0xbecb960d	-0.39762917
184	0xbe8bac25	-0.27279773
185	0xbf42e236	-0.7612642
186	0xbe3e80f7	-0.18603884
187	0xbf009bac	-0.50237536
188	0x3f8c91de	1.0982015
189	0xc01315c9	-2.2982047
190	0x4013e937	2.3111093
191	0x3fc17cd4	1.511622
192	0x3ce658c8	0.028118506
193	0x3ff685a9	1.925954
194	0x3eeedd53	0.46653232
195	0x3f999024	1.1997113
196	0xbd021aa0	-0.031763673
197	0xbe8405b2	-0.25785595
198	0x3f3350e7	0.7004532
199	0x3fb150ae	1.3852746
200	0xbdf1c5a7	-0.11805277
201	0x3f3345da	0.7002846
202	0xbe8acb9b	-0.27108464
203	0xbee59448	-0.44839692
204	0xbed839dd	-0.42231646
205	0x3f99f9fb	1.2029413
206	0x3f8b8e9b	1.0902895
207	0x3e99af6b	0.30016646
208	0x3f80672f	1.0031489
209	0x3f84ab95	1.0364863
210	0x3cbec0cb	0.02328529
211	0x3e87cf1a	0.26525193
212	0xbe3fd7b2	-0.18734625
213	0xbe29b5b4	-0.1657322
214	0xbff73fd0	-1.9316349
215	0x3f0f4900	0.55970764
216	0xbf0c2a06	-0.5475162
217	0xbf271758	-0.65269995
218	0x3e9ae74e	0.30254596
219	0xbfa5887d	-1.2932278
220	0xbfcd37cc	-1.6032653
221	0xbebfb58f	-0.37443206
222	0xbfab211a	-1.3369477
223	0x3f8888b7	1.0666722
224	0x3f8f24af	1.118307
225	0xbe99d7e6	-0.3004753
226	0xbfc37c82	-1.5272372
227	0x3f89f127	1.0776719
228	0xbefea4eb	-0.49735197
229	0xbf08a9b8	-0.5338397
230	0xbff368f4	-1.9016404
231	0xbf8dd373	-1.1080154
232	0xbf08b09e	-0.53394496
233	0x3eb663d3	0.35623035
234	0xbebff87a	-0.3749426
235	0xbefc7e41	-0.49315074
236	0x3f892b12	1.0716269
237	0xbe7d52c2	-0.24738601
238	0xbf63b887	-0.8895344
239	0xbe7aaab2	-0.24479178
240	0x3e529684	0.2056523
241	0xbde456b8	-0.11149353
242	0x3e11ae01	0.14226533
243	0xbf138ae5	-0.5763381
244	0x3fc37da2	1.5272715
245	0xbdd3c5e8	-0.10340482
246	0xbefe760e	-0.49699444
247	0x3eb17699	0.34660795
248	0x3fc052c6	1.502526
249	0xbf896b70	-1.0735912
250	0x3ccd134d	0.025033617
251	0x3f5a2112	0.8520671
252	0xbe7720a0	-0.24133539
253	0xbf35cf69	-0.7101961
254	0xbec7cb3c	-0.39022243
255	0xbfa8b5f0	-1.3180523

weight_ih_l0 f4 [384, 128]
0	0x3e079ccd	0.13243409
1	0xbe1c4e3e	-0.15264222
2	0x3e5f362e	0.21798012
3	0xbd2134b2	-0.039356895
4	0x3e2e2c27	0.1700903
5	0x3e1dd40c	0.1541292
6	0xbde2d84e	-0.11076413
7	0xbabc8c8a	-0.0014385146
8	0x3da39ae2	0.07988526
9	0x3d3c0a81	0.045908455
10	0x3cc1a29b	0.023637107
11	0x3e2e109e	0.16998526
12	0xbce9418a	-0.028473634
13	0xbded01fd	-0.11572645
14	0xbd81fed2	-0.06347431
15	0xbe24ec4d	-0.16105767
16	0xbd903a75	-0.070424
17	0xbd3937e6	-0.045219325
18	0x3d1d3f22	0.038390286
19	0xbd009903	-0.031395923
20	0x3e172d4e	0.14763376
21	0xbcca5a6e	-0.024701323
22	0x3e1cefe6	0.15325889
23	0xbb8453a7	-0.0040382924
24	0xbe14472d	-0.14480276
25	0xbc13909a	-0.009006644
26	0xbd39657c	-0.0452628
27	0x3caed1ef	0.021340339
28	0x3cf4212b	0.029800972
29	0xbd4055cd	-0.046956826
30	0x3cb2df22	0.021834914
31	0xbe3731b0	-0.17890048
32	0xbcd1674e	-0.025561955
33	0xbd97bd30	-0.074091315
34	0x3d344908	0.04401496
35	0xbde36525	-0.11103276
36	0x3bc39065	0.005968141
37	0xbe10a711	-0.14126231
38	0xbe14e8c2	-0.14541915
39	0xbc083336	-0.008312991
40	0xbcaa8cdd	-0.020819122
41	0x3da41c37	0.08013194
42	0x3cce1fea	0.025161702
43	0xbc7c5d13	-0.01540305
44	0xbdf7775b	-0.12083312
45	0xbd4af7c6	-0.0495527
46	0x3d0993f3	0.03358836
47	0x3dc2c41f	0.095100634
48	0xbe0c0d94	-0.13677055
49	0xbdabf9f1	-0.08397282
50	0xbc98300c	-0.018577598
51	0x3cd8f962	0.026486102
52	0xbda74b7a	-0.08168693
53	0xbd70556c	-0.058675215
54	0xbdf03617	-0.11729067
55	0xbc205d69	-0.009787896
56	0x3e13ccb8	0.14433563
57	0xbdb173e6	-0.08664684
58	0xbd8df826	-0.06932096
59	0x3d0d04ba	0.034428336
60	0xbe181fb9	-0.14855851
61	0xbe224a64	-0.1584869
62	0x3e41c9ff	0.18924712
63	0x3db0d2af	0.08633935
64	0x3cd3d245	0.0258571
65	0x3dcd745e	0.10031961
66	0x3e6ab03e	0.22918794
67	0x3de4194a	0.11137636
68	0x3e4466a7	0.19179784
69	0x3c3fa8f7	0.011697999
70	0xbb9c1e9d	-0.0047643916
71	0x3e75809b	0.2397484
72	0xbded77af	-0.115950935
73	0x3d4c8bec	0.049938127
74	0xbd804132	-0.06262435
75	0xbd91ca28	-0.07118636
76	0xbcb6e378	-0.022325262
77	0xbe3680f7	-0.17822634
78	0xbd2b8b65	-0.041880984
79	0x3e02a914	0.1275981
80	0x3e273446	0.16328534
81	0x3dcc80b7	0.09985488
82	0xbdaaa81a	-0.08332844
83	0x3e304c5b	0.17216627
84	0x3d6b361c	0.05742465
85	0x3ac7a9ee	0.0015233138
86	0xbd987ccb	-0.07445677
87	0x3d7bd558	0.061482757
88	0x3d2f99ff	0.04287147
89	0xbd3e52e2	-0.046465762
90	0x3d1f876c	0.038947508
91	0xbdf6900e	-0.12039195
92	0xbe0c2a53	-0.1368802
93	0x3e298dc3	0.16557984
94	0xbd8e49f9	-0.06947703
95	0x3d55c2d6	0.052187763
96	0x3d9c5fb2	0.0763544
97	0xbe2951eb	-0.16535155
98	0x3c13a922	0.009012492
99	0xbe1e857b	-0.15480606
100	0x3e00c2f4	0.12574369
101	0xbd041f9c	-0.032256708
102	0xbb311484	-0.0027020285
103	0xbd0932bb	-0.033495646
104	0xbdfc8e0e	-0.12331782
105	0x3e105976	0.14096627
106	0x3dc14081	0.09436131
107	0xbe0e2d4e	-0.1388447
108	0x3d8e4de9	0.06948454
109	0xbda952bd	-0.08267734
110	0xbd39e4da	-0.045384265
111	0x3d2f1664	0.042745963
112	0x3c4854d4	0.012227256
113	0x3e02ffba	0.12792864
114	0x3cbe3a8b	0.023221275
115	0x3cfaae72	0.03060076
116	0xbb311796	-0.0027022115
117	0xbdc5c1b4	-0.096560866
118	0x3d597177	0.053086724
119	0xbd7b45b7	-0.061345782
120	0xbd96f421	-0.07370783
121	0xbd5dc3e4	-0.054141894
122	0xbd29fb22	-0.041499265
123	0xbc5d50e0	-0.013508052
124	0x3db3451c	0.08753416
125	0x3d9cef13	0.07662787
126	0x3d3641e3	0.04449643
127	0xbe0ff326	-0.14057598
128	0xbd75d803	-0.060020458
129	0x3d9ccb52	0.07655968
130	0xbb775b63	-0.003774368
131	0x3a298098	0.00064660003
132	0x3d6929b1	0.056924526
133	0x3d81c093	0.06335559
134	0xba97b76a	-0.0011575047
135	0x3db81bdb	0.08989688
136	0x3cf83efa	0.030303467
137	0x3dc75680	0.097332954
138	0x3d3f0e15	0.04664429
139	0xbb00cec6	-0.0019654497
140	0x3d8c67f7	0.06855767
141	0xbdc8895b	-0.097918235
142	0xbd01278c	-0.031531855
143	0xbd2fef81	-0.042953018
144	0x3b9ec97f	0.0048457975
145	0x3ce0ffb1	0.027465673
146	0xbda88d43	-0.082300685
147	0x3d0f84bc	0.035038695
148	0xbd78d180	-0.06074667
149	0xbd69087b	-0.056892853
150	0x3d6aba59	0.05730662
151	0x3d45c30b	0.04828171
152	0x3a0e6807	0.00054323714
153	0x3dee437a	0.11633964
154	0xbd3616f7	-0.044455495
155	0x3d519472	0.05116696
156	0xbe14f27a	-0.14545622
157	0xbc9a26ca	-0.018817324
158	0x3d0d2aae	0.03446453
159	0xbe06a65b	-0.13149397
160	0xbdb1cf95	-0.08682171
161	0x3d9e8cc9	0.077416964
162	0xbd07895e	-0.033089988
163	0x3c99124b	0.01868548
164	0x3d2f5d55	0.042813618
165	0x3d965cf4	0.07341948
166	0xbe0c11c3	-0.1367865
167	0xbd190d73	-0.03736634
168	0xbcd0bdaa	-0.025481064
169	0xbcaa4aee	-0.020787682
170	0x3d61e878	0.05515334
171	0xbdd11467	-0.102089696
172	0xbd1fa88e	-0.038979106
173	0xbd1fd800	-0.039024353
174	0x3c0d055d	0.008607236
175	0xbd199ff8	-0.037506074
176	0x3d44095b	0.047860485
177	0x3d2f7b95	0.042842466
178	0x3c9d05b1	0.019167753
179	0x3d22f53b	0.03978465
180	0x3d0a25b2	0.033727355
181	0x3cf1a5af	0.02949795
182	0xbc8ea5b1	-0.017412992
183	0xbdb00daa	-0.08596356
184	0x3d4d1166	0.05006542
185	0xbd82ea39	-0.06392331
186	0xbce62978	-0.028095946
187	0xbc28f1d5	-0.0103115635
188	0xbe147c85	-0.14500625
189	0x3d4d0239	0.050050948
190	0xbcfb7096	-0.030693334
191	0xbd8d4b12	-0.06899084
192	0x3db48824	0.08815029
193	0x3d748df5	0.059705693
194	0x3d0a5f76	0.033782445
195	0x3db625fd	0.088939644
196	0x3dc786aa	0.09742482
197	0xbd6953f4	-0.05696483
198	0x3d5bf05e	0.05369603
199	0xbc8a8063	-0.016906923
200	0xbe2ceb2e	-0.16886589
201	0x3dba561a	0.09098454
202	0xbd80cd7b	-0.06289192
203	0xbd89784e	-0.067123994
204	0xbcf07fa4	-0.029357739
205	0xbdf45c4b	-0.11931666
206	0xbd6f5643	-0.058431875
207	0x3e22827f	0.15870093
208	0x3dd96a50	0.106159806
209	0xbd638625	-0.055547852
210	0xbd3571c2	-0.04429794
211	0x3ddf2bf8	0.10897058
212	0x3d1fa37c	0.03897427
213	0xbaa44955	-0.0012534062
214	0x3d09a964	0.03360881
215	0x3db79c86	0.08965401
216	0xbd84d6b3	-0.06486263
217	0xbc4bece5	-0.012446617
218	0x3bec723f	0.0072157676
219	0xbd4d5e74	-0.050138906
220	0x3bf39df8	0.007434603
221	0x3d58ed23	0.052960526
222	0xbd3c1e1a	-0.045927145
223	0xbcb77e5d	-0.022399122
224	0x3d654a52	0.05597908
225	0x3a8802ab	0.0010376772
226	0xbb0166c8	-0.00197451
227	0xbd9c3907	-0.076280646
228	0xbd701ae0	-0.05861938
229	0xbdcc91d1	-0.0998875
230	0x3d5ad04c	0.053421304
231	0x3abf4adb	0.0014594452
232	0xbdbf4b62	-0.0934055
233	0x3d60b92d	0.054864097
234	0xbccfd6eb	-0.025371036
235	0xbd012d1f	-0.03153717
236	0xbd370efa	-0.044692017
237	0x3bfa31dc	0.007635338
238	0x3bf1a465	0.0073743337
239	0x3d7424b0	0.0596053
240	0xbba37698	-0.0049885027
241	0x3d4e8765	0.05042209
242	0xbcd335d1	-0.025782498
243	0xbd5b86c7	-0.05359533
244	0xbd4c35c1	-0.04985595
245	0xbbf11e1c	-0.0073583256
246	0x3da56dad	0.080775596
247	0x3e00799a	0.12546387
248	0x3c9a6491	0.018846782
249	0xbddb4efa	-0.10708423
250	0x3d8c55de	0.06852315
251	0x3de64ed5	0.11245505
252	0x3ca7d96e	0.02048942
253	0xbcbe9446	-0.023264062
254	0xbd095a56	-0.033533417
255	0xbb4dfce7	-0.003143126

weight_hh_l0 f4 [384, 128]
0	0xbdee2476	-0.11628048
1	0x3d80b160	0.062838316
2	0x3d89f359	0.06735868
3	0xbb60e39c	-0.0034315353
4	0xba927cc8	-0.0011176104
5	0xbdc50797	-0.09620588
6	0xbe0fea76	-0.14054283
7	0x3d7fdb10	0.062464774
8	0x3d4faeb4	0.05070372
9	0xbd1d7fda	-0.038452007
10	0x3da990ec	0.08279595
11	0x3ca406c9	0.020022767
12	0xbd450e31	-0.048109237
13	0xbd9f36c2	-0.07774116
14	0xbd87033d	-0.065924145
15	0xbdc5b15d	-0.0965297
16	0xb8f67f2d	-0.000117538824
17	0xbd5b3d2a	-0.053525127
18	0xbe505090	-0.20343232
19	0x3dc60405	0.096687354
20	0x3ca88b72	0.020574305
21	0x3d294d28	0.041333348
22	0x3e495666	0.19661865
23	0x3d681a97	0.056665983
24	0xbd669471	-0.05629391
25	0x3e333c66	0.17503509
26	0xbcfd4cc8	-0.030920401
27	0x3d134d68	0.035962492
28	0x3d13ba38	0.036066264
29	0x3e1485b1	0.14504124
30	0xbdf46c33	-0.119347
31	0xbb837442	-0.0040116617
32	0x3dbdac7b	0.09261414
33	0x3d9d6de6	0.07686977
34	0xbcfecc63	-0.031103319
35	0xbd8f4ed6	-0.06997459
36	0xbd9ef838	-0.07762188
37	0x3d8a3508	0.06748396
38	0xbd4696e2	-0.048483737
39	0xbd461d33	-0.04836769
40	0xbd3f8388	-0.046756297
41	0x3d1c0644	0.038091913
42	0x3d1f4951	0.03888828
43	0x3cd60817	0.026126904
44	0x3e041c64	0.12901455
45	0xbd922720	-0.07136369
46	0x3dae7050	0.08517516
47	0xbc76639e	-0.015038399
48	0xbd5b59ce	-0.05355244
49	0xbddab920	-0.10679841
50	0xbd89d7f9	-0.06730647
51	0xbcc19887	-0.023632301
52	0x3dee5f33	0.116392516
53	0xbe1695a3	-0.1470552
54	0xbd290dd0	-0.04127294
55	0xbbcd8d5d	-0.0062729553
56	0x3bb01247	0.0053732726
57	0x3da87477	0.08225339
58	0xbd87e5e4	-0.06635645
59	0x3dbe60cd	0.09295807
60	0x3d395e35	0.04525586
61	0xbd32ecff	-0.04368305
62	0xbd059716	-0.03261479
63	0x3de9cf72	0.1141652
64	0x3d440b68	0.04786244
65	0xbdfa25c4	-0.122142345
66	0xbe77ef22	-0.24212316
67	0xbdb1712f	-0.08664166
68	0x3d9709a4	0.07374886
69	0x3de140b8	0.10998672
70	0xbde1eb35	-0.1103119
71	0xbcfe0d44	-0.031012185
72	0x3c42fac4	0.0119006075
73	0x3dccc23a	0.09997983
74	0xbd0fc4e3	-0.035099875
75	0x3da13b22	0.07872607
76	0x3d2f8ded	0.04285996
77	0xbdfc81cd	-0.12329445
78	0x3cf28de6	0.029608678
79	0x3e0895a3	0.13338332
80	0xbcfd6eb2	-0.030936573
81	0xbc76275e	-0.015024034
82	0x3e18154e	0.14851877
83	0x3d601443	0.054706823
84	0x3e09afbe	0.13445947
85	0x3d9368e0	0.07197738
86	0x3e373767	0.17892228
87	0xbb6d0693	-0.0036167249
88	0x3ba22045	0.0049476945
89	0xbd1d9aab	-0.03847758
90	0xbe100afd	-0.14066692
91	0x3d888e2e	0.066677436
92	0x3c38815d	0.011261311
93	0x3e171aac	0.14756268
94	0xbcea4a9b	-0.028600028
95	0xbe0fb102	-0.14032367
96	0xbdd776c7	-0.10520702
97	0x3da4885d	0.08033822
98	0xbc49ddf1	-0.012320981
99	0x3d32f7a4	0.0436932
100	0xbe062b2d	-0.13102408
101	0x3d6d6132	0.05795402
102	0x3e3d3cf8	0.18480289
103	0xbc70be48	-0.014693804
104	0xbdaf8045	-0.08569387
105	0xbcfbcd9f	-0.030737696
106	0x3d2d696d	0.04233687
107	0xbcedc088	-0.02902247
108	0xbe184c03	-0.14872746
109	0xbcd8fa34	-0.026486494
110	0x3b27759f	0.0025552285
111	0x3e0eb626	0.13936672
112	0xbde7ed54	-0.113245636
113	0x3d5a1599	0.053243253
114	0x3cfad460	0.030618846
115	0x3dd9c2fa	0.10632892
116	0x3d15f4d1	0.03661043
117	0xbe0be504	-0.13661581
118	0x3d5ac138	0.053406924
119	0x3c624503	0.013810399
120	0xbc2864a8	-0.010277905
121	0xbdbce184	-0.09222701
122	0x3cb28af0	0.021794766
123	0xbe53415e	-0.20630404
124	0x3dd46d06	0.10372357
125	0xbdd8404b	-0.10559138
126	0x3dbffe6e	0.093747005
127	0x3ca25c94	0.019819535
128	0x3c295e36	0.010337403
129	0x3d70d91a	0.058800794
130	0xbdeb10ae	-0.11477791
131	0x3baf031e	0.005340948
132	0xbde61f48	-0.11236435
133	0xbd3b9336	-0.04579469
134	0x3de74452	0.11292328
135	0xbb760e1a	-0.0037545026
136	0xbdb21c6a	-0.08696826
137	0xbde983d0	-0.11402094
138	0x3c18e36f	0.009331568
139	0xbdc395da	-0.09550066
140	0xbd9aba7d	-0.07555101
141	0xbc502b7c	-0.01270568
142	0xbd19d1ef	-0.037553724
143	0xbd6e00b8	-0.058106154
144	0x3e00f9ba	0.12595263
145	0x3d4323c8	0.047641546
146	0xbd996b64	-0.07491186
147	0xbcc0fe3c	-0.023558728
148	0xbd7416dd	-0.059592117
149	0xbdfea0d4	-0.12433019
150	0x3db69f47	0.089170985
151	0x3da211ca	0.07913549
152	0x3db39cfe	0.08770178
153	0x3e08de84	0.13366133
154	0xbc18aa0d	-0.009317887
155	0xbcec7be5	-0.028867671
156	0x3de41fcf	0.111388795
157	0x3cae1aa5	0.02125294
158	0xbdce2560	-0.100657225
159	0x3d8b2f9d	0.06796191
160	0xbda05ac8	-0.07829815
161	0x3df0cd62	0.11757924
162	0x3d28c385	0.041202087
163	0xbb4736ab	-0.0030397575
164	0xbca63807	-0.020290388
165	0xbce2f252	-0.027703438
166	0xbb8b2e49	-0.004247461
167	0x3d3274f5	0.04356857
168	0x3df564c4	0.1198211
169	0x3d965462	0.073403135
170	0xbca8ee54	-0.020621456
171	0xbcc8a557	-0.024492903
172	0xbcf36d41	-0.029715182
173	0x3dec68cc	0.11543426
174	0xbe068e6c	-0.13140267
175	0xbd91587a	-0.07096954
176	0xbc2256ea	-0.009908417
177	0x3e11f923	0.14255194
178	0x3cab21af	0.020890085
179	0x3d93704b	0.071991526
180	0xbd794e02	-0.06086541
181	0x3dfb5597	0.12272184
182	0xbdf576fe	-0.119855866
183	0x3e16beaa	0.1472117
184	0x3dacafef	0.08431994
185	0xbdcfc615	-0.10145203
186	0xbccc333d	-0.024926776
187	0xbd7c4ea3	-0.06159843
188	0x3ddf5ce9	0.10906393
189	0x3cc7c9db	0.024388244
190	0xbd56de7b	-0.052458268
191	0xbc619a95	-0.013769765
192	0xbdbd86c6	-0.092542216
193	0xbd069b01	-0.032862667
194	0xbd31b803	-0.043388378
195	0xbd8120e5	-0.06305102
196	0xbbbdfd8a	-0.0057980465
197	0xbe41213f	-0.18860339
198	0xbd6ce13e	-0.057831995
199	0xbcc62f11	-0.024192365
200	0xbd39db06	-0.045374893
201	0xbdb2666d	-0.087109424
202	0x3d58a065	0.05288734
203	0x3de4d29a	0.111729816
204	0xbd7b1587	-0.061299827
205	0xbd8b5e45	-0.0680509
206	0xbdf80fd7	-0.12112396
207	0x3d52aad2	0.05143244
208	0x3c2a7f5f	0.010406344
209	0xbe14b1a4	-0.1452089
210	0x3c2bd2c5	0.010487263
211	0xbe01162d	-0.12606116
212	0xbe1e7fe6	-0.15478477
213	0xbdbe96fa	-0.0930614
214	0xbd2e2bca	-0.04252223
215	0xbbbed19f	-0.0058233286
216	0xbda9e8cc	-0.082963556
217	0xbd830b7f	-0.06398677
218	0x3c821072	0.015876982
219	0xbd81cee6	-0.06338291
220	0xbd108faa	-0.03529326
221	0x3d9396c9	0.07206494
222	0x3d9b77b7	0.07591193
223	0x3e2c4098	0.16821516
224	0xbe1edfe2	-0.15515092
225	0xbc676b83	-0.014124754
226	0x3d262cae	0.040569954
227	0x3d300f0f	0.04298311
228	0xbcd3a228	-0.025834158
229	0x3d1228fa	0.03568361
230	0xbde6cbb4	-0.11269322
231	0xbcd0bb5b	-0.025479963
232	0xbdcb02fb	-0.09912678
233	0xbd630c03	-0.055431377
234	0x3da0764c	0.07835063
235	0x3de74eeb	0.11294349
236	0x3bfa31a6	0.007635313
237	0x3d7c3931	0.06157798
238	0xbdaccd26	-0.084375665
239	0x3d27fd6d	0.04101317
240	0x3d14c50f	0.036320742
241	0xbdd6927e	-0.1047716
242	0x3e1b82bf	0.15186594
243	0x3e21a347	0.15784942
244	0xbd3a9ad9	-0.04555783
245	0xbcc34493	-0.02383641
246	0x3d459e7f	0.048246857
247	0x3dff4ef7	0.12466233
248	0xbe2f9743	-0.17147546
249	0x3d2762c2	0.040865667
250	0x3e062553	0.13100176
251	0xbd799f3e	-0.06094288
252	0x3c9e13ba	0.019296516
253	0x3d5d4d3d	0.05402874
254	0xbd9f83e3	-0.07788827
255	0x3d8f037f	0.06983089

bias_ih_l0 f4 [384]
0	0x3d44af4d	0.048018742
1	0x3c8aa726	0.016925406
2	0xbda58555	-0.08082072
3	0x3e05c701	0.13064195
4	0x3e14b06a	0.14520422
5	0x3eb36dcf	0.35044715
6	0x3dfa6424	0.122261316
7	0xbcb4ff8d	-0.022094512
8	0x3dedf65f	0.11619257
9	0xbdbbd801	-0.09172059
10	0x3d6b6501	0.05746937
11	0x3da1e9aa	0.07905896
12	0x3e16884c	0.1470043
13	0x3c90e2ee	0.017686334
14	0x3dd4b956	0.103869125
15	0x3c85a0c7	0.016312016
16	0x3e6dfe02	0.23241428
17	0x3e02413c	0.12720197
18	0x3d6de715	0.058081705
19	0x3b454930	0.0030103438
20	0x3e17054b	0.14748113
21	0x3d8f3a4a	0.0699354
22	0x3e2bd9d3	0.16782312
23	0x3daa95d4	0.08329359
24	0x3ea6ed43	0.3260289
25	0x3d34b50c	0.044117972
26	0xbcfe4507	-0.031038774
27	0x3dc1a63f	0.09455537
28	0x3e0467aa	0.1293017
29	0x3e19663e	0.14980409
30	0x3dd0f081	0.102021225
31	0x3d731ee8	0.059355646
32	0xbc41b141	-0.011822046
33	0x3e605e02	0.21910861
34	0x3bcd8a6f	0.006272606
35	0xbd3dfbb3	-0.046382617
36	0x3c051ed2	0.008125024
37	0x3b16fcd5	0.0023038883
38	0x3ca84bb5	0.020543912
39	0x3a1e2a00	0.000603348
40	0x3e0451f6	0.1292189
41	0x3d26d7a2	0.040732987
42	0x3c0411fe	0.00806093
43	0x3d74accf	0.059735116
44	0x3e2b3f80	0.16723442
45	0x3df82a51	0.12117446
46	0x3e153d24	0.14574105
47	0x3d24b483	0.040211212
48	0xbda506f5	-0.080579676
49	0x3e045613	0.1292346
50	0x3de46dcd	0.11153755
51	0x3d9de37d	0.077094056
52	0xbc33c1ea	-0.010971526
53	0x3e48f907	0.19626246
54	0x3c37f18f	0.011227026
55	0xbcd91955	-0.026501337
56	0xbd86919a	-0.0657074
57	0xba28fc74	-0.000644631
58	0x3d4fc386	0.050723575
59	0xbd0af8bc	-0.033928618
60	0xbdfb825b	-0.12280723
61	0xbd97642d	-0.07392154
62	0x3d3d6d98	0.046247095
63	0x3cb734e9	0.022364097
64	0x3ead946d	0.33902302
65	0x3e8e5cfa	0.2780531
66	0xbd3e6104	-0.04647924
67	0xbcf42f0d	-0.029807592
68	0x3cbaeec0	0.022818923
69	0xbc81bc04	-0.015836723
70	0x3d46e4b5	0.048557956
71	0x3db5c044	0.088745624
72	0x3e7fcdbb	0.24980824
73	0x3d3b2650	0.045690835
74	0x3cceaddf	0.025229393
75	0x3dfe5226	0.12418012
76	0xbd34bf89	-0.044127975
77	0x3c511c6a	0.012763122
78	0xbcb2acd0	-0.021810919
79	0x3e6dc1de	0.23218486
80	0x3e79cbf7	0.24394213
81	0xbd7f3643	-0.062307607
82	0x3d676f44	0.056502596
83	0x3d041665	0.03224792
84	0x3e446be6	0.19181785
85	0x3bb0f987	0.0054008397
86	0x3de4dd93	0.111750744
87	0x3e481bb1	0.19541813
88	0x3e296679	0.16542996
89	0x3e22b861	0.15890647
90	0xbbfe8454	-0.0077672396
91	0xbcb60aec	-0.022222005
92	0xbcee6734	-0.029101945
93	0x3c816d76	0.015799265
94	0xbdd91409	-0.105995245
95	0x3d7ae163	0.0612501
96	0x3e75116c	0.23932427
97	0xbb7d39f3	-0.0038639277
98	0xbc9a8150	-0.01886049
99	0xbc26bf3e	-0.010177432
100	0xbdf057bd	-0.11735485
101	0xbdb5a733	-0.08869781
102	0xbd648130	-0.055787265
103	0x3d38b0e1	0.04509056
104	0x3d016d0c	0.031598136
105	0xbd941f9c	-0.072325915
106	0x3e824ceb	0.2544931
107	0xbd750633	-0.059820365
108	0x3d4ce8f9	0.050026868
109	0xbd096f47	-0.033553388
110	0x3e438034	0.19091874
111	0xbe32c68c	-0.17458552
112	0x3e4f3ea8	0.20238745
113	0xbd015d62	-0.031583197
114	0x3d2ac74b	0.041693967
115	0x3dd52006	0.104064986
116	0x3e3ee64e	0.18642542
117	0x3d20deb3	0.039274883
118	0x3e1d17af	0.15341066
119	0xbb349330	-0.002755355
120	0x3f01bf82	0.5068284
121	0x3e27b62f	0.16378091
122	0xbbfe7d26	-0.0077663837
123	0xbc19a959	-0.0093787545
124	0x3d86f73b	0.06590124
125	0xbd7ff4ab	-0.062489193
126	0xbd946b97	-0.07247084
127	0x3d473a81	0.048639778
128	0xbd24d47b	-0.0402417
129	0x3e7c6df1	0.24651314
130	0x3d64e931	0.05588645
131	0xbdcc01a5	-0.09961251
132	0xbc0841d1	-0.008316473
133	0xbe451992	-0.19248036
134	0xbd89f0f1	-0.06735409
135	0x3c52ccde	0.012866227
136	0x3e0feeb3	0.140559
137	0xbbd52e06	-0.0065057306
138	0xbc09b7ea	-0.008405665
139	0x3cdd36a8	0.027003601
140	0x3e0da8a2	0.1383386
141	0x3e4bb1cc	0.19892043
142	0x3dad1e93	0.08453097
143	0x3e16524b	0.1467983
144	0xbd115ed3	-0.035490822
145	0xbc0526f2	-0.008126961
146	0x3d825f6a	0.06365855
147	0x3da47ebe	0.08031987
148	0x3ce96c57	0.028494043
149	0x3c5e4bb1	0.013567851
150	0xbdf7e809	-0.12104804
151	0xbc82ccf9	-0.01596688
152	0xbcd5954d	-0.026072169
153	0xbd915c2d	-0.07097659
154	0x3cb8295b	0.022480657
155	0xbdf48d10	-0.11940968
156	0x3c629de6	0.013831591
157	0xbe058086	-0.13037309
158	0x3d544b82	0.051829822
159	0x3d958972	0.07301606
160	0x3cbd05f2	0.023074124
161	0x3d6cc74f	0.057807263
162	0x3d9e69fc	0.07735059
163	0xbd94a608	-0.072582304
164	0xbd934374	-0.071906
165	0xbdb7a7c8	-0.089675486
166	0xbbf225a5	-0.0073897415
167	0xbd90a928	-0.07063514
168	0xbb108c75	-0.0022056375
169	0x3e128203	0.14307408
170	0xbe1cc1fa	-0.15308371
171	0xbe4be070	-0.19909835
172	0xbde1b478	-0.1102075
173	0xbc2992e1	-0.01034996
174	0xbcc46b8c	-0.023977064
175	0x3dea337d	0.11435602
176	0xbcd8b92b	-0.026455482
177	0x3bf63395	0.0075134733
178	0xbdd46e71	-0.103726275
179	0xbd55ecd7	-0.05222782
180	0xbd5c85eb	-0.05383865
181	0xbe5eea4c	-0.21769065
182	0x3e01800d	0.12646504
183	0xbd434a99	-0.047678564
184	0x3d7935f2	0.060842462
185	0x3dfbac20	0.122886896
186	0xbe1d0b70	-0.15336394
187	0x3c9f3cc9	0.019438164
188	0xbdb6299e	-0.088946566
189	0xbc41e754	-0.011834938
190	0xbdbf9a50	-0.09355605
191	0xbd3c0d89	-0.045911346
192	0x3d09d228	0.033647686
193	0xbc5c909a	-0.01346221
194	0x3e02b4aa	0.1276423
195	0xbbd31d0c	-0.0064426716
196	0xbd524a8c	-0.051340625
197	0xbd45ad13	-0.04826076
198	0x3b6edba2	0.003644683
199	0xbc746060	-0.014915556
200	0xbd626fb0	-0.055282295
201	0xbd3352b2	-0.043780036
202	0x3b5b467a	0.0033458755
203	0xbd7d00e4	-0.061768427
204	0x3e2f4dbd	0.17119499
205	0x3e07d21b	0.13263743
206	0x3d51db55	0.051234562
207	0x3d0cbf6e	0.03436225
208	0x3e0cc5f4	0.13747388
209	0xbd13cdde	-0.036085002
210	0xbd125d21	-0.035733346
211	0xbe16b9d9	-0.14719333
212	0xbd6394ff	-0.055562016
213	0x3cd1ecdc	0.025625639
214	0x3e0145ed	0.12624331
215	0xbb416abc	-0.0029513082
216	0xbd996365	-0.07489661
217	0xbd17ee79	-0.03709266
218	0xbdb3ef7f	-0.08785915
219	0x3d83270f	0.06403934
220	0xbd76a8fe	-0.060219757
221	0x3c78c7ca	0.015184352
222	0x3ce5f0ad	0.028068865
223	0x3d0f679d	0.035010923
224	0xbde68cca	-0.11257322
225	0xbd98432b	-0.07434686
226	0x3dab3641	0.083599575
227	0x3de7871f	0.11305069
228	0x3c14ce90	0.009082451
229	0x3d6da1da	0.05801568
230	0x3d888467	0.06665879
231	0xbccfc6cc	-0.025363348
232	0x3e0b3175	0.13593085
233	0x3d0fd35c	0.035113677
234	0x3d346923	0.04404558
235	0x3d8d932a	0.06912835
236	0xbba56475	-0.005047376
237	0xbc757191	-0.01498069
238	0x3d83f7f0	0.06443775
239	0xbd42a99f	-0.047525045
240	0x3d427ce2	0.04748238
241	0x3d7832e9	0.060595427
242	0x3def7963	0.116930746
243	0xbd24fc46	-0.04027965
244	0x3e0b05ac	0.13576382
245	0xbc98da01	-0.01865864
246	0xbd6834b6	-0.056690894
247	0x3bb98ddc	0.005662663
248	0x3aa9b5ce	0.0012947859
249	0xbdfbc85c	-0.12294075
250	0x3d7dc739	0.06195757
251	0xbd54ccac	-0.051953003
252	0xbdc87d54	-0.097895294
253	0xbca435b3	-0.020045137
254	0xbd4c88e3	-0.049935233
255	0x3c5764f8	0.013146631

bias_hh_l0 f4 [384]
0	0x3de536b4	0.111920744
1	0xbb5a6d2d	-0.0033329234
2	0xbdba6313	-0.09100928
3	0x3da4f3cb	0.08054312
4	0x3da2d62e	0.07951008
5	0x3e6f3ad4	0.23362285
6	0xbce37ad3	-0.027768528
7	0xbcaf52f2	-0.021401856
8	0x3db023ab	0.08600553
9	0xbdaba089	-0.08380229
10	0x3e22cfbc	0.15899557
11	0x3d0ebd09	0.034848247
12	0x3e0ab43c	0.13545316
13	0xba487b81	-0.0007647798
14	0x3e3aab71	0.18229462
15	0xbcf0cc7e	-0.029394384
16	0x3ead96df	0.33904168
17	0x3c804c9f	0.015661536
18	0x3dce41e7	0.100711636
19	0xbdd8d73e	-0.10587929
20	0x3e4f45c0	0.20241451
21	0x3e0c31b9	0.13690843
22	0x3e33d5c5	0.17562015
23	0x3e35ed12	0.17766216
24	0x3ebef661	0.37297347
25	0x3dda53b9	0.106605
26	0xbd9e6913	-0.07734885
27	0x3dba47ad	0.09095702
28	0x3d204093	0.039124083
29	0x3e01f40b	0.12690751
30	0x3e015443	0.126298
31	0x3d91d86b	0.071213566
32	0xbd8bf7c1	-0.06834365
33	0x3e800939	0.25007036
34	0x3b8178ea	0.0039511817
35	0x3d81d5c6	0.06339602
36	0xbd9a113a	-0.07522817
37	0x3cf09bf3	0.029371237
38	0x3e2c5f6e	0.16833279
39	0xbbc9ad7d	-0.0061547146
40	0x3e361d34	0.17784578
41	0xbded3906	-0.11583142
42	0x3da60c6b	0.08107837
43	0x3e0a73f5	0.13520797
44	0x3e39a00a	0.18127456
45	0x3d923e77	0.071408205
46	0x3dc2d7af	0.09513795
47	0xbd4867e7	-0.048927214
48	0x3d9897bf	0.07450818
49	0x3e46ca51	0.19413115
50	0x3e1c8676	0.15285668
51	0x3d81f561	0.063456304
52	0xbd021a41	-0.03176332
53	0x3e2d2332	0.16907957
54	0xbdaf836d	-0.08569989
55	0xbc64b962	-0.013960214
56	0xbdcefa36	-0.10106318
57	0xbddeaf21	-0.10873247
58	0x3e198705	0.14992912
59	0xbcc38ba3	-0.023870295
60	0xbe1ae511	-0.15126444
61	0x3cc20348	0.023683205
62	0x3e193e10	0.14965081
63	0xbaed63ba	-0.0018111386
64	0x3e8adc79	0.27121332
65	0x3e697490	0.22798371
66	0xbcceef57	-0.02526061
67	0xbce73e6f	-0.028228013
68	0x3e1c189b	0.15243761
69	0x3db7fd04	0.08983806
70	0x3dfda6ea	0.12385352
71	0x3dbe8090	0.09301865
72	0x3e59a7ba	0.21255389
73	0x3d7f5365	0.06233539
74	0x3b13b97b	0.0022540975
75	0x3cefe02a	0.029281694
76	0x3d39efb9	0.045394633
77	0x3db4ef2d	0.08834682
78	0x3da489a8	0.08034068
79	0x3e5b0972	0.21390322
80	0x3e171011	0.14752223
81	0x3ce0655f	0.027392088
82	0x3d945825	0.07243375
83	0x3e01b6af	0.12667345
84	0x3e4d92f8	0.20075595
85	0x3d0e6666	0.034765624
86	0x3e633543	0.22188286
87	0x3e15cac2	0.14628127
88	0x3df1253f	0.11774682
89	0x3dd3cc5b	0.10341712
90	0x3d9c86eb	0.07642921
91	0x3d9eefb4	0.077605635
92	0xbd338e4a	-0.04383687
93	0x3d7b9326	0.06141963
94	0xbde96e55	-0.11397997
95	0x3d19f7a1	0.037589673
96	0x3e92e374	0.28689158
97	0xbdb58723	-0.08863666
98	0x3cfed291	0.031106265
99	0x3cdf7077	0.027275307
100	0xbd5d8c28	-0.05408874
101	0x3d5d0aee	0.0539655
102	0x3d674b76	0.05646845
103	0x3e039cbc	0.12852758
104	0x3d0ca4e9	0.034336958
105	0x3b73d795	0.0037207354
106	0x3e662ecc	0.22478789
107	0x3d4c78ef	0.04992002
108	0x3dc406c2	0.095716015
109	0xbd26cf02	-0.04072476
110	0x3df495c6	0.119426295
111	0xbdaadba3	-0.08342674
112	0x3e93635d	0.28786746
113	0xbd571c81	-0.052517418
114	0xbc56e492	-0.013116019
115	0x3da5af6b	0.08090099
116	0x3dc5e4c8	0.09662777
117	0xbcc0e735	-0.023547748
118	0x3dfee479	0.124459215
119	0xbc46c878	-0.012132756
120	0x3ed63f46	0.4184515
121	0x3e1bb362	0.15205148
122	0x3d804b50	0.06264365
123	0x3c6f1820	0.014593154
124	0x3d61dbe2	0.055141337
125	0xbd75bf4a	-0.05999688
126	0x3ca56dda	0.020193983
127	0x3d99ed74	0.07515994
128	0x3d80bfd9	0.06286592
129	0x3e2f9794	0.17147666
130	0x3d7735d4	0.06035407
131	0xbd38c096	-0.04510554
132	0xbc294f76	-0.010333886
133	0xbde348e8	-0.1109789
134	0x3c3e911b	0.0116312755
135	0xbd6ddcc8	-0.05807188
136	0x3dcf7277	0.10129254
137	0xbd8513ae	-0.06497894
138	0x3d2aae4b	0.041670125
139	0x3d5af4da	0.053456165
140	0xbca944da	-0.020662714
141	0x3ce6301b	0.02809911
142	0xbd6ed415	-0.058307726
143	0x3e13daf5	0.14438994
144	0x3cd6ea49	0.026234763
145	0x3c0d02fb	0.008606668
146	0x3d1ad03e	0.03779625
147	0x3dfa1f6c	0.122130245
148	0xbda3316e	-0.07968412
149	0x3db7cc61	0.08974529
150	0xbd882e80	-0.06649494
151	0x3cf41fee	0.029800382
152	0xbd91ae94	-0.07113376
153	0xbd45746c	-0.04820673
154	0x3d321a72	0.04348225
155	0xbbca9d3e	-0.0061832955
156	0x3de693dd	0.112586714
157	0xbe2ca954	-0.16861469
158	0x3bfa90d0	0.0076466575
159	0x3cf479d8	0.029843256
160	0xbdfaf7f6	-0.12254326
161	0x3d46116b	0.048356455
162	0x3d47a4de	0.048741214
163	0xbd112592	-0.03543622
164	0xbe36b41c	-0.17842144
165	0xbc25fecd	-0.01013155
166	0xbcd1f072	-0.025627349
167	0xbcb591a3	-0.022164172
168	0x3bac1491	0.005251475
169	0x3c2ea8ba	0.010660345
170	0x3ca15338	0.019693002
171	0xbe0ca418	-0.13734472
172	0xbddf8bdd	-0.10915349
173	0x3c86e4f7	0.0164666
174	0xbd73802f	-0.059448417
175	0x3dce3767	0.10069161
176	0x3e029e27	0.12755643
177	0xbcf84725	-0.030307362
178	0xbdaf5f03	-0.08563044
179	0xbe422f64	-0.1896339
180	0xbdf35f94	-0.118834645
181	0xbe52c41a	-0.2058262
182	0x3dabf16c	0.08395657
183	0x3d00e143	0.031464826
184	0xbd597f50	-0.05309993
185	0x3dee32c6	0.11630778
186	0xbe286b34	-0.16447145
187	0x3d0fdc88	0.035122424
188	0xbda4518b	-0.080233656
189	0xbd11c68f	-0.03558975
190	0x3cb0a94e	0.021565106
191	0xbddcb92e	-0.10777508
192	0xbd06b643	-0.032888662
193	0x3d6d0494	0.057865694
194	0x3c943fb7	0.018096788
195	0xbc6bf99a	-0.014402771
196	0xbd3fcc68	-0.046825796
197	0x3da4de5e	0.08050226
198	0xbcf92bd8	-0.030416414
199	0xbdff41c8	-0.12463719
200	0xbd279270	-0.040911138
201	0xbd7c55a6	-0.06160512
202	0x3bc50b18	0.0060132854
203	0xbe158c2c	-0.14604253
204	0x3d61a42b	0.055088203
205	0x3e0ec484	0.13942152
206	0x3d43c609	0.047796283
207	0xbdc1cbe9	-0.09462721
208	0x3e0d8c5c	0.13823074
209	0xbc6bdc95	-0.014395853
210	0xbc2a04e0	-0.010377139
211	0xbcc5d9a5	-0.024151633
212	0xbd07db4f	-0.033168133
213	0x3aa1fd7c	0.001235887
214	0x3dd6ac6f	0.10482108
215	0xbcb99bca	-0.022657294
216	0xbe0a6f68	-0.1351906
217	0x3c113304	0.008862261
218	0xbcee885a	-0.029117752
219	0x3ceb2933	0.028706169
220	0x3d94b109	0.07260329
221	0x3d5ec2b2	0.054384895
222	0xbd81f06b	-0.06344684
223	0x3d892a30	0.066975
224	0xbe1ef815	-0.15524323
225	0x3c38ce76	0.011279693
226	0x3d26d316	0.04072865
227	0x3d754848	0.059883386
228	0x3d9ccb39	0.07655949
229	0xbce6d903	-0.028179651
230	0x3d014387	0.03155854
231	0xbd25b386	-0.04045441
232	0x3d981e24	0.07427624
233	0xbd6b9962	-0.057519324
234	0xbd992d24	-0.07479313
235	0x3d0ff7fa	0.0351486
236	0x3cc015a1	0.023447813
237	0x3de8cdd9	0.11367387
238	0xbc8b83c9	-0.017030613
239	0xbd8b3d8c	-0.067988485
240	0xbd415d34	-0.047208026
241	0xbcfea562	-0.03108472
242	0x3dfbfd80	0.12304211
243	0x3cb850ba	0.02249943
244	0x3dde7051	0.108612664
245	0xbd3a5477	-0.04549071
246	0x3cfe811d	0.031067425
247	0x3dcddd35	0.100519575
248	0xbced9e39	-0.02900611
249	0xbe55a2ce	-0.20862886
250	0xbc191c14	-0.009345073
251	0xbde51b35	-0.1118683
252	0x3d423b1b	0.04741965
253	0x3cc82c97	0.024435325
254	0xbce4887b	-0.02789711
255	0x3c61166a	0.013738254
