clean_data/models/intents_classifier.pth (torch, 117416 bytes, 4 tensors)

weight f4 [128, 212]
00000000: d4cc d63c f60f 04be c7bb 0e3d 8b51 11bd
00000010: 3c25 c4bd 29ac f13d 72b3 c9bd b626 793c
00000020: f44c 433e f366 03bd 9521 423e c03a d1bc
00000030: e26f 7e3c 945b ce3d e373 023d 2176 0dbd
00000040: 16bf 8fbd afd3 bbbd ac12 c0bd eb1e 103c
00000050: 26f6 3ebc 1d0c 13be 199d 87bc af82 db3d
00000060: c15b 8f3b 5f69 b5bd 0493 2dbe 089e 5d3e
00000070: c356 c13c f094 53be 0e1d d3bd 05b8 c23d
00000080: 313f 923d c799 dcbd bdec 8d3d bfec 53be
00000090: 25a4 3cbe 6fad 1d3d 61b0 3ebd d69a dabd
000000a0: 350d b23d 11c4 bcbc 4b08 ee3c 61e0 113d
000000b0: 3ff4 963c ffad ab3c 8f3e 41bd 13f4 5cbd
000000c0: bc4b 9a3d cc34 bcbc 61c4 153d f4dc 8e3d
000000d0: c1e2 eb3d da2e 11bb 892e 873c 8791 093d
000000e0: ff09 84bc 228f 323e f5c4 153e cdb3 04bd
000000f0: 6614 f63c 053f cb3c 2f25 f03d b1b2 053b
00000100: b684 f6bc 8643 833d a0fe 10bd 6ce4 a1bc
00000110: c007 a93c ec2f 9c3b 0aac d53d 81e2 373e
00000120: c99c 133e 7fbf 10be ad89 303d 7a6b 013e
00000130: 406a d3bb 2710 62bb b046 943c 5ede a4bc
00000140: b7f8 10be 1ee0 0d3c 0cdb 17bb ad38 923c
00000150: 533b 20bd 0cf4 a3bc c23d b0bc 1827 09bd
00000160: e3c2 4ebd c7b9 a1bb 9006 10bc ffbd a63c
00000170: 51b3 6e3b 4ed1 96bc be9a 6f3d 2a8c 243d
00000180: 9cad 2bbb a4d5 34bd abad ee3c 4e8a 86bd
00000190: 9895 6c3d 32fe 803d 98c8 73bd 1e97 1cbd
000001a0: eeb2 14bd 48ac f8bc 9685 64bb cb25 313c
000001b0: ec1f 643d 52c1 28bd fae8 2a3d 77c9 d3bc
000001c0: 378c 003d dc49 d33c ea63 49bc b8ef 943c
000001d0: da8d 59bd 1348 e53c 8c2a 62bd 6bed 29bd
000001e0: ff73 403d ad2b 873d 4862 503d 55b2 18bd
000001f0: 01a7 50bd d63e e2bc 61f4 693d 4ba1 83bd
00000200: 5e2d 21bd 1f25 75bc 1445 b4bc 6eab 643c
00000210: 9421 83bd 0516 443d 1ac6 62bc 00d7 33bc
00000220: 7bde d0bb 6c49 463c 92d5 5c3d 17ae 5bbc
00000230: 4ead acbc a33a 01bd 2bb2 67bd 8c87 0fbd
00000240: fa49 cdbc 3ae6 593d 18fb bf3c 8b69 513d
00000250: fbe9 67bc d3af 773d e1b9 493d b678 063d
00000260: 5403 b9bc 6039 fdbc b71a 003d 6d06 243d
00000270: 1d2c 313d 1e9a 4bbc 4d31 63bd 0347 18bd
00000280: a256 e8bb 4894 743d a31e 513d 4655 423d
00000290: f9d5 ecbc 7f90 683d 3057 11bd 03e2 87ba
000002a0: 0292 fa3a eaca 893d fe79 7e3c 305b cbbc
000002b0: 2d68 f33c 68e5 4ebb 9184 0f3d 7a7a 89bd
000002c0: 57c2 d33c 0d9c 85bc 8bab 60bc 0b01 82bd
000002d0: 9883 523c 20ea 873d 4eea ea3c b80e 49bc
000002e0: 59bf f6bc 1942 26bc cb9e db3c 81a3 b5bc
000002f0: eb36 47bd 8fca 073d 5fba 083d 57c8 65bd
00000300: 7cae 77bd 24a3 623d 53a6 123d 9b99 d8bc
00000310: f1d5 77bd 4503 50bd da1f 1f3d 3099 8c3c
00000320: 4ce5 d93a bae5 263b 87ae 013d fb17 7fbd
00000330: b4db 16bd b623 d4bc 6211 1bbd 1853 9a38
00000340: ca6e 69bd d48e 633d 48ab 2bbd 96ab 80bd
00000350: a98a 0dbd 6e5f 4dbd c00f 633d 98f5 8abd
00000360: 2983 e33c eb35 523d 2b02 39bd 9109 b73c
00000370: f0fc 243d 6899 d9bb 9e45 26bd 69e6 be3b
00000380: 27e9 85bd 25fd 453d df3c 7fbc c042 b23c
00000390: 1759 aebc 9c1c aebc 649f 81bd 9bb9 10bc
000003a0: ef1b 063c df39 af3b bc26 093d 196d 0bbd
000003b0: 1b48 d03b 08f6 c0bc f8c2 07bb 0a28 63bd
000003c0: c570 aabc d10d 31bd 845b 8fbc f7b5 56bc
000003d0: 9f6f 3fbd 80b9 7a3c 9228 f83c fa9d 003c
000003e0: 260f 4bbd 905c f43c 4fd0 38bd 3deb 16bd
000003f0: c40a b13d eecb a33c 3d6c 2dbd 72e7 50bd
0.026220717 -0.12896714 0.034847047 -0.035478156 -0.095774144 0.11800415 -0.098486796 0.015206983
0.19072324 -0.032080602 0.18958123 -0.02554071 0.015529605 0.10076061 0.0318488 -0.034536485
-0.070188686 -0.09171235 -0.093785614 0.008796434 -0.011655366 -0.1436009 -0.016554402 0.10718285
0.0043749516 -0.088579886 -0.16950613 0.21642315 0.023600942 -0.20662284 -0.10308276 0.09507755
0.07140959 -0.10771518 0.0692992 -0.2069578 -0.18421991 0.038495477 -0.046554927 -0.10674064
0.08693925 -0.02304271 0.029056689 0.035614375 0.018427012 0.020956991 -0.0471788 -0.053943705
0.075339764 -0.022974394 0.036564235 0.06975737 0.11517859 -0.002215317 0.016501682 0.03358605
-0.016118048 0.17437413 0.14625914 -0.032398034 0.030039024 0.024810323 0.11725842 0.0020400698
-0.030092578 0.064093634 -0.03539908 -0.01976224 0.020633578 0.004766455 0.104332045 0.17957498
0.14415278 -0.1413555 0.043100048 0.12638655 -0.006451875 -0.003449449 0.018100113 -0.020125564
-0.14157377 0.008659391 -0.0023171334 0.01784929 -0.039119076 -0.020013832 -0.021513823 -0.03348455
-0.050478827 -0.0049354765 -0.008790627 0.02035427 0.00364228 -0.018410351 0.058497183 0.040172733
-0.0026196009 -0.044149056 0.029135546 -0.06569348 0.05775985 0.06298484 -0.059517473 -0.038230054
-0.036303453 -0.030355588 -0.0034869662 0.010812233 0.055694506 -0.04119999 0.04172609 -0.025852902
0.03138372 0.025792055 -0.012291888 0.018180713 -0.053113796 0.02798847 -0.055216357 -0.041486185
0.046985622 0.06600127 0.05087498 -0.037279446 -0.050940517 -0.027617853 0.057117824 -0.064272486
-0.039349906 -0.014962464 -0.022005595 0.013956888 -0.06402889 0.047872562 -0.013841176 -0.010976553
-0.006374178 0.012102466 0.053914614 -0.0134082055 -0.021078732 -0.03155006 -0.0565664 -0.035041377
-0.025059689 0.053198077 0.02343516 0.051126044 -0.014154906 0.060470413 0.049249534 0.032829963
-0.022584595 -0.030911148 0.031275477 0.04004519 0.04325496 -0.012426881 -0.05546694 -0.037177097
-0.0070904056 0.059711725 0.051054608 0.047444604 -0.028910624 0.056778427 -0.03548354 -0.0010367039
0.0019117 0.06728156 0.015532015 -0.024823755 0.02971276 -0.0031569842 0.035038535 -0.06712814
0.025849504 -0.016309762 -0.013712774 -0.06347855 0.012848757 0.06636453 0.028676178 -0.012271576
-0.030120539 -0.010147595 0.026809117 -0.022172691 -0.04863636 0.03315216 0.033380862 -0.056099262
-0.060469136 0.055331364 0.03580315 -0.026440432 -0.060506765 -0.050784368 0.038848735 0.01716289
0.0016624122 0.0025466518 0.031660583 -0.06227873 -0.03683062 -0.025895935 -0.037858374 7.35877e-05
-0.056990422 0.055556133 -0.041911393 -0.062827274 -0.034556065 -0.050139837 0.055434942 -0.067851245
0.027772503 0.05132095 -0.045168083 0.022343429 0.040280282 -0.006640602 -0.040593736 0.005825807
-0.06538611 0.04833712 -0.015578478 0.021760345 -0.021282716 -0.021253876 -0.063292295 -0.008833314
0.008185371 0.005347475 0.033484206 -0.03403959 0.006356252 -0.023554817 -0.0020715576 -0.055458106
-0.020805726 -0.043226067 -0.017499693 -0.013104907 -0.04673731 0.015303016 0.030292783 0.007850165
-0.049574994 0.029829293 -0.045120534 -0.036845434 0.086446315 0.019994702 -0.042339552 -0.051001973

bias f4 [128]
00000000: af09 863e 0ef7 55bd 915d 1e3e f0bf 283e
00000010: 806d e33d 65a2 803e 62a9 813e a7fc 873e
00000020: fc74 413e b277 f23d 3159 1b3d c3fb d13d
00000030: c1f1 e73d bfc8 233e 1f53 653e 8604 223e
00000040: dbc8 913e 7638 5e3e fe25 d13c a062 2f3e
00000050: 6821 79bc 0125 d33d 0463 0b3c d8bf 203e
00000060: 4eec 4a3e 73a2 5c3e dfb0 8ebc 0dc6 e63d
00000070: 2b7c be3d 47fa 5d3e 885d 0a3e 5033 223e
00000080: 3e29 b33d 5de9 673e 55e8 993b 4efc a53d
00000090: 4ae5 483e 837c 083e b324 d03d 9fb7 c33d
000000a0: 46fe d83d 1d84 a13e 86f6 7d3e 78d7 b63d
000000b0: 8770 603e da58 c63d a028 5a3e 9530 a83a
000000c0: abf0 983e c8d6 1b3e 30c3 1a3e fcd9 39bc
000000d0: 09f1 433e a8d6 373d 907f cc3d 1721 133e
000000e0: 40bd 59bd b72b 0c3e 1bc6 ad3d 8946 633e
000000f0: be58 cb3d 4578 0d3e 58ae 1a3e e812 adbd
00000100: ae8d de3d 2590 353e 8497 fc3d 17c9 3d3d
00000110: 4de9 61bc b938 ff3d 1239 bb3d 9c0c a83d
00000120: 8062 a73d cc75 843d 0105 f53b 1068 b53c
00000130: 0b0a f23d d72e 0c3d c89d 043e 1b38 1d3e
00000140: 6c04 3b3c 162b fc3d 023a 363e 2cc2 aa3d
00000150: dcbc 8c3d a70e 8b3d 9e3d c53e f251 f03d
00000160: ffb5 a73e b7a5 0f3c 78a2 113e b59a a73e
00000170: 6444 ac3d 816b 3b3e 6f43 d93d 09e5 9a3d
00000180: e298 92bd 229c 113e 6290 503e c278 813e
00000190: 03ff 1c3e 1cff e03d d0fc f43d 905b b73d
000001a0: 59d3 533e e1de 973d 34ee 133e 49cf 103e
000001b0: a4f1 803e 5124 f03d 5a3c 58bc f65c 16bc
000001c0: e0b9 7d3e d086 323e 6143 ef3c 0468 7c3e
000001d0: b6d3 623e 76ee fc3c aeda afbc a430 693d
000001e0: 8e68 6f3e 1fd8 4f3e 4b07 0b3e 504b 0c3e
000001f0: 1550 893d 4beb 163e 21fc 213e ed20 953e
0.26179263 -0.052237563 0.1546538 0.16479468 0.1110487 0.25123897 0.2532454 0.26559946
0.18892282 0.11839236 0.037926856 0.10253098 0.11325408 0.15994547 0.2239499 0.15822038
0.28473553 0.21701226 0.025530811 0.17127466 -0.015205719 0.10309792 0.008507494 0.15698183
0.19816706 0.21546344 -0.017418323 0.11268244 0.09301027 0.21677504 0.13512242 0.15839887
0.08748101 0.22647615 0.0046968856 0.08104764 0.19618717 0.13328747 0.1016325 0.09556507
0.10595374 0.31546107 0.24801072 0.08927816 0.21917926 0.09684916 0.2130456 0.0012831861
0.29871115 0.15218651 0.1511352 -0.011343475 0.19134916 0.044882447 0.09985268 0.14368092
-0.053159 0.13688551 0.08485051 0.22194876 0.099290356 0.1381541 0.1510557 -0.08450872
0.10866867 0.17730768 0.12333587 0.046334352 -0.013788533 0.12461991 0.09141745 0.0820553
0.08173084 0.064677805 0.007477403 0.022144347 0.11818322 0.034224357 0.12950814 0.15353434
0.0114146285 0.123129055 0.17795566 0.083378166 0.068719596 0.06789904 0.38523573 0.1173438
0.3275604 0.008767537 0.14222133 0.3273522 0.08411482 0.18302728 0.10608565 0.07563216
-0.07158066 0.14219716 0.20367578 0.25287443 0.15331654 0.10986158 0.11962283 0.08953011
0.20686091 0.07415558 0.14446336 0.14141573 0.25184357 0.11725677 -0.013197983 -0.009177437
0.24777937 0.1743424 0.029206933 0.24649054 0.22151074 0.030875426 -0.02146658 0.056931153
0.23379728 0.20297287 0.13577001 0.13700604 0.067047276 0.14738195 0.15818836 0.29126683

weight f4 [9, 128]
00000000: 4667 0b3d 6f0e 85bd f369 503d e974 62bd
00000010: f6cb cebc ea43 c83c 04d6 b0bb ac29 1a3d
00000020: af8a 60bd 668c d13c 0ec1 c83c 509a 543d
00000030: b9b8 a5bd 18be 47bd ffda 06bd 16e2 85bd
00000040: 82ad 653d f812 23bd c367 1abd 92fd f13c
00000050: 4bb7 b63c 0da0 b4bd b882 ca3c fadc 923d
00000060: f29e 443c 6293 c3bc 8680 55bd 24dd 0dbd
00000070: 7340 ad3c f5e2 53bd 2918 8dbd 9660 9ebd
00000080: 1a63 3b3d 8766 663d dc2b 6a3b 8957 ef3c
00000090: a179 4dbd b89d 6c3c 9dde 8bbd 4006 823c
000000a0: 78af 9d3d 6602 6c3c 9de6 423d 6065 0abd
000000b0: 4a48 743d 21e3 13bd 0d13 8f3d 3a88 913d
000000c0: 9439 acbd 0c54 9abb ebac 8a3c 2ed0 4bbd
000000d0: a304 9e3b 2e87 68bd f7b3 5ebb 4c11 9c3d
000000e0: 67ce a4bd 0bdb 7d3d e3ec 9d3c e6f9 78bd
000000f0: 1200 a53d 4c74 babc 38aa 91bd 5a2a 803c
00000100: 97ce 96bd 5eb1 09bd b9fa 22bd f94e d73c
00000110: b514 3bbc bbdf 80bc ec91 83bd 6d0a 84bd
00000120: 93f8 8cbd c348 483c 0ea0 98bd 3ac9 febb
00000130: d357 183d 5c37 8bb8 d406 9abd 4686 953c
00000140: 54f9 abbd a389 833b bef7 6e3c b78e 94bd
00000150: ca09 b4bd 90da 08bd dc7d 60bd 6d09 913d
00000160: 3c46 193d b29a aebc a9b2 aabd 8e00 ae3c
00000170: 61ee aa3c 9e8c b0bd be70 9abd fd0e 953d
00000180: f375 acbd d990 773d 8195 21bd 728a 0f3d
00000190: f50f 9cbd 51c3 1bbd 5f9b 8a3c 47c9 62bd
000001a0: ae92 38bd 6642 8cbd a404 2a3d eefc 9cbc
000001b0: c103 60bb 1927 04bd 7bfe 37bd 055e b2bd
000001c0: 9420 46bd de57 e7bc 4e77 673d 1323 b4bc
000001d0: 9ddd 723c 36f2 e3bc 2846 34bd 5fb2 63bd
000001e0: ea4f bdbd a54b 183d b60f 93bd deff 1a3c
000001f0: 8815 353d dcdc 6e3c 676d 57bd 627d 93bc
00000200: bb0f 1b3e f5cc cf3d 5080 53be ec0d 39bd
00000210: fab0 8c3e 1ff5 92be c79b 6dbe 1772 e43e
00000220: 6acf 853e 8dd0 d4be dcc6 4a3e 7c21 5bbe
00000230: 4147 b93c dd4a 123d c5c5 4d3c 1958 7ebe
00000240: 9ef7 66be 7e11 a2be 1383 5bbe 41ae 6c3d
00000250: 4b9e 103e ac4a 09bd a34b 063d 48de 14be
00000260: 9b8b 743d b445 2bbe 7728 40bc 22c2 833e
00000270: 7b01 edbd 5768 2fbe 6ffd 9cbd 5fbf 033e
00000280: 9c36 cebc ed2d 72bc 43f3 77bd ad1f 7dbe
00000290: 7c52 ac3d 124e 33bd a21a 49bd 1755 0bbe
000002a0: 82b3 7ebe b3f2 203e c309 b63e bd7b 803c
000002b0: e74d 9fbd ce1b 4d3e 9daf bebd aaf6 98be
000002c0: f7f8 9d3d 67d0 7ebe 6484 71be e75b 533d
000002d0: e38e 2bbe 86f5 7ebd 62fa 0bbd 8a57 f9bb
000002e0: 3672 65bc b82a a8be b7d5 c83d d78c 29be
000002f0: 8ca0 e03c 2ccc edbd 471f bd3d 1687 60bd
00000300: 4089 0ebe b805 38bd 871c bcbc 99e0 0f3e
00000310: 28fa 3ebe f980 4b3e 2ae8 fdbd 5390 95bd
00000320: 284f a33d 0bfe 85be ffe8 9fbd e12c 24bc
00000330: 0f46 1f3e ce14 113f 7854 bc3e 27cb 9ebd
00000340: 15b9 71bd d8db 24be 6c8f 0f3e 9451 ca3e
00000350: d38e 4c3e 3b5b f0bd 54f2 69be 5084 3d3f
00000360: d9ef 9abe 4c9b 6b3d b99b 923c fd7d 973e
00000370: daf1 0dbe 016c 55bd 1b36 93be def5 2d3e
00000380: 7c80 223d f930 a63d b9cb 80be 54ef a8bc
00000390: ba75 073d dd1e 44bd 7ae2 92bc ad59 363e
000003a0: 248b cbbd aa3e 123f caa9 84bd 0846 fabe
000003b0: 38f5 18be c96b a8bd 95a9 97bd bfb1 c3bd
000003c0: 0afe aabd 9316 7abe 3301 493d 22cc 6cbd
000003d0: 9754 de3e 78b5 aabd 1c44 ecbd c9a8 c1bb
000003e0: 2096 c63e 578c 84be 3ed3 04be b648 4a3e
000003f0: 72cc 33be 4f90 32be a445 243e 410e 1bbe
0.034034036 -0.064968936 0.05088229 -0.055287275 -0.02524374 0.024446446 -0.0053966064 0.037637398
-0.05481976 0.025579643 0.024506118 0.051904976 -0.08091874 -0.048765272 -0.032923695 -0.06537263
0.056073673 -0.039813012 -0.03769661 0.029539857 0.022304198 -0.0881959 0.024720535 0.07171054
0.012000786 -0.023873989 -0.052124523 -0.034634724 0.021148896 -0.051730115 -0.06889374 -0.07733266
0.045748807 0.05625012 0.0035731709 0.029216545 -0.050164822 0.0144419 -0.068295695 0.01587212
0.07699484 0.014404869 0.04758321 -0.033788085 0.059639253 -0.03610528 0.069860555 0.07106061
-0.0840942 -0.004709726 0.016928157 -0.049759082 0.00482233 -0.056769542 -0.003398178 0.076204866
-0.080471806 0.061976474 0.019277995 -0.060785197 0.08056654 -0.022760533 -0.07112545 0.015645195
-0.07363623 -0.033616416 -0.03978989 0.026282774 -0.011418511 -0.015731683 -0.06424317 -0.06447301
-0.06883349 0.012224379 -0.07452403 -0.007775453 0.03719313 -6.638348e-05 -0.075208336 0.018252503
-0.08397165 0.0040142103 0.0145854335 -0.07253783 -0.087909296 -0.033411562 -0.05480753 0.07081876
0.037420496 -0.021313999 -0.08334858 0.021240499 0.020865621 -0.086205706 -0.07541035 0.072782494
-0.084209345 0.060440872 -0.03944922 0.03504414 -0.07620231 -0.038028065 0.01691979 -0.055367734
-0.04506176 -0.06848602 0.041508332 -0.019163575 -0.0034181925 -0.03226385 -0.044920426 -0.08709339
-0.048370913 -0.02824014 0.056510262 -0.021989381 0.014823345 -0.027825456 -0.04401222 -0.05559003
-0.09243758 0.037181515 -0.07180731 0.009460418 0.044209987 0.014579024 -0.05259457 -0.018004123
0.1514272 0.10146514 -0.20654416 -0.045179293 0.27478772 -0.28702638 -0.23203956 0.44618294
0.26134807 -0.41565362 0.19802421 -0.21399492 0.022616984 0.035715926 0.012559359 -0.24838294
-0.22555396 -0.3165397 -0.2143672 0.05778337 0.14122884 -0.03351848 0.032786977 -0.14537919
0.05970345 -0.16725808 -0.011728398 0.2573405 -0.11572548 -0.17129646 -0.07665526 0.12865971
-0.025172524 -0.014781457 -0.060534727 -0.24719115 0.0841417 -0.043775626 -0.049097665 -0.13606678
-0.24873164 0.15717582 0.35554323 0.015684003 -0.077785306 0.20030138 -0.09310839 -0.2987569
0.07713502 -0.24884187 -0.2358566 0.051601317 -0.16753726 -0.06224587 -0.03417433 -0.0076093124
-0.014004281 -0.32845092 0.09806388 -0.16557632 0.027420305 -0.11611208 0.09234481 -0.054816328
-0.13919544 -0.04492733 -0.022962822 0.14050521 -0.18650115 0.19873418 -0.123977974 -0.07302918
0.07974082 -0.26170382 -0.07808112 -0.010020466 0.15554069 0.5667237 0.36783195 -0.07753592
-0.0590144 -0.16099489 0.14019555 0.39515364 0.19976358 -0.11736151 -0.22846347 0.7403002
-0.30261114 0.05752115 0.01789652 0.2958831 -0.1386179 -0.052104954 -0.28752217 0.16988322
0.039673313 0.081148095 -0.25155428 -0.020621933 0.033071257 -0.047880996 -0.017930258 0.17807646
-0.09938648 0.5712687 -0.06477697 -0.48881555 -0.14937294 -0.082236834 -0.07405392 -0.09555387
-0.08349235 -0.24422674 0.04907341 -0.057811864 0.43423912 -0.08335394 -0.11536428 -0.0059100133
0.3878641 -0.2588832 -0.12971207 0.197543 -0.17558458 -0.17437862 0.16042191 -0.15142156

bias f4 [9]
00000000: 3f10 cbbd 7c60 053d 62c3 9abe addc 0a3f
00000010: 6143 543e 3801 b7bd 6c03 aebe e78f 77bd
00000020: 8503 3c3e
-0.09915208 0.032562718 -0.3022719 0.54242975 0.20728828 -0.08935779 -0.33986986 -0.06043997
0.18360718
