clean_data/models/intents_classifier.pth (torch, 537256 bytes, 4 tensors)

weight f4 [256, 510]
00000000: 0b6b 453b 98d2 a63d 16cc 8a3c b1fa 76bc
00000010: ea8b a73d 5d3d 623a 46e2 5fbb 3bab 5f3c
00000020: aacf 643d 2767 98bc c65f 523a 44ca f83b
00000030: 02e2 aabc 752f 8e3d ed7f 03b9 9e83 41bc
00000040: 6c5b 2dbd 3241 e3bc d820 363c 8634 9e3c
00000050: 6041 403c c012 3d3d a680 c13b 9561 1a3d
00000060: 7189 fa3c e5d9 2f3d 49c1 213b 3966 30bd
00000070: d37e 8e3c 910b 363d 53a4 3a3d 6d98 28bd
00000080: f30a 12bd 2053 14bc 7c95 b23a f6d3 0b3d
00000090: 4673 e9bc 412f 7abc 59c2 cabc 838d b1bc
000000a0: 944e 123e 52c4 3f3c e0c5 2a3d 2910 083d
000000b0: 62f4 533c 8d29 e2ba e89f c93c 2757 beba
000000c0: b90b dbbd a90c 51bc 649f 163d 8e57 7dbc
000000d0: 16c7 25bd a1bf 1a3d 6a01 3ebd 80bd 8a3d
000000e0: e76a e03b aa96 933c 23aa bb3c 8633 743d
000000f0: 6aaf 0d3d b99b a13c dabe 24bd 54a6 19bd
00000100: 6bcf fd3c a9c6 e1bc 30ad 9cbb 243c 25bd
00000110: 7682 363d e324 0ebd 6bb4 2ebc 8cc4 9f3c
00000120: 50fc afbb 949b 2ebd ac80 e73c dee7 6dbb
00000130: 6fe7 613d de50 26bd b590 413d 8330 87bc
00000140: 31ca d2bd 44d4 5abd f5cf 47bd 3896 68bc
00000150: d5c4 233d 1d8b a6bc 1f55 a23d 67d3 24bd
00000160: 05c1 f8bc 4278 d03c 0040 433d ca53 1b3c
00000170: d4cd 683d 10fc 323d 41c2 edbc 96cf 10bd
00000180: dc98 43bd 8f05 22be 90bc c6bc 6f2c 503c
00000190: c1ae 47bc d92b 29bd 87a8 10bd 75fc 533d
000001a0: 66fc 203d 7df7 06bd 436f 283d 58df a5bc
000001b0: 57b1 dc3b 0768 743c 2a05 3cbc 9f56 963d
000001c0: 56f2 a7bb 4c51 103c 632a a4bc 553c 593d
000001d0: 6fc0 ec3c 622d 803b 096b 383d 0aeb ca3c
000001e0: f0ff 413a 1c88 60bb 6ec7 0e3d cf81 d0bc
000001f0: 1db2 6dbd 6c05 48bd c06b 9339 2992 8f3c
00000200: f0d8 8f3c 04b2 fdbc 2fe4 423d b33d 31bc
00000210: 52f3 003e 2a09 bdbc 046c d53d db7a 323c
00000220: 4175 6ebc 35fc 2d3d d2bd 26bd 7f1a d4bc
00000230: e8b3 413d 14b6 d53d 8b1c 0a3d 441b 95bc
00000240: 4084 d43d 9fce 2e3e b27b 91bc 8f24 e1bc
00000250: 11db 99bc 184b 7dbd 5d9f d3bc 3d59 0dbd
00000260: 1568 4cbd d3aa 083c abee 16bd a328 463d
00000270: 97a4 83bc 2379 11bc 4bdc af3c 0a4c 19bc
00000280: 73ee a43c d71a e43c 18d8 90bc 8544 8f3d
00000290: e2cd c9bb 2cf4 8d3c 3d6d ecbc 7db5 18bd
000002a0: 6f0b 343d fcbc 88bd 2308 eb3b 79d2 0dbd
000002b0: 16fa 193c 4e7e e6bc 4605 57bc fb95 2abd
000002c0: 0120 ffbc 94a6 c6bc f060 b5bc c79a a73c
000002d0: d785 ea3c 58e0 213c ee8f b6bb 5487 90bc
000002e0: 3c2d 2dbd 10a2 4ebb 16fa 3ebd fb68 0f3d
000002f0: eebf 40bc 352e b8bb 8652 db3c abc2 8a3d
00000300: 93c0 68bc 6e50 7bbc 2600 a13c ecb2 4e3d
00000310: 950b ec3b 07f6 f43c e7e7 a33d 6446 8d3c
00000320: 6e2f 263c 7b94 1d3d ad5b 88bd 228f 88bd
00000330: ed44 05bd 3db0 29bd 38be 473d 4bde a5bc
00000340: 5b73 a0bb b3d2 bfbc deb8 5f3d 160f 5338
00000350: 8335 ff3c 743d 173d c9cc a1b9 6433 413d
00000360: 8ad5 b4bb 535d 953c 5666 d93c 444d feb9
00000370: 8151 3a3d 4154 db3d 56c2 4a3e 4253 903d
00000380: 5db4 963d b4a6 653d f8c2 1cbd 88e0 f73c
00000390: b9be e6bc 3208 35bc 1ba5 533d c417 0d3d
000003a0: 7b38 0f3c 80ef cb3c 60a3 ac3b 26fc 1fbd
000003b0: 0023 b03b 34cc 63bd 15a4 183c af27 d73c
000003c0: 7bf6 6c3b 7383 0cbd a289 7cbc defe b43c
000003d0: 3b96 1abd cd23 2f3e cd50 af3c cc13 de3b
000003e0: 86f6 a93c 12f0 0e3d aec1 053b 9125 dc3d
000003f0: e031 503c 65f4 323d 0e95 623c 2657 bb3b
0.0030123617 0.08145636 0.016943019 -0.015074418 0.08180983 0.00086303597 -0.003416197 0.013651664
0.055862106 -0.018603874 0.00080251356 0.0075924713 -0.020859722 0.069426455 -0.0001254079 -0.011811165
-0.042323515 -0.027741048 0.011116229 0.019312155 0.011734337 0.04616046 0.0059052287 0.037690718
0.030583115 0.04293241 0.0024681857 -0.043066237 0.017394459 0.044444624 0.045566868 -0.04116099
-0.035654973 -0.009053022 0.0013624872 0.03413769 -0.02849735 -0.015270055 -0.024750875 -0.021673923
0.14287788 0.011704521 0.041692615 0.033218537 0.012936683 -0.0017254815 0.024612382 -0.0014521823
-0.10695595 -0.012759366 0.0367731 -0.015462769 -0.040473066 0.037780408 -0.046388067 0.067744255
0.0068486813 0.018016178 0.022908276 0.05961945 0.034591116 0.019727575 -0.040221073 -0.03751214
0.030982694 -0.027560549 -0.0047813877 -0.040340558 0.04455801 -0.034703147 -0.010663132 0.0195029
-0.005370654 -0.04262884 0.028259598 -0.0036301534 0.055152353 -0.040604465 0.047257144 -0.016502624
-0.10292471 -0.05342509 -0.048782308 -0.014195971 0.039982636 -0.020330006 0.07926392 -0.04024067
-0.030365476 0.025447968 0.047668457 0.009480426 0.056836918 0.043697417 -0.029023292 -0.03535422
-0.0477532 -0.15822433 -0.024259835 0.012705906 -0.012187661 -0.041301582 -0.03531697 0.051754434
0.039303206 -0.032950867 0.041121732 -0.0202481 0.0067350077 0.01491738 -0.011475841 0.073407404
-0.0051253242 0.008808445 -0.020039743 0.053036053 0.028900353 0.00391166 0.04502395 0.024770278
0.00074005034 -0.0034260815 0.03485816 -0.025452523 -0.05803119 -0.048833296 0.00028118305 0.01752575
0.017559499 -0.030968674 0.047580894 -0.010817933 0.1259282 -0.023075659 0.10420993 0.010893549
-0.014554323 0.04247685 -0.04070837 -0.02589154 0.047290713 0.10435119 0.033718627 -0.018201478
0.10376787 0.17071007 -0.017759178 -0.027483253 -0.018781217 -0.061839193 -0.025832826 -0.034508932
-0.049903948 0.008341509 -0.036848705 0.048378598 -0.016069693 -0.008878979 0.021467349 -0.009356508
0.020133233 0.02784483 -0.017681167 0.06995491 -0.0061585763 0.017328344 -0.028860683 -0.037282456
0.043956216 -0.06676671 0.007172601 -0.03462455 0.009398004 -0.028136399 -0.013123816 -0.04164694
-0.03114319 -0.024249353 -0.02214095 0.020459546 0.028628273 0.009880148 -0.005571357 -0.017642654
-0.042279467 -0.0031529702 -0.04662522 0.035012227 -0.01176451 -0.0056207427 0.026772749 0.06775411
-0.0142060695 -0.015339 0.019653391 0.050463602 0.007203529 0.029902471 0.08003216 0.017245479
0.010143144 0.03847168 -0.06658111 -0.066679254 -0.032536436 -0.04142784 0.04876539 -0.0202476
-0.004896564 -0.023415899 0.054619662 5.032037e-05 0.031153446 0.03692384 -0.0003086089 0.04716815
-0.00551862 0.018232977 0.026538055 -0.00048504223 0.045487884 0.107094295 0.19800696 0.0704713
0.0735862 0.056067184 -0.038271874 0.030258432 -0.028167116 -0.011049317 0.05167113 0.034446493
0.008741493 0.024894476 0.0052684993 -0.039058827 0.005375266 -0.055614665 0.009316464 0.02626404
0.0036157656 -0.034305047 -0.015413674 0.022094186 -0.037740927 0.171035 0.021400834 0.0067772623
0.020747434 0.034896918 0.0020409632 0.10749353 0.012707204 0.043690104 0.013829483 0.005717176

bias f4 [256]
00000000: ccb8 1e3e 7062 383d 4454 443d 0137 003e
00000010: 95f8 d33d 2822 5f3d 1365 9e3d 8d97 aa3c
00000020: bd13 273e d210 e03d 8db2 733e 151e 303e
00000030: ad25 22bd 13f2 81bd 64a3 a23d 1591 253e
00000040: 78e2 a83d f98a 923d a93e 5c3d 7087 1cbd
00000050: 3022 3d3e 89e3 d43d 0a3e 3dbd 50a0 603d
00000060: 6ac5 993c 780e 2a3e e603 313e 914d 7e3d
00000070: bc96 6a3c d074 d73d 64ad 3c3e 4b23 283e
00000080: 2e4c 403d effe a13c 521c 15bd ce8c 333e
00000090: db26 1f3e 56ca 193e 2d81 c33c 5a65 b3bc
000000a0: ce72 7d3d a657 d23d eb5f e43d 3869 b53d
000000b0: 19a6 a63d ffbe d63d c682 b33d 4f1a 533d
000000c0: 2d90 1d3e 6a02 df3d 6102 123e fd58 103e
000000d0: 59c7 cc3d 0ce4 893d 432a 2d3e 8da8 3f3e
000000e0: 3b3e 003e 4995 923d 48fe 643d cd1f 2b3d
000000f0: 05a9 c63c 2241 e23d 1467 493d bbf4 813d
00000100: ac85 87bd a699 0d3e b57a 8c3d 0567 db3d
00000110: 754e 233e c105 8f3e 0b57 023e 7425 3f3d
00000120: ad08 453d f588 183e 6cd2 6d3d 6eba 1f3e
00000130: 11bc a63e 12be b03d 017b 053e 7fbc c83d
00000140: c95b 183e 6fa8 273e 58a9 8c3d 488d 0a3d
00000150: 22fb 1c3e 1292 c63d dc0e 043d 19f6 2d3d
00000160: ec0c 4a3e e716 663c b551 313d 021f b2bc
00000170: 3ab8 0b3e 279d cf3d 8dff c33d fb5c 283e
00000180: 54f2 8fbc 9d0f 513e d96f 4fbd b6aa d2bb
00000190: 65e3 1c3e f4ef 823d efef 933d 54f6 603e
000001a0: ff57 0d3e d5a0 023e 1a1a 813d b4cd a73d
000001b0: 7e1c 373e f67f b73d 4b0a ca3d 6721 913d
000001c0: 191f aa3d 3c1f 2d3e 84ac d63c 73a0 d93d
000001d0: 6171 023e 5cff c73d 2916 ef3c 6a4b 9f3d
000001e0: 3409 863e 42f3 263e 2e59 803d 441f d93d
000001f0: 0ace b23d 0766 683d 27bb 8b3d b46b 703d
00000200: bdb7 dd3d f3dc 2dbd 47b9 223e 896e f43d
00000210: 81fb a63d b7de 0c3e 7065 823d 14cf ad3c
00000220: 37c8 fa3d c311 103e eb59 c63d 5321 693d
00000230: 74a6 8d3d 45e8 8f3d 1ccc 6a3e a21a 8c3d
00000240: af75 6c3d f03f 083e 3f04 ad3d 1436 493d
00000250: dc5e 993d cbdf f33d ab57 263e d674 0d3e
00000260: 0246 123e ec89 cd3b 4d34 273e 9142 003e
00000270: b70b e23d a618 513d 52c2 453d 0e9a ab3d
00000280: 66ac e13d cc23 cd3c 7603 3b3e a9ea 193e
00000290: 3245 2f3d bd03 8f3d d9ec 5b3d 57c1 183e
000002a0: 8aed 173e bf8c 923d 9e01 283e 0bd4 8fbb
000002b0: 7480 1c3e 297b 1a3d f7f0 503e 1f23 ca3d
000002c0: 2d6d 893c 6039 d63d dc93 373e 4746 123e
000002d0: eca0 ae3d e085 a53d 94df 3a3e a3d6 da3d
000002e0: 19b7 803d 2218 063e d879 503d a0a3 653e
000002f0: 08b1 013e 7fbd 243d d951 453e 3ccd 293e
00000300: 89b0 953b 7ed2 253e 7047 c2bc 27c1 083e
00000310: 6878 a73d 2381 ed3d 3954 283e 3a92 a03d
00000320: 7923 c23d 5b28 083d cea8 d83c 386c 013e
00000330: 99d5 2c3e f624 81ba c63b 153e 42dd ec3d
00000340: cd28 343b 9f56 233e 6c89 e33d 4e20 3a3e
00000350: aa81 763d da72 fd3d 6857 313e 2a6c 463c
00000360: d87a 9a3d 42eb 213e 9529 d33d 0fc8 fb3d
00000370: 4b9c 773d 7c47 023e 5c57 453d 2207 3f3d
00000380: b193 453e f4e3 203e bb76 d63d f16c 053d
00000390: 4734 873d 4942 043d 3ed5 013e c028 0f3d
000003a0: d1a4 093e ec1f fe3c 49fa f33d eb0f 143d
000003b0: 746c ac3d 3182 bf3d b660 043e 09ac 3b3d
000003c0: 4c46 303d 9eae 203d 9c21 f83c a1e7 c53d
000003d0: 8e4d 0c3e 434d bc3d c9a9 dc3c cce8 353e
000003e0: 3ecc 663d caf4 d83d 788f 4d3e 64de fc3d
000003f0: b49d 133e de40 2b3e d3b5 2a3e ba6d 413e
0.15500182 0.045015752 0.047931924 0.12520982 0.10350148 0.054475933 0.07734122 0.020824218
0.16316123 0.10940708 0.2379858 0.17198975 -0.03958671 -0.06345 0.079413205 0.16168626
0.082463205 0.07155413 0.053770695 -0.0382151 0.18470073 0.103949614 -0.046201743 0.054840386
0.018770892 0.16607082 0.17286643 0.06208569 0.014318164 0.10520327 0.18425518 0.16419713
0.04694765 0.019774882 -0.03640396 0.17534181 0.15542166 0.15018591 0.023865307 -0.021898914
0.061877064 0.10270624 0.111511074 0.088579595 0.08137149 0.10485648 0.087651774 0.05153876
0.1538703 0.10889132 0.1425872 0.14096446 0.0999896 0.067329496 0.16910653 0.18716641
0.12523739 0.0715738 0.055906564 0.041778374 0.024250517 0.11047579 0.04917057 0.06345507
-0.06617293 0.13828143 0.06859342 0.10713009 0.15947898 0.27934077 0.12728517 0.046666577
0.048103977 0.14895995 0.058062002 0.15598461 0.32565358 0.08630003 0.13035204 0.09801578
0.14878763 0.16372846 0.06868237 0.033826143 0.15330175 0.096958295 0.032240734 0.042471025
0.19731492 0.014043546 0.043290813 -0.021743301 0.13644496 0.10137396 0.09570227 0.16441719
-0.017571606 0.20416112 -0.050643776 -0.0064290417 0.15321119 0.06393424 0.07223498 0.21968967
0.13803099 0.12756665 0.063038066 0.08193532 0.17881963 0.089599535 0.098652445 0.07086449
0.08306713 0.16906446 0.026205309 0.106263064 0.12738563 0.09765503 0.029185371 0.07778056
0.26178896 0.16303733 0.0626701 0.106016666 0.08730705 0.056737926 0.06822806 0.058696464
0.10826061 -0.04244704 0.1589099 0.119351454 0.08153439 0.13756834 0.06367004 0.021216907
0.12245219 0.14069276 0.09685119 0.056916546 0.06916514 0.07026724 0.22929424 0.06841017
0.05772942 0.1330564 0.084480755 0.04912384 0.07488796 0.119079195 0.1624438 0.138141
0.14284518 0.006272545 0.16328545 0.12525393 0.11037391 0.051048897 0.04828102 0.08378993
0.110192105 0.025041483 0.18263039 0.15030922 0.0427906 0.06983135 0.053692672 0.14917503
0.14836708 0.071557514 0.16406867 -0.004389291 0.15283376 0.03771511 0.20404421 0.0986998
0.016775692 0.10460162 0.17927498 0.14284621 0.08526787 0.08082175 0.18249351 0.1068547
0.06284923 0.13095143 0.05089745 0.22425699 0.12665188 0.04021978 0.19269504 0.16582197
0.004568164 0.16193578 -0.023715705 0.13354932 0.081772625 0.115968965 0.16438378 0.078403905
0.09479422 0.03324161 0.02644768 0.12638938 0.16878356 -0.0009852934 0.14573583 0.11565639
0.002749014 0.15951012 0.111101955 0.18176386 0.06018225 0.12375422 0.17318499 0.012110749
0.07542962 0.158124 0.103106655 0.122940175 0.060451787 0.12722582 0.048179016 0.04663766
0.19294621 0.15711957 0.10471865 0.032574598 0.06601768 0.032289777 0.12679002 0.03495097
0.13441779 0.03102108 0.119129725 0.036147993 0.08419123 0.09351004 0.12927517 0.045818362
0.04303579 0.039229028 0.030289464 0.0966332 0.1370146 0.09194424 0.026936429 0.17764586
0.056347124 0.10593565 0.2007426 0.12347105 0.14415628 0.16723964 0.16670923 0.18889514

weight f4 [10, 256]
00000000: 2adf f33d 7d6b 87bd 2796 5e3e 4619 993e
00000010: 28d8 393d b29e ac3c 697d 88bd cc68 00bd
00000020: 5828 a1bc 24d4 883c df0d c2bd 1289 54be
00000030: 939f 9c3b a80d 13bd face e1bd b32b 73bd
00000040: 5d2c 4c3e 519a 933e ec76 eabd 07e2 fcbb
00000050: 406b c73e f917 0d3d 1c76 153d 9eb3 d5bd
00000060: 8168 77bc 287c 10be 13c5 a6bc 898b 96bd
00000070: e248 41bd f1ef 16be 4c2f 13be 4f09 31be
00000080: 1a8b 96bd 081a 5abd 6077 2d3d dc4e 42be
00000090: ea84 02be 3684 a9bd 7c79 fcbc f23b fb3c
000000a0: 382a 703d 8b66 0b3e 25b4 0a3e 7bb5 1ebd
000000b0: 8b23 c3bd 4e97 29bd 20fd 7abd 30c7 193e
000000c0: 1f89 4abd 2f7d 133e d52b 46be 8c5b d73e
000000d0: 2b95 663e 3007 32bc c9f2 39be 7b74 ffbd
000000e0: a515 9f3e ff0b 193d b8b0 4a3d e8bf 783d
000000f0: 4fdc 1abd 53d8 eebd 830d e4bc c1b0 2e3d
00000100: 0f67 4bbd 9972 943d d440 0bbe 576a 0f3e
00000110: 44f5 dcbc ca08 9ebe 8cbc e23c b4e6 99bd
00000120: 4a86 bcbd 6492 ce3d 05a8 50bc c8c8 09be
00000130: 9d0d 803e a6f7 773e d7b1 1c3c 982a 0d3d
00000140: cb69 60bc afab 143d 68df c8bd bccc 693d
00000150: b813 adbd c59f f0bc 2758 00be 45b2 3a3e
00000160: 03b0 7d3e e7bb 193e 3fbe 1a3d 167f 89bc
00000170: 98f2 2dbe 1a69 24be b3b1 c1bc d7b1 17be
00000180: c771 49bd e2ba 30be d5f6 66bc f183 8c3b
00000190: cd1a ac3e 1cc3 a23e 9d4e 1bbe a353 91bd
000001a0: 1a83 15be cbdc 1ebe 2090 c5bd 5436 a1bd
000001b0: 51f6 d33d 1599 08be c33e f1bd 9694 d43d
000001c0: 9f87 a83d 9c80 73bd 1682 053d 2d51 84bd
000001d0: e0a2 bd3e 8aeb acbd bb49 1abc e1b9 03be
000001e0: 84d7 81bd c2eb a43e 1c4c 1bbe a307 66be
000001f0: 1b8e 9dbd 4579 4b3e 80eb a3bc 1b39 b83b
00000200: 5fba 273b 6587 603d aecc 96bd 5176 11be
00000210: 4f4b 18bd a3d6 a2bc 332e 59bd 1b81 25bd
00000220: 9ab4 71bd 1447 933e 2799 fb3c db3f e63d
00000230: e0c9 6c3d 52b3 30bd 9189 8bbe b44c c3bd
00000240: 2f02 3a3e 58ee 1e3e a7d3 a3bc ba77 ca3d
00000250: ac2e a03e 3362 703e 84c5 64be 2f31 12be
00000260: 02b7 393d e28a d03d b2bb bf3d 4417 b93d
00000270: 138e fa3c 783a 01bd ba66 b1bc 4e0f 003e
00000280: 5eb3 e63d dfa2 30bd 2290 333e f7ba 1cbe
00000290: a0e9 a4bd 2760 883b 8387 6f3d ab1a 24be
000002a0: bfe0 963d 3b9a d2bd d8b1 923e d2fb 7abd
000002b0: eaaa 7ebe c3db eb3c 9160 3cbe bca1 b93d
000002c0: 219f 113c 0e2c 25be 880b acbd 79a7 193e
000002d0: cc4a ddbc 79d2 e63d 345d 3bbe 20af e23d
000002e0: a9ab cfbd 3ee9 ac3d d027 f7bd 31a7 65be
000002f0: 0af3 95bd 5695 b53d 63e1 63be c356 9b3e
00000300: 9a3c 033d e5b8 533e f87d 10bc 4557 b03c
00000310: 50ef 24be 0ceb a5bd cb02 1d3d 8e04 673a
00000320: 3cc5 c4ba e918 0d3e c8fd 89bd 6998 8abd
00000330: 6b4a 72bd ac95 973d 264c c73d 02ef 38be
00000340: 7656 8d3d 96f6 03be 7283 ce3d 77ff a2bc
00000350: a018 adbd e2a3 98bd 2c34 4abe b3f6 243d
00000360: bc0c 9fbd fbab 9e3e 4035 90bd 3f50 093e
00000370: 118a 903d e4d9 3cbe f4cd c73e 805d 95bd
00000380: 9e94 07bd 8e14 e93d 2b52 9abd 23b4 3e3e
00000390: 2681 72bd e4b2 ca3d 33a5 3ebe cc27 49bb
000003a0: fa40 c43e c1da 283c c7b9 6a3d f708 1dbd
000003b0: 9291 f8bd 5d8c b9bd c5ff 323e 2ba6 843d
000003c0: 4562 a93d ba7b d93c 72f4 013c 1428 1cbe
000003d0: 2b78 eabd 9564 24be e1ef 863e cd06 3fbe
000003e0: 9c28 313d c84c 5e3e 4d9f 293d a6c2 b7bd
000003f0: 2333 7c3e 7344 48be e0f9 29be c2f7 53bd
0.119077995 -0.06612299 0.21736966 0.29902095 0.04537216 0.021071766 -0.06664545 -0.031349942
-0.019672558 0.016702719 -0.09475302 -0.20755413 0.004779765 -0.035901695 -0.11025806 -0.059367847
0.19938798 0.28828672 -0.11448464 -0.0077173742 0.38949013 0.03444669 0.03648959 -0.1043465
-0.015100599 -0.14109862 -0.020357644 -0.07350833 -0.047188647 -0.14739968 -0.14373511 -0.17288707
-0.0735075 -0.05324748 0.042350173 -0.18975395 -0.12746015 -0.0827717 -0.030819647 0.030668233
0.058634013 0.13613336 0.13545282 -0.038747292 -0.09528264 -0.04140406 -0.061276555 0.1501739
-0.049447175 0.14403223 -0.19352658 0.42062032 0.2251784 -0.010865971 -0.18159021 -0.12473389
0.310712 0.037364956 0.04948494 0.06072989 -0.03780776 -0.11662354 -0.027838474 0.042649034
-0.04965883 0.0724842 -0.13598949 0.14005409 -0.02697242 -0.3086608 0.027677797 -0.07514706
-0.09205301 0.100865155 -0.0127353715 -0.13455498 0.25010386 0.24215564 0.009563885 0.03446445
-0.013697098 0.036296543 -0.09808236 0.057080016 -0.08451027 -0.029373059 -0.12533627 0.18232067
0.24774174 0.15013085 0.03777909 -0.016784232 -0.16987073 -0.16055718 -0.023644304 -0.14813934
-0.049180772 -0.1725879 -0.014096935 0.0042881896 0.33614197 0.31789482 -0.15166707 -0.070960306
-0.14600793 -0.15513913 -0.0964663 -0.078716904 0.103497155 -0.13339646 -0.11779549 0.10379903
0.08228993 -0.059448823 0.032594763 -0.064607956 0.37038326 -0.08443363 -0.009416993 -0.12863876
-0.063399345 0.3221112 -0.15165752 -0.2246385 -0.0769312 0.1987048 -0.020009756 0.005622042
0.0025593264 0.054816622 -0.07363258 -0.1420529 -0.037181195 -0.019877737 -0.053022575 -0.040406328
-0.059010126 0.28765166 0.030712677 0.11242648 0.05780971 -0.043139763 -0.27253392 -0.09536114
0.18164895 0.15520608 -0.019998385 0.09886117 0.31285608 0.2347496 -0.22340971 -0.14276575
0.045340545 0.1018274 0.09361972 0.09037641 0.030585324 -0.0315499 -0.02165543 0.12505838
0.1126468 -0.043124076 0.17535451 -0.15305696 -0.08052373 0.004161853 0.058478843 -0.16025798
0.07367086 -0.102833234 0.2865131 -0.06127531 -0.24869886 0.028791314 -0.18396212 0.090640515
0.008888037 -0.16130087 -0.08400637 0.15005292 -0.027013205 0.11270613 -0.18297273 0.11068559
-0.101401635 0.08442925 -0.120681405 -0.2242706 -0.07321747 0.08866374 -0.22253947 0.3033963
0.032040216 0.20676 -0.008819096 0.021525988 -0.16106915 -0.08101472 0.03833274 0.00088126294
-0.0015012394 0.13779034 -0.06737858 -0.06767351 -0.059153 0.074015945 0.09731321 -0.18059924
0.06901257 -0.12887034 0.10083665 -0.019897206 -0.084519625 -0.07453133 -0.19746464 0.040274333
-0.07766101 0.30990586 -0.07041407 0.13409518 0.07057584 -0.18442494 0.39024317 -0.07293224
-0.033100717 0.113808736 -0.075352035 0.18623404 -0.059205197 0.09897402 -0.18617706 -0.0030693887
0.38330823 0.010306061 0.057306077 -0.038338628 -0.1213714 -0.09059975 0.17480381 0.064770065
0.082706966 0.026548255 0.007931815 -0.15249664 -0.114487015 -0.16053994 0.26354888 -0.18654938
0.04325162 0.21708977 0.041411687 -0.08972673 0.24628882 -0.19557361 -0.16599226 -0.051749952

bias f4 [10]
00000000: f37b ac3d fbae b33b 4dda e9bd d0e5 f83e
00000010: 9cbf 4ebe 89b3 e63d 0a99 9a3d 88b9 523e
00000020: f4c2 933e c3a1 c2b9
0.08422079 0.005483506 -0.11418591 0.48612833 -0.2019028 0.11264712 0.07548721 0.20578587
0.28859675 -0.00037123085
