clean_data/models/intents_classifier.pth (torch, 735912 bytes, 4 tensors)

weight f4 [256, 701]
00000000: 7791 8abc 6605 15bd 14f9 2fbc fe71 983c
00000010: 88d8 1abd a58c f83c 2804 6f3a f059 04bd
00000020: 422e 1d3d 6e35 dabc 0436 d43c 330e 0e3c
00000030: 48d5 053d a715 573b 339a 013c fcca 023d
00000040: 0f0a 9bba 4491 01bd db8a 57ba a800 9c3c
00000050: ae9c 1fbb c70f f23b 745b ebba ae07 73bb
00000060: b5ab b83c a635 8b3c 8b78 b33c 827e f0bc
00000070: a396 223c c7d5 113d f6d0 79bc d18d c1bb
00000080: 77d4 143d 33af 723b 6030 0fbd b2c1 1a3d
00000090: 0ccf 66bc b9ca b9ba ce0b fe3c 1471 f0bc
000000a0: 4dee bcbc 0a11 053c 9f97 0f3d b05c 35bc
000000b0: 4d17 2f3c 8ba4 ffbc 5363 fb3c 3611 8b3d
000000c0: f546 00bc 30f2 853c 78f6 01bd 8bc7 fe3b
000000d0: d9bc 023d 4c1b 8bbc 31b1 b53c 8478 0d3d
000000e0: 483a 9abc 3a34 b939 7d45 9bbc 599e 923b
000000f0: 0ee1 a03a bcb5 373c 0325 633c 0963 b3ba
00000100: 26da 01bd 0660 df3c e43b cabc 2a80 2ebd
00000110: 9a82 dcbc ebf2 bdbc 13a3 e23b 2a13 c53c
00000120: a925 d8bc 7699 1abd f26d 8d3c cc07 2d3e
00000130: 5b77 ed3b c4fd d43c 963f a83c d07c 143b
00000140: c83e 043d 6d54 803c 5228 cdbc 1539 94bc
00000150: f3c9 073c 486b 7d3c cb31 84bc 9350 093d
00000160: 9478 80bc 932e e239 d3f6 913c a3a8 323d
00000170: fe7b f8bc 09bd 113d 6192 04bd 2be2 d23c
00000180: 295a 0ebc fc5e 033c 7b90 0a3d 952d e6bb
00000190: 3b1e 233d 5c92 cb3c eba4 76bc e004 a13c
000001a0: 9184 633c 5255 3dbc a806 d5bb 3544 8abc
000001b0: 0341 0a3d 5ee6 7a3b 1d1f 853c 5123 8fbd
000001c0: 76b7 083d 7b5b 29bc 03a8 24bc 1a82 b0bc
000001d0: acfa b33c 32bd 773c 3d8c 8c3b caaf 643c
000001e0: 82ee 5cbc f532 ce3b d23f 043d c605 953c
000001f0: 0dd1 ad3c 8183 a9bc 0ee5 e9bb 916e 933c
00000200: 8ef0 113d 76ef 8a3a aba4 f4bb ccfd c63c
00000210: 96a9 f73c b6e0 c83c 06c9 b3bb 6e40 c03c
00000220: 2420 003d 8c4b 5f3d e80a 13bd 8412 c4bb
00000230: f3d6 a83c 1d5b ce3b e3e7 6bb9 0bdf 393b
00000240: 052c 68bc 8989 083c 9db8 1f3d adfa 7c3c
00000250: a0b4 cabb 5a9b 08bd fecd 553d 8617 2a3c
00000260: fb99 853d 099c 9a3b f33b efba 6ac5 263d
00000270: 65dd 0f3e 5a60 9e3c bad9 d6bc c7fe d2b8
00000280: 954d 40bc 941d 023c a8dc ccbc 39cb ab3c
00000290: a7b1 d33b c992 98bb 252b 87bb 21e7 823c
000002a0: 22d8 ec3c 58af 983c e304 f8bc 42b7 bbbc
000002b0: 8122 6fbc b173 113c 58f4 f0ba 001e cdba
000002c0: 5579 973c a6e9 7c3d 144f 2ebc be45 f53b
000002d0: 6be2 6f3c 7d30 12bd 9c23 a43c 64dc d3bb
000002e0: 4ff0 b33c 2a02 babb 131c bb3c 9b61 ea3b
000002f0: 9f6c 8c3c c4c2 0a3c 2147 78bc d35d 813d
00000300: 250f 0bbc 3f88 ebbc ffac e6bc e4b0 afbc
00000310: e65b 973c c9bc bc3c 3d05 97bc 52ee 463b
00000320: 7a37 06bd 72e5 7e3c bea4 ec3c b311 e1bc
00000330: 37a2 a9bc 607a c1bb 3ffb 4c3c 5955 c83c
00000340: 7641 093d ee3e 053d 78e5 c63d b50d 19bd
00000350: 919f f03c 0724 113b cee5 32bc 1e48 eabc
00000360: dbf4 d73c f902 13bc 8f03 0cbd 760d cfbc
00000370: 41f0 513d 3399 d3bb 91b2 19bd e6b6 bbbc
00000380: 0a89 0e3d cd1e 533d 2c04 ce3c 2f14 473c
00000390: cbf4 323d d1f0 d43c 8997 f9bc 4268 793c
000003a0: 4ea7 c0ba 35ad 483c 36b5 d93c a512 113c
000003b0: 8d50 473c 0d31 b83c cb0a b53c 7b71 ef3c
000003c0: bcca d53a 5f49 d93a 12a3 773c 8520 febc
000003d0: 3293 80bc 771f a3bc 62a8 633c 727b d5bc
000003e0: fac3 12bd 6e2b c8bc ee7b 97bc 376f e6ba
000003f0: 7665 f4bc 476f 0d3d c74e 643c f7e0 ba3c
-0.016915066 -0.0363821 -0.010740537 0.018609043 -0.037804157 0.030340502 0.0009117746 -0.032312334
0.038374193 -0.026636805 0.025904663 0.008670378 0.032674104 0.0032819302 0.007910299 0.031931862
-0.0011828559 -0.031632677 -0.000822229 0.019043282 -0.0024354863 0.0073871347 -0.0017956332 -0.0037083435
0.022542814 0.016993355 0.021908065 -0.029357199 0.00992361 0.035604265 -0.015247574 -0.0059067984
0.036335435 0.0037030696 -0.034958243 0.03778238 -0.01408745 -0.0014174796 0.031011488 -0.029350795
-0.02306285 0.008121738 0.035056707 -0.011069462 0.010686708 -0.03120639 0.03068701 0.06790392
-0.0078294175 0.016350836 -0.03172919 0.007775252 0.03191838 -0.01698079 0.022179218 0.03453876
-0.018826619 0.00035324862 -0.018954033 0.004474443 0.0012274103 0.011212762 0.013863805 -0.0013686131
-0.031702183 0.027267467 -0.024686761 -0.042602696 -0.026917744 -0.023187121 0.0069164126 0.02405699
-0.026385145 -0.037744008 0.01726434 0.16897506 0.0072468943 0.025999911 0.020538133 0.0022657402
0.032286435 0.015665257 -0.02504364 -0.018093625 0.008287895 0.015467472 -0.016137024 0.033524107
-0.015682496 0.0004314078 0.01781789 0.043617856 -0.030332562 0.03558067 -0.03236616 0.02574261
-0.008688488 0.0080182515 0.033829194 -0.007024477 0.039823752 0.024850063 -0.015053968 0.019655645
0.013886587 -0.0115559865 -0.0065010376 -0.016878227 0.033753406 0.0038284282 0.016250188 -0.06989158
0.033378087 -0.010336752 -0.010049823 -0.021546412 0.021970116 0.015120791 0.0042891786 0.013957927
-0.013484599 0.0062926956 0.032287426 0.01819123 0.021217847 -0.020692589 -0.007137901 0.017997058
0.0356298 0.0010599929 -0.007465919 0.024290942 0.030232232 0.024521213 -0.0054866103 0.023468222
0.03128065 0.054515406 -0.035899073 -0.0059836525 0.020610308 0.0062974826 -0.00022497731 0.0028361704
-0.014170651 0.008333572 0.03899442 0.015440625 -0.006186083 -0.03335128 0.052198403 0.010381585
0.0652351 0.004718308 -0.0018252119 0.040715612 0.14049299 0.019333053 -0.026226867 -0.00010061036
-0.011737247 0.007941622 -0.02500756 0.020970928 0.006460387 -0.00465617 -0.0041250163 0.015979351
0.028911654 0.018638298 -0.030275768 -0.022914533 -0.014595629 0.008877681 -0.0018383367 -0.00156492
0.018490473 0.061746262 -0.010638971 0.0074851206 0.014641385 -0.035690773 0.020036511 -0.0064654816
0.021965174 -0.0056765275 0.022840535 0.0071527488 0.017141638 0.008469287 -0.015153677 0.06316724
-0.008487497 -0.02875149 -0.028158663 -0.021446653 0.018476438 0.023039239 -0.018435115 0.0030354452
-0.03276775 0.015557634 0.028887149 -0.02747426 -0.020707233 -0.005904481 0.012511074 0.02445476
0.033509694 0.032530718 0.097117364 -0.037366588 0.029372962 0.0022146718 -0.0109190475 -0.028598841
0.026361873 -0.008972877 -0.03418308 -0.025274973 0.051254515 -0.0064574718 -0.03752381 -0.022914361
0.03479866 0.051543046 0.025148474 0.012150808 0.043690484 0.025993736 -0.030467765 0.015222611
-0.0014698298 0.012248327 0.026575666 0.008854543 0.012165201 0.022484327 0.022099873 0.029228916
0.001631103 0.0016577652 0.015114563 -0.031021366 -0.015695188 -0.019912465 0.013895126 -0.02605984
-0.03583143 -0.024434771 -0.018491711 -0.0017580752 -0.029833537 0.03452995 0.013934798 0.02281235

bias f4 [256]
00000000: 0b98 503d edcf 593d e7de 273e 04a0 aa3d
00000010: b7bd f93d cb52 e03d a601 d63d 0f61 b23d
00000020: de2e d63a 4df4 363e 7e75 b13d c8ef a53d
00000030: 9ed6 f83d e0d6 97bc 7914 1d3e ec15 1e3e
00000040: 635e 2a3e 854f 093e 11f2 193e 50ab 5f3d
00000050: cda9 f83d 1992 863d 3548 d03d 0945 5ebd
00000060: 6f64 fd3d 0a2a f33d c172 813e 2751 ea3d
00000070: 1942 bc3d 5d64 213d 845d 013e 6163 213d
00000080: ac71 0e3e 1c83 943d e98b ba3d 2d5d 533e
00000090: 7d3a 6b3d 91d8 4a3d 97bf 323e d20d e53d
000000a0: ff15 e73d 6dd9 9c3d f8cf c53c 15d8 e7bb
000000b0: ac21 4e3d 8f9b 113e 1bd8 033e ecb8 243e
000000c0: 9d94 f73d f777 0a3e 73a9 a93d bc37 b73d
000000d0: 7978 ba3d e254 833d aa77 843d d11d 8b3d
000000e0: add5 433e 26ba 013e 42c4 1e3e 2bae ab3d
000000f0: 14d0 013e 014e 713d 8b09 123e e483 1c3d
00000100: bb12 8c3d 6b2e d53d 96ca 1a3e b696 a33c
00000110: e6e2 d53c 29ea 2b3e e48b d23d b249 213e
00000120: 645f 393e 6fca b23c 8c92 e63d ec92 a13d
00000130: ff68 983d cb01 263e a977 993d a7d2 923d
00000140: 5e59 563e 290c 003e 0e03 c43a 0900 443e
00000150: b4d8 613c 893e c83d 0a03 f83d 2009 c13d
00000160: 7fcf 473e fa6a 7f3d a131 783d a538 363d
00000170: d46a b93d 8f4a ee3d b0bc cf3d 225d 093e
00000180: 3e75 213e 4391 5b3e 0092 fd3d 1477 423d
00000190: 81c6 043e 528e 113e 784d af3d 6d96 473d
000001a0: f612 203d 3ebe 1e3e 1550 413e f43d 703c
000001b0: f615 ebbc d965 543e c10a ba3d cc7a a33d
000001c0: 2066 213e 44df f53d 8b7e 813d b627 8c3d
000001d0: 6d04 ca3d d1d7 033e 5aee 563e eb05 403d
000001e0: 1b0d 973d 072a 1e3e a0e3 f23d bf74 aa3d
000001f0: ec91 6c3d 8f51 f33d 2e60 ef3d 66bb eb3d
00000200: 6a1d 593d cc27 e23d 933f 5f3d 40f8 c83c
00000210: 37b7 e73d 32ab 243d 420d 7b3e d696 313e
00000220: fc55 923d 52e0 143e cdc9 fe3d 91c0 133d
00000230: c166 883d 25cb bf3d 4d57 533e 369a ef3d
00000240: 39fa eb39 b7fb ee3c bec8 303e 1800 133e
00000250: 8221 4b3d e433 d83d db3d 713d 6da9 0a3e
00000260: becf 113d b39b 943d bb41 533e be9e c83d
00000270: a78a 483e d4e1 dc3d d8d9 0a3d e4fa bd3d
00000280: b962 203d cf6d 113d 450f 593e b231 ca3d
00000290: cfc9 dd3d ed5f 3c3e 875c a53d e479 1a3e
000002a0: c889 da3d c7dc ce3d 64bc 603e e6d4 a03c
000002b0: 2653 2e3e 38c1 8f3d 72b3 e63d d28f 773e
000002c0: 2143 943d 1d66 2d3e 5400 0e3e 3da8 443e
000002d0: 3283 3b3e 2446 c23d 270b 043e 3081 363e
000002e0: 8607 373d 57c6 a93d 87d6 d93d 8115 1f3e
000002f0: 95e8 1d3e e7cd db3d bad3 573e 5c26 123e
00000300: b800 163e 4314 bd3d 1aa7 5c3e aa75 d43d
00000310: b9dc f73d 4c7a 04bd 0fef 953d 3ed7 d43d
00000320: fe19 c33d d07a f03d ae42 6a3d 7c33 c73d
00000330: 6989 dc3d 53da 193e e247 cd3d 4d02 243e
00000340: 1f39 1b3e 7e73 8b3d 2b3c 183e 78e8 793e
00000350: 1c08 e13d 5731 d53d eb98 153e adf6 a13d
00000360: 56b2 053e 3789 b83d d4ac 0a3e 776f 8d3d
00000370: 833e c43d 8004 2a3e 101b bb3d 2694 ad3d
00000380: 8838 983d 93ba 1c3e bacd 95bc f13d 063d
00000390: a1ce 623d 89c5 f83d faf9 023e 8f10 4f3d
000003a0: 057d 193e f5ff ec3d 416c c73d 2faa 853d
000003b0: de27 2d3e 3a7d 2d3e edd7 0d3e 5441 563e
000003c0: 9613 383e bdab 0d3e bedf 033e a24f a93d
000003d0: 5b63 f13d bc1f 9c3d 9482 563d f8d0 b33d
000003e0: 4681 393e b062 d23d 7082 c73d 6037 b53d
000003f0: 426d b23d 49d9 523e 74bb 5e3d 2370 343e
0.05092625 0.05317681 0.16393624 0.08331302 0.12194388 0.109532915 0.10449533 0.08709919
0.0016340872 0.17866631 0.08664988 0.08102375 0.1215031 -0.018535078 0.15339841 0.1543805
0.16637568 0.1340924 0.15033747 0.054606736 0.12141762 0.06570835 0.101700224 -0.054265056
0.12372672 0.11873253 0.25282863 0.1144126 0.091922946 0.039402355 0.1263333 0.039401416
0.1391055 0.0725157 0.09108717 0.20641012 0.057428826 0.04952294 0.17455898 0.11184277
0.11283492 0.07658658 0.024147019 -0.0070753195 0.05032508 0.14219497 0.12875406 0.16086167
0.120888926 0.13522325 0.08284273 0.08946177 0.091050096 0.064126745 0.064681366 0.067927964
0.1912448 0.12668666 0.15504554 0.08382829 0.12677032 0.05891228 0.14261453 0.03821172
0.0683951 0.10409244 0.15116343 0.019969326 0.02610917 0.16788544 0.10280588 0.15750769
0.18102795 0.021825043 0.1125842 0.07889351 0.074419014 0.16211621 0.074935265 0.07169085
0.20932528 0.12504639 0.0014954524 0.19140638 0.013784576 0.09777553 0.12109955 0.094255686
0.19512747 0.06235788 0.060594205 0.044487614 0.09053579 0.11635315 0.10143411 0.13414434
0.1576738 0.21442132 0.12381363 0.047476843 0.12966348 0.14214447 0.08559698 0.04872744
0.039080583 0.15502259 0.18878205 0.014663208 -0.028696995 0.20741977 0.090840824 0.07982406
0.15761614 0.12005475 0.06322964 0.06843512 0.098641254 0.12875296 0.20989361 0.046880644
0.073755465 0.1544572 0.11859822 0.08323049 0.05775635 0.118807904 0.11688267 0.11510353
0.053006567 0.11042747 0.05450399 0.024532437 0.11314242 0.040202327 0.24516776 0.17342696
0.071453065 0.14538696 0.12440834 0.036072318 0.06660224 0.093649186 0.20638771 0.11699335
0.00045009123 0.029172761 0.17264077 0.14355505 0.049592502 0.10556772 0.05889688 0.13541193
0.03559851 0.0725626 0.20630543 0.09795903 0.19584142 0.10785261 0.03389916 0.09276369
0.03915665 0.035505112 0.21197231 0.0987276 0.108295076 0.18395968 0.08074289 0.1508556
0.10670811 0.10100704 0.21946865 0.019632768 0.17023906 0.070192754 0.11264695 0.24175957
0.07239366 0.16933484 0.13867313 0.19204803 0.18311766 0.094860345 0.1289488 0.17822719
0.04468491 0.082897834 0.10636621 0.15535547 0.15420754 0.10732632 0.21076861 0.14272445
0.14648712 0.0923238 0.21548119 0.10374005 0.121026464 -0.032343194 0.073209874 0.10392617
0.09526442 0.117421746 0.057192497 0.09726617 0.107683964 0.1502469 0.10023476 0.16016503
0.15158509 0.06809138 0.14866702 0.24405086 0.10987875 0.104098015 0.14609115 0.07908378
0.13056311 0.09010547 0.13542491 0.06906026 0.09582236 0.16603279 0.09136021 0.08475523
0.074326575 0.15305547 -0.018286575 0.032773916 0.055372838 0.12147052 0.12790671 0.0505529
0.14989097 0.115722574 0.09737445 0.065266006 0.1690974 0.16942301 0.138519 0.20923358
0.17976221 0.13835044 0.1287832 0.08267142 0.11786529 0.0762324 0.052370623 0.08780092
0.1811572 0.102727294 0.09741676 0.088484526 0.087122455 0.205907 0.054377988 0.17620902

weight f4 [13, 256]
00000000: e55e ccbd 1422 8c3d 724f ef3c 2edf 16be
00000010: 2a40 163d dcd8 61bd 888d cabd 95f4 1dbd
00000020: ed8b b3bc c729 4dbd 46da 803d b3ef de3d
00000030: a795 22be 8ec9 2c3c ae37 8c3e 165a d53c
00000040: ca5d 00be 2195 a53e ec6d 873d e5f4 273d
00000050: 0e61 67bd 423d 23bd 12b6 fcbd 420b eb3c
00000060: a203 bbbd 0137 4a3e e284 5bbe 6579 183e
00000070: 8336 06bd 87bf fabb 4de1 ec3d 9250 2abe
00000080: 5e4a 9fbd b1cc 04bd e0b5 8f3d a766 46be
00000090: 3099 173d cf84 90bd 8dc2 583e a23b cebd
000000a0: d850 21bd 4c77 f63c 84d6 99bd 8536 d93a
000000b0: 5c8b 9fbd 5239 08be e140 58bd 172d 0cbe
000000c0: 956c d53d 3884 b5bd d6f2 3a3d e303 18bd
000000d0: 6340 eabd f1fc 56bd 490b 1dbd 69d1 873d
000000e0: 87f0 17be a084 13be b4ac 4cbe 6910 d8bd
000000f0: 8212 10be c6f9 99bd ec18 80bc 6a1f bcbd
00000100: c446 623c 4621 1fbe 7706 743e ba6e bdbd
00000110: 0cf5 813d 93bd 2b3e 0a07 91bd ad0f e23c
00000120: a56c 3cbe 6650 f23d 942e 21bd 24ea 22bd
00000130: fbe8 9dbd 4c27 823e 2851 00be 57fc a9bc
00000140: cfd9 87be b36d b03e 0ae1 7dbd 8d99 473e
00000150: 2cfe 0ebc 7821 e3bb b405 1bbe 30cb bfbc
00000160: 074d 38be 6bb1 5ebc b6cb 3e3e fd3d 95bd
00000170: 25c9 5cbe 432f 1abd 3caf 6b3e 1807 f5bd
00000180: b538 e3bd d7c5 a03e f377 883e 8225 2c3d
00000190: ae22 d83d 0db2 0bbe b8b9 48bc db4d 77bc
000001a0: d789 273b 7292 7f3e 975e 4fbe 5484 003d
000001b0: 9e86 17bd b0cc 27be 3bd1 1fbe db1c 5b3d
000001c0: 0813 2bbe bfc5 8e3e 5bc5 d9bd f9bf 4b3d
000001d0: 614e f9bd f9b0 40bd aed0 41be 28ad 58bc
000001e0: 24d3 93bd 2fb2 2dbe f947 4abc f984 1f3c
000001f0: 025c 823e 7c86 1d3e 4186 3d3c 18af 833e
00000200: cc7c 783e 6ff2 0b3e c0a7 e6bd 31f3 43bd
00000210: 96c6 523d e100 b23b 1ded 883e 848b 7abe
00000220: 2c70 0d3d c235 003e d6d4 febd 317e c6bb
00000230: a8fe 363e 5d48 f63d 163f 5abe b882 c8bd
00000240: 7116 93bc 11af fa3c 4b3a 38be c2e0 2abe
00000250: 8aa3 633e f72a e53d c582 37bd bf35 2dbc
00000260: d3c3 c4bd 5f8c 803c a325 28be a87a 993e
00000270: 9880 dd3e daa2 83be 4af6 b53b 676f cabd
00000280: b321 a1bd cc98 febc d2ba 01be c0d1 d93d
00000290: f79c 49be df92 89bd 4fe7 0ebd ac91 bebc
000002a0: 609e 8abd 4098 bd3d 1722 a43e ebe4 c9bc
000002b0: c07c ddbd 2725 84bd 084c 833d 160c f9bd
000002c0: 3092 05bd 1aad 48bd 0f27 9ebc 8da9 27be
000002d0: 2bd5 bfbc 33bf c13d 3ee5 b2bc 78bf 043d
000002e0: b565 983e 0965 a13d 8ff8 16bc e282 1bbe
000002f0: a245 013e 0d6b 4abe 958a 23be d6bf bcbd
00000300: f504 d23d fea6 adbd f3ce 4c3e cfbb 03be
00000310: 0c2e 1cbd 346a bb3c 0c87 93bc 3b83 a43d
00000320: 589c 21bd 5f1e 2a3e 956d 9ebd 2aac 5f3c
00000330: 15e4 ccbd 6788 1cbe d9fa 713d 98a1 ba3c
00000340: f7af af3d 7f5d ebbd 76b8 21be 7936 463e
00000350: 2d60 183e 19d0 34bc 8935 5cbe 0e8b dcbd
00000360: 7266 303c 70bf 7d3d 6499 3fbe 9c0e e03d
00000370: 09db e43d 1c42 12be 0690 343d 423d 17be
00000380: d0a8 22be 5e77 7e3e 2e85 513d 85bf 4dbd
00000390: 38e7 203d 2914 acbd f5eb 2e3e b053 db3b
000003a0: 9bbf 08bd d778 b6bd 73cf 1ebe 8f37 243e
000003b0: 72de c93d 77d1 a03d 0ef6 86bd 3785 193e
000003c0: 7afc cb3c e072 b13e 99c4 b53e 97d1 463e
000003d0: 8ae3 19be c5e5 193e dd60 c4bd abdf a83d
000003e0: 8ab2 933d 7e67 20be a59d 1a3e 1a58 df3e
000003f0: 4e49 133e f818 2cbe 8f5c 983e 9527 debd
-0.09979037 0.068424374 0.029212687 -0.14733574 0.036682285 -0.055138454 -0.09890276 -0.03856333
-0.021917308 -0.05008867 0.06291632 0.10885563 -0.158774 0.010546101 0.2738623 0.026043933
-0.12535778 0.3234034 0.06612763 0.041005034 -0.056489043 -0.039853342 -0.12339415 0.028691892
-0.09131552 0.19747545 -0.2143741 0.14890058 -0.03276683 -0.0076522264 0.1156641 -0.16632298
-0.07777856 -0.03242177 0.07017112 -0.19375096 0.037011325 -0.07056581 0.21167965 -0.10069968
-0.03938374 0.030086182 -0.07511619 0.0016572034 -0.077902526 -0.13303116 -0.05279625 -0.13689075
0.10421101 -0.08863109 0.045641743 -0.03711308 -0.11438062 -0.052487317 -0.03834084 0.06631739
-0.14837848 -0.14406061 -0.19987756 -0.10550005 -0.1406956 -0.075183436 -0.015636884 -0.09185679
0.013810817 -0.15540037 0.23830591 -0.09249635 0.06345567 0.16771536 -0.07081421 0.027595365
-0.1840082 0.11831741 -0.03935106 -0.039774075 -0.07710453 0.25420606 -0.12530959 -0.020750208
-0.26533362 0.34458694 -0.061982192 0.19492169 -0.0087275915 -0.00693148 -0.15138894 -0.023412317
-0.17998134 -0.013592104 0.18632397 -0.07287214 -0.21561106 -0.03764273 0.23016065 -0.11964244
-0.110948004 0.3140094 0.26654014 0.042027958 0.105534896 -0.1364214 -0.01225131 -0.015094246
0.0025564337 0.24958208 -0.20250927 0.031376198 -0.036993615 -0.16386676 -0.15607159 0.053494316
-0.16706479 0.27885243 -0.10633346 0.049743626 -0.12173153 -0.047043774 -0.18927261 -0.013224877
-0.07218006 -0.16962503 -0.012346261 0.009736293 0.2546082 0.15383333 0.011567653 0.25719523
0.24266356 0.136667 -0.112624645 -0.047839347 0.051458918 0.0054322337 0.26743403 -0.24467283
0.034530804 0.12520507 -0.12442939 -0.0060575237 0.17870581 0.12025521 -0.21313128 -0.097905576
-0.017955037 0.030601056 -0.17990987 -0.16687301 0.22230354 0.111898355 -0.044802446 -0.010571896
-0.09607663 0.015691934 -0.16420607 0.29976392 0.43262172 -0.25710183 0.0055530416 -0.098845296
-0.07867756 -0.031078719 -0.12668923 0.1063571 -0.19688784 -0.067174666 -0.03488856 -0.023262821
-0.06768489 0.09257555 0.32057258 -0.02464529 -0.1081481 -0.06452399 0.06410986 -0.12160508
-0.03261012 -0.048993208 -0.019305734 -0.16373272 -0.023417076 0.094602965 -0.021837827 0.03240916
0.29765096 0.07880599 -0.009214534 -0.15186647 0.12624219 -0.19767399 -0.15970834 -0.09216277
0.10254852 -0.08479117 0.2000082 -0.12864612 -0.03812985 0.02287779 -0.018008731 0.08032843
-0.03945574 0.16613148 -0.07735745 0.013651887 -0.10004441 -0.15286408 0.059077118 0.022782132
0.085784845 -0.11492442 -0.15793023 0.19356717 0.14880438 -0.0110359425 -0.21504797 -0.1076871
0.010766612 0.061950147 -0.18710858 0.109402865 0.1117459 -0.14283031 0.044082664 -0.14769462
-0.1588471 0.24850222 0.0511524 -0.050231475 0.039283007 -0.08402283 0.17082198 0.006693326
-0.033385854 -0.08909767 -0.15508823 0.16036819 0.09856881 0.07852452 -0.065899 0.14992224
0.024900664 0.34657955 0.35501555 0.1941589 -0.15028206 0.15029056 -0.09588788 0.08245786
0.07211788 -0.15664479 0.15099199 0.43621904 0.14383432 -0.168064 0.29758117 -0.108473934

bias f4 [13]
00000000: c0da fdbc 43f1 86bc 29cb 98be 4902 5ebb
00000010: ce96 aabd 9311 32bc 7a4c 11bd 5108 4bbd
00000020: cc1b 373e da27 e83e 970b f8bd c1de 233e
00000030: c419 4bbd
-0.030988097 -0.016472464 -0.298425 -0.0033875874 -0.08329545 -0.010868448 -0.035473324 -0.049568478
0.17881697 0.45342904 -0.121115856 0.16002943 -0.04958512
