clean_data/models/intents_classifier.pth (torch, 778920 bytes, 4 tensors)

weight f4 [256, 743]
00000000: ae99 ee3c 7ed7 233d 7907 84bc 05bb a3bb
00000010: 201a 1cbc 3d39 06bc 7184 b5bb a251 a33c
00000020: db72 3bbb ecda ea3c 72d3 bfbc b9bc 9e3c
00000030: a1b0 953c 3bb3 193d c5a1 353d 0435 2b3d
00000040: aa72 903c e0cc 653c 956b 3b3d 45dc df3c
00000050: 0bdb d13c 768b bfbb e271 1cbc 2d72 a9bc
00000060: 17fb f23b dc85 d53b e202 33bb c522 a23b
00000070: a588 fe3c a94f e5bb ff18 b4bb efe2 833c
00000080: 484e 39bc 5094 97bc 245b 503c 2af5 2bbd
00000090: 3259 4e3b e769 b13c 7164 dc3c 39b4 b8bc
000000a0: 567b 0abd 267e 51bc bf54 533c 36a1 e53b
000000b0: 6829 183c dbc7 dd3c a12c d9bc ca9c b8bc
000000c0: 0410 013d 9145 c63c 1f0b 063c 216a 1f3d
000000d0: 6ee0 643c 65f1 733a 7416 60bc fcf4 cdbc
000000e0: 7d13 f23c 84dd 0bbd a83d 663d b22b 783c
000000f0: 9bc6 893b c1f0 12b9 5639 073c fbdc 9ebc
00000100: 0bc5 2f3d 3bbc f4bb 1f89 873c 600c b0bc
00000110: 4632 9ebc 820f 073e 40e5 a9bb 1d77 263d
00000120: bfe2 e63c aec9 cd3b 16d6 a23b c024 1b3e
00000130: 2fa5 c2bb 2f5d febb 362d 6cbc a5db a43c
00000140: 6b12 10bd 7df9 79bc c926 ec3b 64e7 073d
00000150: fa63 c33c abd5 473d 735c 0f3d 8f99 723d
00000160: 3dce 7d3c 197e 543d f1d6 ca3c 941f c1bc
00000170: e40c 013d 63be 92bc e282 273b 459a 2c3c
00000180: a126 363d 8d19 3e3d dc63 22bd 4994 5fbb
00000190: 6b16 d8bb 1925 cd3c 44e3 a5bb cbdb a2bc
000001a0: a5fa c53c 3225 693c 6a43 b6bc 36fa 84bc
000001b0: 62b1 43ba a426 be3c 9851 d73c 9576 093d
000001c0: b14f 0f3d 9886 a7bc db15 47bd 5f35 0f3d
000001d0: e5a6 5d3c 8968 0d3c 1b2f c53c 3d5f ecbc
000001e0: 8065 08bd 5ff3 913c a6aa ebbc 8fc1 a13c
000001f0: 00df f4bb e201 313c 1344 dcba 6046 543c
00000200: a81c 073d f646 15bd 9f39 e3bc a121 f8bb
00000210: d961 843c ee90 64bc 714e b73c 0e55 10bd
00000220: 07b4 813c 93a2 9fbc 48b6 e93c af8a 663c
00000230: 15ee b33b ca21 be3c d639 d6bc bf5f 04bc
00000240: 61bb ee3c bc48 183d f19d 16bd 9a3a 5d3c
00000250: f6d9 0dbd 7d1e babc 8ed9 bfbc bbb7 04bd
00000260: 343e dbbc 142c b93b c56d 17bc 3cc3 d7bc
00000270: f47d 073d 2b0c e73c e4c7 673c 11ea 0e3c
00000280: 324f c33b a289 80bc 27c7 9a3c 8b37 08bd
00000290: a2a3 d73a 43f5 0fbd 6619 323d a76f 143d
000002a0: 798e f3bb 47d0 dabc 42e6 f4ba e18e c23c
000002b0: 9fbe 9fbc 22ba a63c 949d d03d 1564 c73c
000002c0: 0e7c 933c bced 9b3b 0c76 593c 93d1 00bd
000002d0: cc8e 6e3c d7ce 12bc 6140 bd3c 4b54 ccbc
000002e0: c8a4 96bc b990 edbc 743d 903b be9b d0bc
000002f0: 5f51 243c aa91 113d 6ad2 21bc 0b78 9e3c
00000300: 710f 813b b219 01bd 6428 923c b691 423c
00000310: 35d6 9abc d3ed 0f3d 8dc1 15bc da76 f63c
00000320: c676 913c 5700 f1bb 74a1 743b 8ac6 57bd
00000330: 4221 1fbc 829b 4d3c 15cd 3a3b b45f 863c
00000340: 4732 19bc bf0f 4c3c ba5d 60bc 43ee 523c
00000350: c4a6 dc3b 9221 4dbc 39b7 373d 3e7b 16bc
00000360: 8d30 e3b7 3a06 22bd cd6d 963c ff04 2e3b
00000370: d91c b63c f757 f33c 5877 623d d3e8 80bc
00000380: 2236 3a3d 2a4c e4bc 01c5 1e3d 8f00 dd3c
00000390: 21be d3bc 12b3 b5bc 8cd3 4e3c c50a 65bc
000003a0: f112 dbbc f5ac 0fbc bffb 863c 849b 18ba
000003b0: c3c6 053d 8d7b d9bc fefa 2a3d 1142 18bc
000003c0: 1b3c 4a3d 0626 873c f526 163d 9661 bc3d
000003d0: 4f96 343b 55ec 59bd 429c 6ebc 45ba 73bc
000003e0: 211a b73c d5db 6fbc d130 3a3c eb66 f1bc
000003f0: c78f 483c b7c6 cabc d0e0 07bd 5df8 633c
0.029126015 0.04000043 -0.016116844 -0.0049966597 -0.009527713 -0.008192358 -0.00553947 0.019936386
-0.0028602395 0.028668843 -0.023416255 0.0193771 0.0182727 0.037524443 0.04434373 0.041798607
0.017632801 0.014025897 0.045756895 0.027326712 0.025617143 -0.0058454825 -0.009548636 -0.020684326
0.007415186 0.0065162014 -0.002731495 0.0049479925 0.031071017 -0.0069980216 -0.005496144 0.016099421
-0.011310168 -0.018503338 0.012717042 -0.041981854 0.003148627 0.021656943 0.026903363 -0.022546874
-0.03380903 -0.012786424 0.012898623 0.007007743 0.009287216 0.027072838 -0.026510539 -0.0225357
0.031509414 0.024203094 0.008181362 0.03891957 0.013969524 0.0009305685 -0.013677228 -0.025141232
0.029550308 -0.0341468 0.056211144 0.0151471365 0.004204584 -0.00014013333 0.008253416 -0.019392481
0.042912524 -0.007468728 0.016544877 -0.021490276 -0.019311082 0.1318951 -0.0051847994 0.04064094
0.028184293 0.0062801456 0.0049693687 0.15150738 -0.0059401016 -0.007762573 -0.014415076 0.020124266
-0.035173815 -0.015257237 0.007206772 0.033179656 0.023851383 0.048787754 0.035000276 0.059228476
0.015491066 0.05187807 0.024760695 -0.023574628 0.031506434 -0.01791305 0.002556019 0.010534828
0.044470433 0.046411086 -0.039646015 -0.0034115484 -0.0065944693 0.025042104 -0.0050624926 -0.019880196
0.024167368 0.014230059 -0.022248942 -0.016232591 -0.0007465092 0.023211785 0.026284024 0.033560354
0.03498811 -0.020449921 -0.048604827 0.034963008 0.01352856 0.00863088 0.024070313 -0.028854007
-0.033299923 0.017816244 -0.028767895 0.019745616 -0.0074728727 0.010803672 -0.0016804956 0.012956232
0.032986313 -0.036444627 -0.027737437 -0.0075723683 0.016159939 -0.01395057 0.022376271 -0.035237364
0.015832914 -0.019486701 0.028529301 0.014071151 0.005491028 0.023209471 -0.026150625 -0.008079468
0.029142084 0.03717874 -0.03677172 0.013502741 -0.034631692 -0.022719616 -0.023419168 -0.03240178
-0.02676306 0.0056510065 -0.00924248 -0.026338212 0.033079103 0.028204044 0.014146779 0.008722798
0.0059603686 -0.015690628 0.018893791 -0.033256095 0.0016451965 -0.03514601 0.043481253 0.036239292
-0.0074327555 -0.026710643 -0.0018684345 0.02374977 -0.019500075 0.020352427 0.10186306 0.024339715
0.01800349 0.0047585648 0.0132727735 -0.031449866 0.014560413 -0.008960447 0.023101987 -0.024942538
-0.01838912 -0.028999673 0.004401857 -0.025464889 0.010029166 0.035539307 -0.009876827 0.01934435
0.0039386083 -0.031518646 0.017841525 0.0118755605 -0.01890097 0.035138916 -0.009140384 0.03008597
0.01775683 -0.007354777 0.003732768 -0.052679576 -0.009712519 0.012549283 0.0028503586 0.016403057
-0.009350366 0.012454926 -0.013694221 0.012874189 0.006733747 -0.012520211 0.04485247 -0.009184657
-2.7083117e-05 -0.03955672 0.018362904 0.002655327 0.022230553 0.02970503 0.055289596 -0.01573602
0.04546178 -0.02786835 0.038762096 0.026977805 -0.025847496 -0.022180114 0.012623679 -0.013979618
-0.02674243 -0.0087692635 0.016477464 -0.00058215135 0.032660257 -0.026548171 0.04174327 -0.009293095
0.049373727 0.016497623 0.036658246 0.091983005 0.0027555411 -0.0532039 -0.014563622 -0.014875953
0.022351326 -0.014639814 0.011364178 -0.02946802 0.01224131 -0.024752958 -0.033173382 0.013914195

bias f4 [256]
00000000: 8da3 ca3d cb1f 1a3e d3b1 acbc 3cc6 723d
00000010: 066a 2d3e d1d7 aa3d 9abf d33d 6f8b 9a3d
00000020: 254b 123e 4a7b 633e c1c6 173d b91e 483e
00000030: 4fc4 ab3d 6f48 543e a1e5 163e 8a2c 053e
00000040: 7bab f43d cf11 243d afdb ca3d 475f 023e
00000050: a16d b33d 6361 65bc ac45 203e 0c00 233e
00000060: 65dc 033e 2452 293e dc39 233e 75b9 813d
00000070: d1a5 6b3d 77dc 393e d1da d23d 163b 693d
00000080: 2a13 213e d7b5 a13d 4fa2 b13d 032c a43c
00000090: fc8f 163d 339b 233e 1974 3b3d 9c4a 0b3d
000000a0: 3206 833d 4cf0 9e3d 1eeb d2bb 14aa f63d
000000b0: d16c 8cbc e4e8 a43d 16c4 ff3d fd8e 093e
000000c0: e1ba 243e 890c 863c 19cf f83d a0d1 653c
000000d0: 95d7 8e3c 9d81 243e 701e a93d ca25 153e
000000e0: 152a a83d 1f93 323e 51e0 283e 87ec dc3d
000000f0: beb1 383d 39b7 873d f108 1a3e 1f57 8e3d
00000100: 60e8 203e a7b1 133e 205c 103e 8647 333e
00000110: 0f07 1b3e 89db 743d 71b2 f93d de46 8e3d
00000120: 4ccf 823e b571 f63d 8606 4d3d 8342 1d3e
00000130: 0836 b63d 2424 103c ecaf a6bc ca06 443e
00000140: bd5f 683d a652 233e 8e29 d63d e74a fa3d
00000150: 8a2d a33d d07f c33d dbff 713b 2ade a33d
00000160: ca8f 353d 8470 903d ecd1 543d df0e 013e
00000170: 1f31 283e b249 9c3c 1827 d6bb e53e ea3d
00000180: ec09 c93d 07ac d63d d34b 233e de5a e13d
00000190: 5d54 a13d 8fcb f03d 66a9 863c 4b16 ce3d
000001a0: e600 f43d 788b c43d 47c7 933d 299b a43d
000001b0: b118 8f3d 558f 103e 4a63 123e 35d3 fa3d
000001c0: a3f7 d43d c626 6e3e 23ff e43d 4320 013e
000001d0: e0b4 ce3d 675f 523e 0d54 b83d 10f5 2f3e
000001e0: 8ad0 643d 31be e13d 9013 f33d 55a3 b13d
000001f0: a701 e53d f6e3 8e3d c291 273d 2611 053d
00000200: 9038 a93d 7eee 5b3d b425 023e 42b7 1a3e
00000210: 9c86 953d c6f8 ba3d df9e ca3d bffc 923d
00000220: bbe2 483e 82f7 38bc 54d8 923d 19a8 c83d
00000230: 18e9 ed3c d560 b53d 7587 893d 10d5 f73d
00000240: 33f2 153e 8086 8c3d 4fec 9a3d c523 ec3c
00000250: 2998 0b3e 6595 e93d 1e7c c83d 8168 b93d
00000260: 1a79 9b3d 45cd 1a3e ea6c 833d 6b7a 183e
00000270: 6005 af3d 09dc a53d d16c 793d 53ae 2c3e
00000280: 222f f93d ee0d dd3c 29b1 043e fc6c 283e
00000290: ca82 2c3d 90bd 27bd afd7 443e 55b4 163e
000002a0: e3f1 113e 90c2 c23d 922e 0b3e 54a2 1b3e
000002b0: fb15 0d3e d70d 7a3d 4f41 133e e727 dd3d
000002c0: 1bcd 983d 62ca b03d 49ee 583d a95a 6d3e
000002d0: 3251 9e3d 4bd8 e03d 67dc 273e ac79 9a3d
000002e0: afab 1f3e 925c 973d cee6 cd3d dfde a13d
000002f0: b6c3 5d3e 8a4f 4a3d 8e49 013e 9c2b 923c
00000300: bb0d ee3d 1b04 1b3d 9de8 543d c685 163e
00000310: 541b 993d 2c3d a93d 406a 613d ed14 d93d
00000320: 53d1 db3d 475b 0f3e bb31 94bc c5b0 7b3d
00000330: 7d05 c53d 3e69 463e fcdd de3d 6eca f93d
00000340: 4a36 243e d15e 9c3d bfb4 1f3e c084 423d
00000350: 45a8 ae3d fcbb f23d fd88 f5bc b7c8 a13c
00000360: 8525 ea3c d3c5 283d bc47 be3d e07a 8b3d
00000370: d77b eb3d 4bfc 093e 5f42 103d b56f c53d
00000380: 7dda 023e 07f8 0e3e 4b21 1e3d 0614 1f3e
00000390: 4981 b33d 631d da3d 9d2e 0cbd 5615 e83d
000003a0: afe5 933b 0c2b 1a3e c639 e53d 99a4 aa3d
000003b0: 0336 a33d a079 833d 3c2a 393e 0d4a 173e
000003c0: 6a96 6f3e 8edd d53d 31bc 8c3d b514 bf3d
000003d0: cd1c bebb daaa 213e 1615 493d 7b25 0d3d
000003e0: 30b1 683d 124c 8a3d 064b 693e e3ea 833d
000003f0: e62e 253e 593c 453d 5557 ee3c f24a 473d
0.09894476 0.1505119 -0.021080887 0.059271082 0.16934976 0.08341945 0.103392795 0.07546126
0.14286478 0.22215 0.03705478 0.1954297 0.08387052 0.20730756 0.14736034 0.13005272
0.1194677 0.040056046 0.099051826 0.12731658 0.087611444 -0.01400027 0.15651578 0.15917987
0.12877043 0.1653524 0.1594004 0.06334201 0.05753118 0.18150507 0.10295642 0.056941114
0.15729967 0.07896011 0.08673536 0.020040518 0.036758408 0.15977173 0.045765016 0.0340067
0.06397666 0.07760677 -0.0064367196 0.120441586 -0.017141731 0.08052233 0.12488572 0.13433452
0.16086914 0.0163634 0.12148876 0.014027029 0.017436782 0.16065069 0.082577586 0.14565197
0.082111515 0.17438935 0.1649182 0.107873015 0.045091383 0.06626744 0.15042473 0.06950211
0.15713644 0.14423238 0.14097643 0.17507753 0.15139411 0.059779678 0.12192238 0.069471106
0.2554878 0.12033407 0.05005505 0.15357403 0.088970244 0.008797679 -0.020347558 0.19143215
0.05673193 0.15949497 0.10457145 0.12221318 0.0796767 0.09545863 0.0036926183 0.08001359
0.04432658 0.07052711 0.05195801 0.12603329 0.16424988 0.01907811 -0.006535422 0.114377774
0.098163456 0.1048203 0.15946893 0.1100366 0.07877419 0.11757576 0.016438197 0.10062846
0.11914234 0.09596914 0.072157435 0.08037407 0.069871314 0.14117177 0.14295688 0.12247316
0.103987955 0.23256978 0.11181476 0.12609963 0.10093093 0.20544206 0.090004064 0.17183328
0.05586294 0.11022604 0.118689656 0.08673731 0.11181956 0.06977074 0.04091049 0.032487057
0.082627416 0.05369424 0.12709695 0.1510897 0.07301065 0.09129481 0.098935835 0.07177114
0.19617741 -0.011289479 0.071701676 0.09797687 0.029041812 0.0885636 0.067152895 0.12101185
0.14643173 0.06861591 0.075646035 0.02882565 0.13632263 0.11405448 0.097892985 0.09053136
0.07591458 0.15117367 0.06417258 0.14890449 0.08545947 0.08098609 0.06089479 0.16863374
0.12167193 0.026984181 0.12958206 0.16447824 0.042116918 -0.040952265 0.19222902 0.14717229
0.14252429 0.09509766 0.13591984 0.15198642 0.13777916 0.061048355 0.14380382 0.107986264
0.07460996 0.086323515 0.05296162 0.23179115 0.077303305 0.109787546 0.1639267 0.07542738
0.15592836 0.07390703 0.10053788 0.079038374 0.21656689 0.04939226 0.12625715 0.01784306
0.11623713 0.037845712 0.05197965 0.14699468 0.074759156 0.08263621 0.05503297 0.105996944
0.10733285 0.13999663 -0.01809012 0.061447877 0.096201874 0.19376084 0.10882184 0.121968135
0.16036335 0.07635272 0.15596293 0.04748988 0.085281886 0.118522614 -0.029972548 0.019749029
0.028582344 0.041204285 0.09291026 0.06810546 0.1149823 0.13475148 0.035219546 0.09640447
0.12778659 0.13961802 0.03860597 0.15534982 0.087648936 0.10650136 -0.03422414 0.113321945
0.0045134644 0.15055484 0.1119266 0.08332176 0.07969286 0.064196825 0.18082517 0.14774342
0.23397222 0.10442649 0.06871832 0.093301214 -0.005801773 0.15787831 0.049092375 0.034459572
0.056809604 0.067527905 0.22782525 0.064412855 0.16131172 0.048153255 0.029094378 0.048655458

weight f4 [13, 256]
00000000: b836 c8bc ad51 98bd 727a 39bc 9141 bfbd
00000010: 6a93 5cbe 14e7 7f3e dc63 28be 6bc2 963e
00000020: 3bf2 d83c 5c4c 65be beae 2fbd bbff bb3e
00000030: 0f0c 2e3e 0e55 463d a1df 773e e621 15be
00000040: f080 1abe 78da 993d b10b c9bd c032 86bd
00000050: 0c53 d33d d22a a7bb 7148 9abe 7aa4 2fbe
00000060: 16d8 1cbe 62d0 503e 6e84 d9bd 6828 883e
00000070: ce1e 8abd 9dee cdbd e7a3 5bbc b629 82bd
00000080: b09e ab3e 264c 493e 0aaf d6bd 4f7d e4bd
00000090: f3b4 d1bd c1a1 a3bd e3cc 053d 3a2c c03e
000000a0: a68d 1abe a451 25bd a3b8 883d f430 7dbd
000000b0: 77b2 983d e279 b3bd cd61 e9bd 7c8f af3e
000000c0: cba0 2fbe 7f43 ccbd 1be3 b4bd aecf 31bd
000000d0: ef76 c6bd 8707 a2bd 2045 22bd 12f8 86bd
000000e0: 9c39 05bd 387b 34be ddb6 0c3e 523e 933d
000000f0: 84e6 eebd 05e1 1f3e ef7e 09be dc0a a1bd
00000100: 90b5 35be ce3d d33d 0ab1 073d 4d94 173e
00000110: 4746 053d f8d9 973d 6e79 4bbe 8373 a03d
00000120: d5f1 83be 8566 263e 2021 94bd 8cc8 49be
00000130: 8c42 033e 7d84 a4bc 55ba 43bc 9bbe c5bd
00000140: 1bf4 523e 2206 e03c a91c 95bd a4ef 78be
00000150: bb8d 19be e90b 7b3e 2e76 9a3c ed06 743d
00000160: 1e1e 0f3e 0460 373d 540f 6ebd f235 253e
00000170: 4981 b5bd 36a2 52bc cf13 23bd 4141 ff3c
00000180: 94b4 abbd 6a3a 67bd 6d26 72be 3be4 433c
00000190: a977 91bc ca1d 513c 18df 363c db5a fb3c
000001a0: 558e c9bd b2ca 353e aebd f4bd 382b cd3d
000001b0: 1979 f9bc 4ca4 2abe 92bf 813d 35cb 6d3e
000001c0: ddf6 08be e75b 8ebe b313 5dbd 8b3a 8bbd
000001d0: ce3e c93e ea24 96be d146 12be 9730 5e3e
000001e0: fa08 59be e5cd fe3d acbd 513e 5812 f93c
000001f0: 59b9 01be 0457 643e 6202 80bd f2a5 153d
00000200: 2557 9dbc 9e02 2bbe d287 2bbe 3a62 073e
00000210: 3c8f 91bd 7243 bb3d f726 dcbc ae1d 0cbe
00000220: 4d03 26bc bc2c 15bd 2d00 303d 41ce c2bb
00000230: 5da9 13bc 9549 b83e f18c 2e3e 17ba 313c
00000240: f09b a13d 9ad6 10bd abb0 06be 1c31 0f3d
00000250: 2a17 8abe 74e5 c63d 97bf 28be 7348 623e
00000260: d999 a43d 7dd0 ecbd 8c3d 4c3e b392 3f3e
00000270: 7cc1 27bd e811 f8bc 3fff 54bc 05be 9fbd
00000280: 159d 203e c319 a43d 93f3 2b3c 6fb9 c8bd
00000290: 7981 e4bd a18b 5dbd fca1 fe3d 49b9 1dbe
000002a0: c143 01be 9d05 e638 199e 8bbd 9c51 17be
000002b0: 2596 a33a b549 bb3d fbf7 903d be16 0e3d
000002c0: d816 c8bd 64ad 493d 955c 683d 2f29 f0bc
000002d0: eb6a fc3d e83e 993c f6ae a4bd f287 38be
000002e0: cafc 67be 34dc e7bd 09f8 d0bd 8f30 54bd
000002f0: 612a 9abc 478b b7bd 2c87 edbd 208f 1cbd
00000300: b766 ca3e f82f 2c3e d900 6a3a 1069 913e
00000310: dc92 15bd 0b18 993d db1c 39bd c2dd efbc
00000320: c004 b9bd f437 c0bd 3989 70bc dae4 b23d
00000330: f810 06be d1aa 18be b6b0 07bd 8ff3 8f3e
00000340: baf9 343e 39b0 983e dc5d 513e b6c9 023e
00000350: 0b0b e4bd 7b32 5f3e 3a02 263c 08ac 823d
00000360: e8ba 9abc dbea e63d c8bd 893e 5d36 12bd
00000370: a954 363e cec5 51be 5f37 9e3e b390 203e
00000380: 33c2 d6bc 7ce4 bfbd ea22 76bd acf7 d7bd
00000390: c1d2 03be 2cab afbd 831b 54bd 2a65 08be
000003a0: dd82 86bd 79f3 80bd bb91 443e 1f1e b8bd
000003b0: 4a1a 69bd cc0b 47bd a68d eb3a 4994 403c
000003c0: f984 963e 2a7e 28be 977b 9dbd b7ec dc3d
000003d0: d175 bb3d ec2d d0bd 2cf7 8b3d d1be e83c
000003e0: 4ef3 47bd 81bd e73d 53ce 36be 08f8 85bd
000003f0: a729 b9bd 18ef f73d 2f11 3f3d a5f0 3b3e
-0.024440154 -0.074374534 -0.011320697 -0.09338678 -0.21540609 0.24990493 -0.16444343 0.29445204
0.026482692 -0.2239241 -0.042891257 0.36718544 0.16996787 0.04842096 0.24206401 -0.14563712
-0.15088248 0.07512373 -0.09816683 -0.065526485 0.10318574 -0.00510154 -0.30133393 -0.17152587
-0.15316805 0.20391992 -0.10620962 0.26593328 -0.06744157 -0.100552775 -0.013405777 -0.06355612
0.33519506 0.19657955 -0.10482605 -0.11156713 -0.102395914 -0.079898365 0.0326661 0.37533742
-0.15093097 -0.04036106 0.06675842 -0.061814263 0.074559145 -0.08763482 -0.11395607 0.34289157
-0.17151181 -0.09973811 -0.088323794 -0.04341095 -0.096906535 -0.07911592 -0.039616704 -0.065902844
-0.032525644 -0.17625129 0.13741632 0.07189621 -0.11665061 0.15613182 -0.13427328 -0.078633994
-0.17745042 0.10314523 0.033127822 0.14802666 0.032537725 0.07414621 -0.1987054 0.07834532
-0.2577044 0.16250046 -0.072328806 -0.19705409 0.12818354 -0.020082707 -0.0119462805 -0.09655496
0.20600931 0.027346674 -0.07280857 -0.24310166 -0.14995472 0.24516262 0.01885518 0.059576917
0.13976333 0.044769302 -0.058120087 0.1613386 -0.0886255 -0.012856057 -0.039813813 0.031159045
-0.08384052 -0.056452192 -0.23647471 0.01195627 -0.017757254 0.01276345 0.011161588 0.030682972
-0.09841601 0.17753103 -0.11950241 0.10018009 -0.030453252 -0.16664237 0.06335367 0.23222049
-0.13375421 -0.2780449 -0.053973865 -0.067982756 0.3930573 -0.29325038 -0.14284827 0.21698223
-0.2119483 0.12441615 0.2048251 0.030404255 -0.12668361 0.22298819 -0.062504545 0.03653521
-0.019206593 -0.16700217 -0.1675103 0.13221064 -0.07107398 0.091437235 -0.026874049 -0.13683197
-0.010132623 -0.036419615 0.042968918 -0.0059449975 -0.009012547 0.3599364 0.17045952 0.01084759
0.07891071 -0.03536091 -0.13153331 0.034958944 -0.26970798 0.097117335 -0.16479336 0.2209795
0.080371566 -0.115632035 0.19945353 0.18708305 -0.040956005 -0.030281976 -0.013000309 -0.07799915
0.15684922 0.08012726 0.010495084 -0.09800994 -0.111575074 -0.05408824 0.1243324 -0.15402712
-0.12623502 0.000109683 -0.06817264 -0.14777225 0.001248066 0.09144918 0.070785485 0.034689657
-0.09769982 0.049237624 0.056728918 -0.029316513 0.123250805 0.018706754 -0.08041184 -0.18020609
-0.22655025 -0.11321297 -0.10203559 -0.05180412 -0.018819036 -0.08962112 -0.115980476 -0.038222432
0.3953149 0.16815174 0.0008926518 0.2840047 -0.03651701 0.07475289 -0.045193534 -0.029280547
-0.09034109 -0.09385672 -0.014681154 0.08735056 -0.1309241 -0.14908911 -0.03312751 0.28115508
0.17673388 0.29821947 0.20445961 0.12772259 -0.11134919 0.217966 0.010132367 0.063804686
-0.018887952 0.11275264 0.26902604 -0.035696376 0.17805733 -0.20485613 0.3090162 0.15680198
-0.026215648 -0.09369752 -0.06009189 -0.105452865 -0.12873365 -0.0857757 -0.05178405 -0.13319841
-0.06567929 -0.06296439 0.19196217 -0.0899012 -0.056909837 -0.048595235 0.0017971292 0.011754104
0.29398325 -0.16454378 -0.076895885 0.10787337 0.09153331 -0.10165009 0.06834254 0.0284113
-0.048816018 0.11315442 -0.17852144 -0.06541449 -0.09041148 0.121061504 0.046647247 0.18353517

bias f4 [13]
00000000: e470 4d3d 742e b5bd 0661 95be bac0 fb3c
00000010: ea9b 9fbd 8797 12be 67ed 86be 6550 1c3d
00000020: 1016 513e 10b8 033f e208 57be 210a b1bd
00000030: 36fc 493d
0.05015649 -0.08846751 -0.29175586 0.030731548 -0.0779341 -0.14315616 -0.26353 0.038162608
0.20418572 0.5145273 -0.20999482 -0.0864451 0.049312793
