clean_data/models/intents_classifier.pth (torch, 543400 bytes, 4 tensors)

weight f4 [256, 513]
00000000: 6008 2c3d 21ce b5bc 09aa 6bbd 52ea bbbc
00000010: 4951 3dbd c994 aabc b30b b13d 7f66 e73c
00000020: 4de8 2a3b 7abd 14bd 1bf1 08bc 918e 22bd
00000030: eaab b03c d5ff b0bc 79be a23b a222 19bd
00000040: 9249 aabc 1b1e 073d f3c1 e5bc d1ab 37bc
00000050: 07a0 dcba 927c 0b3b 82ae aabc 3712 83bc
00000060: 17b1 1b3c 5263 07bd 66f1 d8bc 40a9 423c
00000070: cdcc 33bd 7f7d 533b eed1 c33c 6656 ebbc
00000080: 4f33 cbbc 62b9 65bd c904 203d 72bf 533c
00000090: 33d5 5fb9 2728 d63c fea3 ef3a d5b2 bdbc
000000a0: dd2a 40bc 2c61 46bd 3338 d6bb 1129 1dbd
000000b0: 2eae 77bc afa8 47bd a967 3fbc 9b9e a53c
000000c0: 1fac 1d3d 7344 1b3d 28d5 143c d144 cb3b
000000d0: bba5 09bd 5a76 35bc edb9 28bd c598 de3c
000000e0: 6ce5 ecbc ba16 c03c a6e1 a3bc cc55 9b3c
000000f0: ea64 b23c 06bd 4fbc 781d d03c 0af8 c43b
00000100: 9466 36bc 3067 8c3c 0424 03bd d592 2bbc
00000110: aec0 733c 0be5 d3bc 1760 42bc d45d 1cbd
00000120: 76ea 9dbc 44a6 d8bc cdea 29bd 9783 893c
00000130: 4678 b33c fc13 ff3c 386d 1a3d f7d7 34bc
00000140: 9cc2 01bc 973d ddbc de84 e33b 5f0d 273b
00000150: 1b11 41bc 7a00 fbbc 2b62 09bd 18a9 08bd
00000160: 8b8f 12bd e12d 103d 7e3d b8bc 992c 05bb
00000170: 86e8 06bd 6309 fa3c dc3c 68bb 7dbd 4a3a
00000180: be29 9e39 bea7 003c 5a72 0e3d 400f 003d
00000190: 1ea4 123e 178f afbc d460 2dbd 6b2f f1bc
000001a0: e3db b6bb 7b97 26bd 554f 8abb 479e d03c
000001b0: a2a7 2bbd 70ba 203d c560 cc3c 3566 cc3c
000001c0: 0c31 013c 6f40 603c 0434 c2bb a570 f33c
000001d0: 95e1 cdbc 7c9a 2c3d c80a 1dbd 6da2 61bc
000001e0: 261f 8cbc e1df 34bd 3b4c 153d f987 04bd
000001f0: 5428 323d 4bbc 973c 352f e8bc 4778 d13c
00000200: 1aff 813d 2f3c 4f3d 45db 08bd 747b 4dbd
00000210: ead7 493d af0f 07bd 8af3 213b a6b0 edbc
00000220: 2634 cbbc aaa2 0fbd d121 7d3c 9d96 a9bb
00000230: 93b7 06bd f834 79bb 2100 983c 578d c3bc
00000240: 5684 8f3c ccb3 55bd edcc a5bc 55f5 77ba
00000250: 0011 98bc cf86 f63c 453a 1abc 2b75 823d
00000260: 47c6 fb3b cbfb babc 54bf 80bc b2ae a53a
00000270: c87b 23bc 72f2 dc3d 653f 5dbc eddd ce3d
00000280: d839 873a 2115 ef3c 36c0 5cbc f3bf 71bc
00000290: 5ef6 f4ba c4de d9bc 1d4c c3bb d96f ecbc
000002a0: 4ca6 c23c e1b8 e9bc e650 ab3b bb2e cabc
000002b0: 331e 833c ecb4 bd3c 5e32 e7bb 69bd aebc
000002c0: 221f 0d3d 9662 d53c 8194 33bd b0a7 a4bb
000002d0: 5eb4 973c efa4 eb3c b6cf fd3c 81e2 893c
000002e0: 4840 013d 45c0 82bc d80a 01bc efa3 c23d
000002f0: 569d 243d 3ccf 993c b771 07bd 0a5a 99bc
00000300: 1e50 163d 572e a9bc 91ae 64bb cea2 1a3c
00000310: c7b5 b2bc 3623 59bc 5626 2e3d 9cbc 423c
00000320: ae73 613b 2bbd f93c 4dd3 b0bc ea3d e2bc
00000330: 92e9 883c eb4a f6ba e588 ad3a 6f69 0bbc
00000340: 6ad0 03bd b926 95bc bd2a 6c3d 8a6d 17bd
00000350: 330d ee3c 1193 203d e37f 41bc 1e03 42bc
00000360: cf3f 063d 7cdf 07bd eb99 003d c6f2 ea3c
00000370: 8078 213a a9b3 dd3c 9e17 c0bc 94b8 dcba
00000380: d43e e7bc 04f0 c4bc a106 6abc cea5 0abd
00000390: b938 a73b 73b5 4f3c 491c 20bd b7a6 4cbc
000003a0: 9861 c1bc f72c cdbb af63 ac3c 4d07 1d3d
000003b0: f962 f33b 71fb 3bbc 7ad6 853d ffbb 853b
000003c0: 9224 aebc 544e 30bc 3912 f43c ed37 823b
000003d0: befa 57bc 1afc 0fbd 2dbe 16bd a944 edbc
000003e0: 05b7 5dbc a8ec 74bd 5cc1 81bc 73e7 56bc
000003f0: f705 ec3c 7a50 ddbb b545 383c 232a 06bd
0.042000175 -0.022193016 -0.057535205 -0.022938881 -0.046220098 -0.0208229 0.086448096 0.028247116
0.0026078403 -0.03631351 -0.008358265 -0.039686743 0.02156635 -0.021606365 0.0049665538 -0.037386544
-0.020787034 0.032987695 -0.028046584 -0.011210398 -0.001683236 0.0021283966 -0.020835165 -0.015999896
0.009502671 -0.033053704 -0.026482295 0.011881173 -0.043896485 0.0032270846 0.023903813 -0.028727721
-0.02480474 -0.056084998 0.039067063 0.012924062 -0.0002134636 0.026142193 0.0018283126 -0.023156563
-0.011728969 -0.048432514 -0.006537461 -0.038369242 -0.015117211 -0.048744854 -0.011682429 0.02021723
0.038494226 0.037907075 0.009084024 0.006203272 -0.03360532 -0.0110755805 -0.041192938 0.027172456
-0.02891799 0.023448337 -0.020005058 0.01896181 0.021776635 -0.012679344 0.025404677 0.006011014
-0.011132855 0.017139047 -0.03201677 -0.010472019 0.014877481 -0.025866052 -0.01186373 -0.03817542
-0.019276839 -0.02644647 -0.04148369 0.01678638 0.021907937 0.031137459 0.037701815 -0.011037818
-0.007919934 -0.027006907 0.0069433292 0.0025490148 -0.011783863 -0.030639876 -0.033540886 -0.033364385
-0.035781424 0.035200004 -0.02249026 -0.0020320772 -0.032936595 0.030522054 -0.0035436666 0.00077339244
0.0003016721 0.007852493 0.034777023 0.031264544 0.14320418 -0.021430535 -0.04232867 -0.029441556
-0.0055804118 -0.040671807 -0.004220883 0.025466098 -0.041907914 0.0392403 0.024948487 0.02495108
0.007885229 0.013687237 -0.005926611 0.029716799 -0.02513198 0.042139515 -0.03834036 -0.0137716355
-0.017104696 -0.04415882 0.036449652 -0.032356236 0.04349549 0.018522402 -0.028342823 0.025570048
0.06347485 0.050594505 -0.033412237 -0.050166562 0.049278177 -0.03297394 0.002471181 -0.029014897
-0.02480514 -0.035067238 0.015449957 -0.005175425 -0.032889914 -0.0038025957 0.018554749 -0.023871107
0.017519157 -0.05217342 -0.020239318 -0.00094588596 -0.018562794 0.030093579 -0.009413307 0.06370004
0.0076835486 -0.022825142 -0.015716232 0.0012640564 -0.009978242 0.1078843 -0.013503884 0.10100923
0.0010316921 0.02918488 -0.013473561 -0.014755237 -0.0018689146 -0.02659548 -0.005960001 -0.028861927
0.023760937 -0.02853054 0.0052281497 -0.024680486 0.016005611 0.02315756 -0.007055565 -0.021330552
0.03445352 0.026047986 -0.043842796 -0.0050248727 0.018518623 0.02876517 0.030982833 0.016831638
0.031555444 -0.015960822 -0.0078761205 0.09503924 0.04018911 0.018775575 -0.03306743 -0.018719692
0.0366975 -0.02065198 -0.0034894089 0.00943823 -0.021815194 -0.013253024 0.04251703 0.011885788
0.0034401226 0.03048571 -0.021585131 -0.027617414 0.016712938 -0.0018790638 0.001323965 -0.008509024
-0.03218118 -0.018206941 0.057657946 -0.0369697 0.029059028 0.039202753 -0.011810276 -0.0118415635
0.032775696 -0.033172116 0.031396788 0.028680217 0.00061596185 0.027063208 -0.023448762 -0.0016839677
-0.028228201 -0.02404023 -0.014283807 -0.03384953 0.0051031974 0.012677538 -0.039089475 -0.01249092
-0.023606107 -0.0062614637 0.021043627 0.03833704 0.00742757 -0.0114735225 0.06535049 0.004081249
-0.021257672 -0.010760862 0.029793845 0.003973952 -0.01318234 -0.035152532 -0.03680246 -0.028963404
-0.013532405 -0.059796005 -0.015839271 -0.013116705 0.028811438 -0.0067539783 0.011247088 -0.03275503

bias f4 [256]
00000000: d4fd 143d 9d10 05bd 7a18 8f3d 438f 9f3d
00000010: 6d5c 183e f4d1 a03d 26aa 443d ef91 773d
00000020: b170 083e b9c8 943c c4b4 ba3c 6bcf 053c
00000030: 88a3 cf3c cd5a 273e 84da 3c3e 618e b1bc
00000040: 2213 403d 8dce 003e 5976 7b3d fa93 413e
00000050: 31a6 9d3d 751f 303d 2b9a ee3d f160 dd3d
00000060: 0fe4 f0bc 0355 1b3e c788 bf3d b9f4 b83d
00000070: 879c f73d 0103 2a3d ffaa 0b3e b3e2 063e
00000080: 8f2b 6e3e 8701 103e e58d e53c a58a 4d3d
00000090: d775 073e 53d9 193e 4f34 7d3c a9c8 803d
000000a0: 2a8f 1a3e fa45 993d 15c6 2c3d cb9a 193e
000000b0: 8a24 c63d 94f8 273c d6ab 023e 5d59 063e
000000c0: 6d98 d63d 539b d93d 073d 983d f235 f73d
000000d0: 5b8b b13d 53e6 243e 5c68 c53b 2f86 2f3e
000000e0: c924 d63d 2231 4f3e ea81 e13d 5aed 6d3e
000000f0: 6118 403c 111b 543e cf40 d53d 708d a83c
00000100: c43b 013d 3740 373d e399 f43d 5eab 9c3b
00000110: 421c c93d 200b a13d 3822 193d 101f 963d
00000120: 7f75 a43d a706 de3d 0576 8f3c 3a3f e83d
00000130: ad91 823d 2092 853d d8c0 d83d 47e3 033e
00000140: 6412 183e cc99 a23d 5e18 023e 82cb 473e
00000150: 2a76 36bd e7ae 2a3e 8411 093e 90e4 733d
00000160: 03c1 393e cd94 723d f0f4 193e 8f91 4d3e
00000170: 6b51 143d ba16 1f3d 40ef df3d fda2 953d
00000180: 8758 b13c f291 b53c 273b 373d 38b1 47bd
00000190: 5259 843d 0bdd 083e d27f 123e 5dde 5a3e
000001a0: 4632 a23d c89e 063e 028d a73d 51a2 2a3e
000001b0: 3a07 913d 90c5 bd3d 3af9 383e 1ee8 263e
000001c0: da16 babc d7e3 173e b9fe ba3d d5cf a53d
000001d0: cddc 0e3e 428d e93d 8f90 3f3d 6bcd 203d
000001e0: 1fc9 f63d 8b5c 333e d855 c53d 0117 823d
000001f0: 795e e33c e8d5 0a3e abfa 303e 9fa6 f73d
00000200: 4f0a 003e 2457 f13d cc2c b83c 3c71 183e
00000210: 484a 2b3d 98e7 343d edfe 7c3d 70a1 7d3d
00000220: 5304 4abb 2971 473d 3e9a 9c3d e7f3 903d
00000230: 9f20 4f3c 399f a93d eb3b 893d 2702 0d3e
00000240: 6341 a43d 0256 dc3d 5caf 743d 9430 ea3d
00000250: 2a66 e03c 4a25 403d 3864 db3d 3819 483e
00000260: a838 c43d e1a8 823e dd89 ad3d 290b 2d3e
00000270: 08c7 893d d2de 073e 60d6 ea3d d0c8 973d
00000280: 8ccd 293d 7c7c 9a3d 2956 313e 56bb 9f3d
00000290: b193 e13d 9bfb cf3d d3c9 a73d 3d91 a03d
000002a0: 0501 9c3d 3a2b 643d e347 1f3e 2e7f 2f3e
000002b0: b614 673d a237 913d 7ac8 123e e71d 723c
000002c0: 40ff 583e 3ebe 99bd 2a53 e23d a3c3 ad3d
000002d0: 716d b23d 1898 da3d 5c4d 7c3d 41c3 f83d
000002e0: 5927 013e 21fc c43c d12b f53d 1bcb 743d
000002f0: b8e6 f23d 26c5 9d3d 80ec b93d f380 b23d
00000300: 6e2e 663e 429d 933b f725 3d3d 77c0 d33d
00000310: 5112 4a3e 37b9 893d 63d4 eb3d 6e2f 373d
00000320: 8c9e 103b 97b0 b43d ddcc dbbc 16a3 ee3d
00000330: e30a e63d 6469 353d 69dc 1c3d 420e 413e
00000340: a3de d43d 7d58 e93d e80d d23d c1a4 253e
00000350: 50c9 c13d a0ee e93b b5ec e63d 0136 3b3d
00000360: d253 d83d 2af8 9e3d ca3b 5a3d c03f 113e
00000370: 3e18 103e b12f 53bc 3209 ba3d ed7a 933d
00000380: 0666 a13d 2002 b63d ee58 9d3b 8494 f43c
00000390: 6bc8 5a3e 18e5 073d 3595 023e ea6f d13d
000003a0: 72bc 093e 8cc6 4b3d 884e 013e 1aa7 0c3e
000003b0: 7969 2c3e c2e7 963c bf23 243e c8b0 053d
000003c0: 6d1a 1e3e 12bf 873d d730 e83d 2a18 913d
000003d0: d314 cd3d dcab 273e a16b 2a3d d87d 9b3d
000003e0: 1e58 153e ca95 293e 868d 1c3d e5d1 e93d
000003f0: 6d08 e33d 386d 083e 174e ac3c ae87 2e3e
0.036374882 -0.032486547 0.069870904 0.07790997 0.14879008 0.078525454 0.04801383 0.060441907
0.13324238 0.018162118 0.022791274 0.008167128 0.025346532 0.16343231 0.18442732 -0.021674337
0.046893246 0.12578793 0.061392162 0.18904105 0.07697714 0.04299875 0.11650499 0.10809506
-0.029405622 0.15169148 0.0935226 0.09031052 0.12090402 0.04150677 0.13639449 0.13172416
0.23258804 0.14063083 0.028021762 0.05018105 0.13228546 0.15024309 0.015454366 0.06288273
0.15093675 0.0748405 0.042181093 0.15000455 0.09674938 0.010252137 0.12760863 0.13120027
0.10478292 0.10625329 0.07433515 0.12070836 0.08669158 0.16103487 0.0060244035 0.1714103
0.10456235 0.20233586 0.11011107 0.23235074 0.011724562 0.2071345 0.10412752 0.020575255
0.031551138 0.044738974 0.11943414 0.0047811707 0.09819843 0.0786345 0.03738615 0.073301435
0.08030223 0.108411126 0.01751233 0.113401845 0.06375442 0.06522012 0.10583657 0.12879668
0.14850765 0.07939491 0.12704608 0.19511226 -0.044546284 0.16668282 0.13385588 0.059544146
0.18140034 0.05922394 0.15034842 0.20075057 0.03621046 0.038840033 0.10934305 0.07306478
0.021648658 0.022164319 0.044734146 -0.048752993 0.06462349 0.13365571 0.14306572 0.21373887
0.07919745 0.13146508 0.08181192 0.16663481 0.070814565 0.09266198 0.18063822 0.16299483
-0.022715975 0.14833008 0.09130616 0.080962814 0.13951416 0.11403896 0.04676872 0.0392584
0.120500796 0.17515771 0.09635514 0.06352044 0.027755009 0.13558161 0.17283122 0.12092327
0.12503932 0.11784199 0.022482298 0.14886945 0.041818887 0.044166178 0.061766554 0.061921537
-0.0030825331 0.048691902 0.07646607 0.07077771 0.012642055 0.082823224 0.067008816 0.13770352
0.08020284 0.10758592 0.05973755 0.11435047 0.027392466 0.04691056 0.107124746 0.1954087
0.09581119 0.2551947 0.08473561 0.16898789 0.06727415 0.13268593 0.1146667 0.07411349
0.04145579 0.07543275 0.17318024 0.07799403 0.11014498 0.10155412 0.08192792 0.07840202
0.07617382 0.055705287 0.15554766 0.17138359 0.056416236 0.07090689 0.14334288 0.014777637
0.2119112 -0.07506989 0.110510185 0.0848458 0.087122805 0.10673541 0.061597213 0.12146617
0.12612666 0.024046006 0.11971248 0.05976401 0.11860412 0.07703619 0.09078312 0.08716001
0.22478649 0.0045048306 0.046178784 0.10339444 0.1973355 0.0672478 0.11515119 0.044722967
0.0022067158 0.08822744 -0.026831085 0.116522 0.11232545 0.04428996 0.038296137 0.18853095
0.10394027 0.11393831 0.10256559 0.1617613 0.094622254 0.007139042 0.11275617 0.0457058
0.105628625 0.07762177 0.053279676 0.14184475 0.14071748 -0.0128897885 0.09083785 0.072011806
0.078807876 0.08887124 0.004801861 0.029855974 0.21365516 0.033177465 0.1275223 0.10226424
0.13450792 0.049749896 0.12627614 0.13735619 0.1683711 0.018421058 0.16029261 0.032639295
0.15439768 0.06628241 0.113374405 0.07084687 0.100137375 0.16374153 0.04160655 0.07592362
0.14584395 0.16561046 0.038220905 0.11416987 0.110855915 0.13322914 0.02103333 0.17043945

weight f4 [13, 256]
00000000: 673f a93c 85cd 38bd 2ee5 25bd eaec 6d3d
00000010: 4f4a e7bc 6851 26bc bb38 403c c9c5 2bbd
00000020: 7b84 77bd b4b4 3e3d ed8f b4bc ecf8 7abd
00000030: 76df 163d eb5e 22bd 39f8 60bd af88 2abd
00000040: 37af 903c 8ac3 903c 2745 403d 3c9e 57bd
00000050: f03c 473c 651b 763d 3506 45bd 47d1 24bd
00000060: 80a0 263c 60e1 2cbd adff 153b b5bb 89bc
00000070: 6937 02bc 2600 86bb f307 4cbd e9a6 c8bc
00000080: bf76 82bc 34ed b9ba ef4f 3f3d 5440 3c3a
00000090: dc39 bb3a b4b5 9bbb 7207 3e3d 9985 fe3c
000000a0: 40d8 593d 142b 01bc 0774 1fbd 156d 7b3d
000000b0: 62d9 e73c 642f fdbb 0ff5 99ba a4ee 883b
000000c0: 900c 51bd 7924 3bbd 7692 9c3c bb9c 3d3d
000000d0: ed75 82bc def6 443d eaaf 45bc fd15 a33b
000000e0: b547 863c 8f31 883c 4a11 233c c53a 1cbd
000000f0: f120 70bd 9497 2dbd 7100 de3c e5da 953c
00000100: bbea 6e3c 3f13 5e3d c79e 363d bb62 633c
00000110: 2e0f 62bd 5198 01bd e316 77bc 5530 5fbd
00000120: 6e10 0e3d 4e36 653d 10a6 453d 0e13 b43c
00000130: a5a5 393d 5dd6 81bd f47d 7fbc a8d8 603d
00000140: bab1 4dbd 8288 023c 6fdc c13b d3a7 3bbd
00000150: 209e 3ebd eea0 2abd 38c1 0abd 4a23 81bd
00000160: 99b7 18bd 8534 32bd 99b2 1c3c 2ec3 d2bc
00000170: 6e5f 78bd 9719 08bd 2d4c c43b 7831 13bd
00000180: bfc5 313c a734 1f3d 2148 043d d79f 78bd
00000190: c88f 953c 38d7 723b 6303 283d eaa6 4b3d
000001a0: bbfd 2dbd 1a35 b6b8 900e 9c3c 5207 1bbd
000001b0: 1e9b 34bd f0d5 13bd bc1f 943a 94bd 6cbd
000001c0: a3de 13bc 3c88 173d 1301 6cbd e670 a53a
000001d0: 011e 80bd f71f fcbc 8b69 56bd 5b80 53bc
000001e0: 1528 6b3d ada9 03bd 612e 3ebd 5afd d7bb
000001f0: 2da1 2fbd e441 673c 7cb3 d33b 5ee6 79bd
00000200: 7fd2 a1bb 694f 22bd 7f71 5cbd 08ca 163d
00000210: 8ca8 61bd 023a 4a3d c001 183d 80cd 863b
00000220: 3ff3 823c e724 523d 4447 5bbc 4c60 26bd
00000230: 326b 2a3b be14 403d 242e 7a3d 70b0 cb3b
00000240: 52d7 d93c 2a05 1dbd fa9e 693c 8688 8ebc
00000250: 8ffb 123d 3b9a a53c e881 c7bb 8008 1dbd
00000260: e48f 003d 8fc6 76bc c2a1 843c 1268 1dbc
00000270: 85f2 f73c e76b a8bc f7c7 52bc 587b d3bc
00000280: 5f32 2b3d c1cb 64bd b57a 33bd 6a95 e43a
00000290: dee7 2cbd 1818 7abd 675d 2dbd b7a1 3abc
000002a0: 52cb e43c 63c0 c13c d869 10bd fcb7 8c3c
000002b0: 7603 5c3d 81a9 52bd 69c1 b23a d3a8 19bd
000002c0: 945e 7abd a465 73bd 5d6d 3bbd 25c5 9f3a
000002d0: ab33 703c 3723 5b3d 9873 5e3a b7bb 41bc
000002e0: d857 d2bc ec75 68bd d8d8 303d ceb6 2ebd
000002f0: 9023 60bc c454 58bb 2fb1 0e3d 4bc1 df3b
00000300: a8bc 1b3c 079a 01bd c448 f63c 12f0 a53c
00000310: 85f1 75bd d204 3abd 47b6 12bd 0408 b9bc
00000320: f9f1 383c 6f8e 03bc 80b2 e0bc 3a25 bcbc
00000330: 4c0d 023d a183 6fbd 3e79 3e3c 7cc6 2abd
00000340: 94c7 24bd 3e79 95bc 8b31 5ebc 491c c2bc
00000350: df2b ed3c 5da0 ecbc d4db 113c 16af 373d
00000360: 93f9 78bd cf7e df3c af22 0cbd b6ca df3c
00000370: 6c2a 7abc b930 a43b 4f5f 293d 0135 2a3b
00000380: 6c06 273c aefc 163c 25b7 0439 18d1 fa3b
00000390: b8c8 31bd 54d0 563c eb68 c13b d3fa 02bd
000003a0: 2c40 0f3d a7fd 9f3c 1d72 62bb 450d b9bc
000003b0: 70a8 4c3d fa88 37bd a9ae 223c 6c56 4ebd
000003c0: 7264 5fbd 9797 4f3d cf9d f8bc 4fba 693c
000003d0: dabd 423d a455 9bbb ac43 37bd 0641 ea3c
000003e0: 51ed 6a3d 1a9b 23bc 3c6d 2c3d e136 1d3d
000003f0: 0df0 4fbc be2c 73bd 8841 203d df8a 793b
0.020660115 -0.045117874 -0.040501766 0.058087267 -0.028233675 -0.010151245 0.011732276 -0.04193667
-0.060429078 0.04655905 -0.022041285 -0.061272547 0.036834203 -0.039641302 -0.054924224 -0.041634258
0.017661674 0.017671365 0.04694095 -0.05264114 0.012160525 0.06008472 -0.048101623 -0.040238645
0.010170102 -0.04220712 0.002288799 -0.016813138 -0.007947781 -0.004089373 -0.04981227 -0.024493651
-0.015925763 -0.0014185072 0.04670709 0.00071812165 0.0014284211 -0.0047518853 0.04639382 0.031069564
0.053184748 -0.007883806 -0.03892901 0.061383326 0.028301898 -0.0077265967 -0.0011746007 0.004178839
-0.05103737 -0.04568908 0.019112807 0.046292048 -0.015925372 0.048086993 -0.012065867 0.0049769864
0.016391614 0.016625194 0.0099528525 -0.038141984 -0.058625165 -0.042380884 0.02709982 0.018292854
0.014582331 0.054217573 0.044585016 0.01387852 -0.055190258 -0.0316394 -0.01508114 -0.054489452
0.034683637 0.055959992 0.048254073 0.021981742 0.045323987 -0.06339715 -0.015593994 0.05489412
-0.05021832 0.007967116 0.0059161703 -0.045814347 -0.04653752 -0.04165738 -0.033875674 -0.06305559
-0.037284467 -0.043507118 0.009564065 -0.025727835 -0.060637884 -0.03322753 0.005990526 -0.03593585
0.010850369 0.038868573 0.03229535 -0.06069931 0.018257037 0.003705455 0.041018855 0.04971973
-0.042478304 -8.688327e-05 0.019049913 -0.037848778 -0.044093244 -0.0360927 0.0011300961 -0.057797983
-0.009025249 0.036995158 -0.057618212 0.0012622147 -0.06255723 -0.03077696 -0.052346747 -0.01290902
0.057411272 -0.032144237 -0.04643095 -0.006591481 -0.04287832 0.014114831 0.006460605 -0.06101071
-0.004938423 -0.039626513 -0.053819176 0.036813766 -0.05509238 0.049371727 0.037111044 0.004113853
0.01598513 0.051304724 -0.01338369 -0.04061918 0.0026003835 0.04689478 0.06107916 0.0062161013
0.02659193 -0.038335003 0.014259094 -0.017399084 0.035884436 0.020215144 -0.006088484 -0.038338184
0.031387225 -0.0150619885 0.016190413 -0.009607332 0.03026701 -0.020559264 -0.012865058 -0.02581565
0.041796084 -0.055858377 -0.043818194 0.0017439548 -0.042213313 -0.061058134 -0.042325404 -0.011391095
0.027928982 0.023651307 -0.03525719 0.017177574 0.053714238 -0.051431183 0.0013637963 -0.03751452
-0.061125353 -0.059423104 -0.045758594 0.0012189491 0.014660756 0.05350038 0.0008485853 -0.01182454
-0.025676653 -0.056753084 0.04317555 -0.042654805 -0.013680354 -0.0033009509 0.034836944 0.0068284622
0.009505428 -0.031641033 0.030063994 0.020256076 -0.060044784 -0.045414753 -0.035818364 -0.02258683
0.0112881595 -0.008029564 -0.027428865 -0.02296697 0.031750962 -0.05847514 0.011625586 -0.041693196
-0.040229395 -0.01824629 -0.013561617 -0.023695128 0.028951583 -0.02888506 0.008902509 0.04484471
-0.060784888 0.027282147 -0.034212764 0.02731834 -0.015268903 0.005010691 0.04135066 0.0025971534
0.010194402 0.009215517 0.00012656728 0.0076543204 -0.04340431 0.013111193 0.0059024 -0.031977486
0.03497331 0.01953013 -0.003455288 -0.022589335 0.049965322 -0.044808365 0.009929338 -0.050375387
-0.05453915 0.050681677 -0.030348687 0.014265611 0.047544338 -0.004740434 -0.04474227 0.028595459
0.05735523 -0.00998571 0.04209636 0.038382415 -0.01269151 -0.05936884 0.039124995 0.0038077158

bias f4 [13]
00000000: deab 94bd 1968 a8bd 5461 6bbd 2479 bd3e
00000010: 5c9d 00bd 904c a8bd d069 3fbd edd5 033d
00000020: 68e5 4c3e 4700 01be a815 27be 9c4a dd3d
00000030: 3702 803c
-0.072593436 -0.0822298 -0.057465866 0.37006485 -0.03140007 -0.08217728 -0.04673177 0.032186437
0.20009387 -0.12597762 -0.16316855 0.10805246 0.015626056
