clean_data/models/intents_classifier.pth (torch, 778920 bytes, 4 tensors)

weight f4 [256, 743]
0	0x3cec778c	0.028865598
1	0xbcb0be23	-0.02157504
2	0x3d09d057	0.033645954
3	0xbccc4079	-0.024933087
4	0xbcda278a	-0.026630182
5	0x3d163f06	0.036681198
6	0xbb3b8b98	-0.002861714
7	0x3c286641	0.0102782855
8	0x3bd6e9fa	0.006558654
9	0xbc42a8f5	-0.011881103
10	0xbcbd205c	-0.02308672
11	0x3c6b4356	0.014359316
12	0x3c57b941	0.013166727
13	0xbc505875	-0.012716402
14	0xbc73d333	-0.014881897
15	0xba830cbd	-0.0009998303
16	0xbb68dc53	-0.0035531714
17	0x3b4a0a20	0.003082879
18	0xbc174a73	-0.009234059
19	0xbbdf6744	-0.00681773
20	0x3b2f6627	0.0026763768
21	0xbcd2b8f2	-0.025722954
22	0xbc5a21fd	-0.0133137675
23	0xbcbaaf7c	-0.022788756
24	0x3ca11a99	0.019666003
25	0x3cddd2ba	0.027078021
26	0xbd0ef5cb	-0.034902375
27	0xbca83412	-0.020532642
28	0x3c504ec8	0.012714095
29	0x3c2b9504	0.01047254
30	0x3cd083a3	0.025453394
31	0xbcd2795d	-0.025692636
32	0xbcf6c614	-0.030123748
33	0x3b3a80bb	0.0028458077
34	0xbc025a69	-0.007956126
35	0xbca0fd84	-0.019652136
36	0x3d02fb91	0.031978194
37	0xbc701143	-0.014652553
38	0xbd2b64da	-0.041844226
39	0xbc5d0940	-0.013490975
40	0x3c1bb484	0.0095034875
41	0x3c9c174e	0.019054081
42	0x3cfa7e78	0.030577883
43	0x3c18236c	0.009285789
44	0x3b824103	0.003975035
45	0xbcc8c762	-0.024509136
46	0x3bb65161	0.0055639003
47	0xbc879171	-0.016548844
48	0xba694078	-0.0008897851
49	0x3cad884d	0.021183157
50	0x3d10e6c2	0.035376318
51	0x3d25c183	0.04046775
52	0xbd033d7c	-0.032041058
53	0xbc01b94d	-0.007917714
54	0x3c1756a7	0.009236968
55	0xbd24135a	-0.040057518
56	0xba72bedc	-0.00092600076
57	0x3ccade05	0.02476407
58	0x3c2897c6	0.010290092
59	0xbc8a924f	-0.016915468
60	0xbce54bdc	-0.027990274
61	0xbd606cc3	-0.054791223
62	0xbc749910	-0.014929071
63	0xb85267fd	-5.016475e-05
64	0xbbcd0ae2	-0.006257401
65	0xbd227cc8	-0.039669782
66	0x3ca73bee	0.020414319
67	0x3d1876ea	0.03722278
68	0x3d0e4344	0.03473212
69	0xbe01faad	-0.12693281
70	0xbb92a841	-0.004475624
71	0x3c847669	0.016169744
72	0xbc8ad95e	-0.016949352
73	0x3c62a8e1	0.013834209
74	0xbca26c47	-0.019827021
75	0x3bc10327	0.0058902684
76	0x3cc92985	0.02455593
77	0x3cc60344	0.024171479
78	0x3d04f46c	0.03245966
79	0x3c831939	0.016003238
80	0x3cbbc69f	0.022921858
81	0xbdafbe9f	-0.0858128
82	0xbcc91cfd	-0.024549956
83	0x3c33b35b	0.010968055
84	0x3c725920	0.014791757
85	0xbcc1b4ea	-0.023645837
86	0x3bae37e0	0.0053167194
87	0x3c949a26	0.01813991
88	0xbd132e66	-0.03593292
89	0xbbf85613	-0.00757862
90	0xbcc5dd38	-0.024153337
91	0x3cb5f3fa	0.022211064
92	0xbcf5b70a	-0.029994506
93	0xbba4a100	-0.0050240755
94	0xbc52e17a	-0.012871141
95	0xbc2e1420	-0.010624915
96	0x3c89c7bb	0.016818872
97	0xbcc85ee3	-0.024459308
98	0xbc4d3fd2	-0.012527423
99	0x3d0a6d08	0.033795387
100	0xbbdbace9	-0.006703962
101	0x3d41420c	0.047182128
102	0x3c3182ac	0.010834377
103	0xbcbd88ae	-0.023136463
104	0x3cca381e	0.024684962
105	0xbd02b91c	-0.031914815
106	0xbc2d9f9c	-0.010597136
107	0x3cbafbd3	0.022825157
108	0xbc0b8c52	-0.008517342
109	0xbc7aa2fb	-0.015297647
110	0x3ca36e73	0.019950127
111	0x3c1ec9e9	0.009691694
112	0x3cb3035e	0.021852192
113	0xbd26eb69	-0.04075185
114	0x3de4def1	0.11175335
115	0x3c84ff76	0.016235095
116	0xbc59966e	-0.013280494
117	0xbb990b74	-0.004670555
118	0xbd393d06	-0.045224212
119	0x3b92e033	0.004482293
120	0x3d0c9ce6	0.034329318
121	0x3c0bfd7e	0.008544324
122	0xbc54693c	-0.012964543
123	0x3cdbf0e4	0.026848264
124	0x3cde546e	0.027139869
125	0xbcfe7da2	-0.031065766
126	0x3b8ed5a7	0.0043589654
127	0xbcfb66bc	-0.030688636
128	0xba8d16b7	-0.0010764216
129	0x3dd96970	0.10615814
130	0x3cd30759	0.02576034
131	0x3d15b59b	0.036550146
132	0xbc2dec26	-0.010615384
133	0x3cd2973e	0.025706884
134	0x3bf88e40	0.007585317
135	0xbd04c5df	-0.032415267
136	0x3abcb11c	0.0014396044
137	0x3c6f9567	0.014623023
138	0xbcc3b3dc	-0.023889475
139	0x3c514f1a	0.012775207
140	0xbce52785	-0.027972946
141	0x3c98c485	0.018648395
142	0x3c774ede	0.015094487
143	0x3cb0c946	0.02158035
144	0x3b98ec34	0.0046668295
145	0x3d36af6c	0.04460089
146	0x3ba12723	0.0049179955
147	0x3bc1d9e0	0.0059158653
148	0x3d431d4b	0.047635358
149	0xbc8aace8	-0.016928151
150	0xbcb29bd4	-0.02180282
151	0xbdc1ce70	-0.09463203
152	0x3cc1634f	0.023606924
153	0xbd0dfec5	-0.034666795
154	0x3cf358d8	0.02970545
155	0xbccb3fb7	-0.024810655
156	0xba192714	-0.000584231
157	0xbb4ea9b2	-0.0031534252
158	0xbd1882c7	-0.037234094
159	0x3c907745	0.017634997
160	0x3c826965	0.015919397
161	0x3d77ddaa	0.06051413
162	0xbc1a906f	-0.00943385
163	0x3d1dd021	0.038528565
164	0x3cbd9857	0.02314393
165	0x3d935bd4	0.07195249
166	0xbcd51930	-0.026012987
167	0x3c7a7a60	0.015287966
168	0x3d16e5e1	0.036840323
169	0xbcdcb6bb	-0.026942601
170	0x3cb9dfca	0.022689719
171	0xb96637e4	-0.0002195533
172	0x3cbd8d33	0.023138618
173	0xbae9a52f	-0.0017825718
174	0x3d0d94fe	0.03456592
175	0x3c7d205f	0.015449612
176	0x3b941745	0.0045193755
177	0xbc4b2449	-0.012398788
178	0xbc0b8668	-0.008515932
179	0x3d026340	0.031832933
180	0xbc4a5182	-0.012348535
181	0xbc692a58	-0.014231287
182	0xb94597bf	-0.00018843914
183	0xbcadca27	-0.021214558
184	0xbc040f83	-0.008060339
185	0xbceff147	-0.029289855
186	0x3c9a7659	0.01885526
187	0xbcc80ce1	-0.024420204
188	0xbca5c571	-0.020235749
189	0xbbb379e0	-0.005477175
190	0x3c6042ba	0.013687784
191	0x39ce9bc3	0.00039407433
192	0x3d57ac8d	0.05265479
193	0xbd0d8b42	-0.034556635
194	0xbc438349	-0.011933156
195	0x3c2158e4	0.009847853
196	0xbc00807a	-0.007843131
197	0x3cc03b31	0.023465725
198	0x3c6fa54d	0.014626813
199	0x3c1ad2d5	0.00944968
200	0xbb0c5412	-0.0021412414
201	0x3876b38d	5.881819e-05
202	0xbd4113e0	-0.047138095
203	0x3cd6550f	0.026163606
204	0x3dcdc243	0.10046818
205	0x3c416d6e	0.011805875
206	0xbc0ff554	-0.008786518
207	0x3bae53a4	0.0053200293
208	0x3d185692	0.037191935
209	0xbb8e66ab	-0.004345735
210	0xbcb4877b	-0.022037258
211	0xbaaef236	-0.0013347331
212	0x3c8c7189	0.017143982
213	0xbcb7b0e4	-0.022423215
214	0xbc0a2737	-0.008432201
215	0xbd0c3310	-0.034228384
216	0xbb04a887	-0.0020242052
217	0xbc54b109	-0.012981662
218	0x3c31f367	0.010861254
219	0x3ceddb3e	0.029035207
220	0x3c98a02a	0.01863106
221	0xbd293b14	-0.041316107
222	0x3c39b7f5	0.011335363
223	0xbd1b49c7	-0.037912156
224	0x3bab7492	0.005232402
225	0xbc3225bc	-0.010873254
226	0xbd0e5ec3	-0.03475834
227	0x3d0c15a5	0.03420033
228	0xbad19b48	-0.0015991712
229	0xbd020ddc	-0.0317515
230	0x3ce080f4	0.02740524
231	0xbcbc233f	-0.022966025
232	0xbca17d51	-0.019713076
233	0x3c5da6c9	0.013528534
234	0x3c40a146	0.011757201
235	0xbc9c73d6	-0.019098204
236	0x3b380fd9	0.0028085618
237	0xbc8e4f55	-0.017371813
238	0xbc89a5cd	-0.016802693
239	0x3d062795	0.032752592
240	0xbd26c2cb	-0.040713113
241	0x3b325b45	0.0027215045
242	0x3cf07cef	0.029356448
243	0x3cbefc65	0.02331371
244	0x3d882b6d	0.06648908
245	0x3db68008	0.08911139
246	0x3de03244	0.109470874
247	0x3d606007	0.05477908
248	0xbd139d3e	-0.03603863
249	0xbc6ecb70	-0.0145748705
250	0xbac0c571	-0.001470728
251	0xbcf20994	-0.029545583
252	0x3c2382bb	0.009979899
253	0xbcbf4e2d	-0.023352707
254	0xbb4c42a8	-0.003116766
255	0x3c9f357c	0.019434683

bias f4 [256]
0	0x3e104393	0.14088278
1	0x3e054a56	0.13016638
2	0x3d8deed8	0.069303215
3	0x3e239273	0.15973835
4	0x3e0f4d40	0.13994312
5	0x3e001765	0.12508924
6	0x3d069e6a	0.03286592
7	0x3d939a47	0.072071604
8	0x3dd7a768	0.10529977
9	0x3de6b343	0.1126466
10	0x3d62df30	0.05538863
11	0x3d811f74	0.06304827
12	0x3db5120a	0.08841331
13	0x3d465eae	0.048430137
14	0x3e36b1b0	0.1784122
15	0x3e1522ed	0.14564104
16	0x3d9569f3	0.07295599
17	0x3db6816a	0.089114025
18	0x3d8320d8	0.06402749
19	0x3dc6cee3	0.09707429
20	0x3e83e835	0.25763097
21	0x3dddb69d	0.10825846
22	0x3de17589	0.11008746
23	0x3df58160	0.11987567
24	0x3dca5218	0.098789394
25	0x3db30396	0.08740918
26	0x3e28f5d5	0.16500027
27	0x3e571168	0.21002734
28	0x3e0f6f6b	0.14007346
29	0x3e1ef34c	0.15522498
30	0x3d930acc	0.07179794
31	0x3da2fad1	0.07957996
32	0x3d7a665f	0.061132785
33	0x3d9bb21a	0.076023296
34	0x3d37c7c8	0.04486826
35	0x3daea604	0.08527759
36	0x3e26ab29	0.1627623
37	0x3dd53608	0.10410696
38	0x3d55bb96	0.05218085
39	0xbc269b9d	-0.010168937
40	0x3dbe42d5	0.09290091
41	0x3e46e5d4	0.1942361
42	0x3bf5c9d0	0.0075008646
43	0x3dc03b08	0.09386259
44	0x3dfdc51c	0.12391111
45	0x3dab6dea	0.08370574
46	0x3d956093	0.07293811
47	0x3cd349e3	0.025792068
48	0x3dbcb630	0.09214437
49	0x3de42d5d	0.11141465
50	0x3b68db2a	0.0035531023
51	0x3ddb3745	0.10703901
52	0x3d16a47e	0.036777966
53	0x3e0e55ce	0.1389992
54	0x3dfc88cf	0.12330782
55	0x3e0495c8	0.12947762
56	0x3e580dde	0.2109904
57	0x3d2169af	0.03940743
58	0x3d9c3790	0.07627785
59	0x3b951be4	0.004550444
60	0x3d9d40a0	0.07678342
61	0x3db8df56	0.09026973
62	0x3e0e1100	0.13873672
63	0x3ddac662	0.1068237
64	0x3e25340d	0.16133137
65	0x3d6f796e	0.058465414
66	0x3d8acd5c	0.067774504
67	0x3e1f7414	0.15571624
68	0x3c012ba3	0.007883939
69	0x3d8fbf2b	0.07018884
70	0x3d437ef6	0.0477285
71	0x3dee01db	0.11621448
72	0x3e25aa1b	0.16178171
73	0x3e1975f9	0.14986409
74	0x3dd6742a	0.10471375
75	0x3da9bc65	0.082878865
76	0x3dc1ff57	0.0947253
77	0x3e4d50ae	0.20050308
78	0x3d6766e0	0.056494594
79	0x3de356f6	0.11100571
80	0x3d907326	0.07053213
81	0x3d382e4c	0.044966027
82	0x3dead289	0.11465938
83	0x3dc678ef	0.09691035
84	0x3e0c883c	0.13723844
85	0x3d86b0f2	0.065767184
86	0x3e065972	0.13120058
87	0x3e01ec3a	0.1268777
88	0x3de84360	0.11340976
89	0x3dc8c696	0.09803502
90	0x3dc4e474	0.096138865
91	0x3d1387ce	0.036018185
92	0x3e432835	0.19058307
93	0x3d801335	0.062536635
94	0x3d159b13	0.036524843
95	0xbc06a1d8	-0.0082172975
96	0x3cf80da0	0.030279934
97	0x3e421869	0.18954624
98	0x3d23100f	0.039810237
99	0x3d2d990f	0.042382296
100	0x3d369808	0.044578582
101	0x3d0ba9f7	0.034097638
102	0x3d29ce48	0.04145649
103	0x3de7e74b	0.113234125
104	0x3c994f87	0.01871468
105	0x3e39b6f4	0.18136197
106	0x3df86a8e	0.12129699
107	0x3d159120	0.036515355
108	0x3dec9a03	0.11552813
109	0x3d05d594	0.032674387
110	0x3dfc9704	0.123334914
111	0x3e48d66e	0.19613048
112	0x3d83922b	0.06424364
113	0x3daea0bc	0.085267514
114	0x3dfe5235	0.124180235
115	0x3dadd0f3	0.084871195
116	0x3e0edcfc	0.13951486
117	0x3de8a268	0.113591015
118	0x3d8655c2	0.06559326
119	0x3e3150b7	0.17315947
120	0x3d903174	0.070406824
121	0x3dea7161	0.114474066
122	0x3e170fc2	0.14752105
123	0x3cf901e7	0.030396415
124	0x3dbce242	0.09222843
125	0x3da6fe5f	0.08153986
126	0x3db4e7bc	0.08833262
127	0xbd2f015d	-0.04272591
128	0x3d553853	0.052055668
129	0x3d1fa05d	0.038971294
130	0x3d696797	0.056983557
131	0x3e4098f0	0.18808341
132	0x3dd5efc1	0.1044612
133	0x3dadddda	0.084895805
134	0x3e0eb4e4	0.13936192
135	0x3e321ade	0.17393062
136	0x3d1f0d06	0.03883078
137	0xbb8ea750	-0.0043534413
138	0x3e6210c1	0.22076704
139	0x3cb6cc59	0.022314237
140	0x3dd8ad54	0.10579935
141	0x3e44b23b	0.19208615
142	0x3e1fdba6	0.15611133
143	0x3deec682	0.11658956
144	0x3de94c7f	0.113915436
145	0x3e8f8f84	0.2803918
146	0x3de802f3	0.113286875
147	0x3e24a3e8	0.1607815
148	0x3dba906b	0.09109577
149	0x3e09e273	0.1346529
150	0x3dfd7344	0.12375501
151	0x3e231071	0.1592424
152	0x3dc8642a	0.0978473
153	0x3d51fda1	0.05126727
154	0x3cf276ec	0.029597722
155	0x3dee0961	0.11622883
156	0x3de9eccd	0.11422119
157	0x3d9b161a	0.07572575
158	0xbd0ba580	-0.03409338
159	0x3e18b664	0.14913327
160	0x3dbeeec2	0.09322883
161	0x3e5160e8	0.20447123
162	0x3e0a4b6e	0.13505337
163	0x3e0e00c3	0.13867478
164	0x3dc57cd4	0.0964295
165	0x3d3b74a6	0.04576554
166	0x3d8988b0	0.06715524
167	0x3e2f2656	0.17104468
168	0x3dc7b597	0.097514324
169	0x3e3f43c1	0.1867819
170	0x3e1d4eaf	0.15362047
171	0x3e1d36f3	0.15352993
172	0x3dc41a91	0.0957538
173	0x3dbef566	0.0932415
174	0x3d9c9793	0.07646098
175	0x3e4766bf	0.19472788
176	0x3e006163	0.1253715
177	0x3e4f3770	0.20235991
178	0x3d932c53	0.071861885
179	0x3d222dc5	0.03959443
180	0x3e380d09	0.17973723
181	0x3decd457	0.11563938
182	0x3e32d92b	0.17465656
183	0x3d7371c2	0.05943466
184	0x3df5f454	0.120094925
185	0x3d8a9c28	0.06768066
186	0x3e377e3d	0.1791925
187	0x3e1cfd99	0.15331115
188	0x3e575b48	0.21030915
189	0x3ded085d	0.11573861
190	0x3e679d98	0.22618711
191	0x3e1b75f8	0.1518172
192	0xbbb88996	-0.005631636
193	0x3daf05f1	0.08546055
194	0x3e092d22	0.13396123
195	0x3da118bd	0.078660466
196	0x3be15c87	0.006877485
197	0x3c27dc50	0.010245398
198	0x3e0b732c	0.13618153
199	0x3e2f1e8f	0.17101501
200	0x3d6acedb	0.05732618
201	0x3dcd61fa	0.10028453
202	0x3dc03c97	0.093865566
203	0x3dc7a14f	0.09747564
204	0x3da109ac	0.07863173
205	0x3dcfdc7e	0.101494774
206	0x3dcb6b81	0.09932614
207	0x3e05f92b	0.13083331
208	0x3d010d20	0.031506658
209	0x3dbc32e9	0.09189398
210	0x3d9028af	0.0703901
211	0x3e1bcbfa	0.1521453
212	0x3e1439c2	0.14475158
213	0x3d81af7c	0.06332299
214	0x3d807bd5	0.06273619
215	0x3dfceac5	0.12349466
216	0x3e05e0ab	0.13073985
217	0x3d9dab1e	0.07698654
218	0x3da4b3e9	0.08042128
219	0x3e538f6a	0.20660177
220	0x3d92e4e2	0.07172562
221	0x3cc3e252	0.023911629
222	0x3c8e6d0b	0.01738598
223	0x3e4df243	0.20111947
224	0x3e237339	0.15961923
225	0x3d3b618a	0.045747317
226	0x3d87ab1c	0.066244334
227	0x3d0d695c	0.034524307
228	0x3dd6e81c	0.1049349
229	0x3e1476e4	0.14498478
230	0x3e4e90ba	0.20172396
231	0x3d8fbf84	0.070189506
232	0xbc025f81	-0.00795734
233	0x3dc84a4f	0.09779798
234	0x3dbaafaa	0.091155365
235	0x3df1c135	0.118044294
236	0x3e7d9bb8	0.24766433
237	0x3dcdcee7	0.10049229
238	0x3dc1e186	0.09466843
239	0x3ce68c6d	0.028143132
240	0x3e2b34b3	0.16719322
241	0x3d9d5a7e	0.07683276
242	0x3dc7cfac	0.09756407
243	0x3d7f1a02	0.062280662
244	0x3dd96fb4	0.10617009
245	0x3df24af0	0.118306994
246	0x3e66443d	0.22486968
247	0x3d85b15b	0.065279685
248	0x3d0a1d9d	0.033719648
249	0x3da87c79	0.08226866
250	0x3dcf46c9	0.10120923
251	0x3e1b7f83	0.1518536
252	0x3db069a0	0.08613896
253	0x3dffe589	0.12494952
254	0x3d8746f2	0.066053286
255	0x3d6657fb	0.05623625

weight f4 [13, 256]
0	0xbdc2b76b	-0.095076405
1	0xbe2941b4	-0.1652897
2	0xbd641316	-0.055682264
3	0x3ea9a92b	0.33136877
4	0x3db52a4e	0.088459596
5	0x3d79a43f	0.060947653
6	0x3d6fec35	0.058574874
7	0xbdab7f0b	-0.08373841
8	0xbdfac37b	-0.12244316
9	0xbcf3b7bd	-0.0297507
10	0xbe034456	-0.12819037
11	0xbd20d7d7	-0.03926834
12	0xbcd90fe6	-0.026496839
13	0x3d2e4973	0.042550515
14	0x3d3159cf	0.04329854
15	0x3d7fe387	0.062472846
16	0x3d83a6c0	0.064282894
17	0x3e60bed9	0.21947803
18	0x3bd0a551	0.0063673635
19	0xbdb23335	-0.08701173
20	0xbe2cd85f	-0.16879414
21	0xbdeefb78	-0.116690576
22	0xbd8d31a2	-0.06894232
23	0x3c0f771f	0.008756428
24	0xbd945447	-0.07242637
25	0xbd82bf3c	-0.06384131
26	0xbe50501d	-0.20343061
27	0x3db70b3b	0.08937689
28	0xbe3ac4fd	-0.18239208
29	0xbcfe9511	-0.03107694
30	0x3c6afb78	0.014342181
31	0xbd691e7d	-0.05691384
32	0x3d0d0145	0.03442504
33	0xbdd0c95d	-0.10194657
34	0xbce5e904	-0.028065212
35	0xbbeb9a20	-0.007190004
36	0x3e66e4fb	0.22548287
37	0xbd87bc21	-0.066276796
38	0xbcf2c6e8	-0.029635862
39	0xbd258cbc	-0.040417418
40	0xbd88064f	-0.06641828
41	0x3dd22cee	0.10262476
42	0xbd44997f	-0.047997948
43	0xbc791f5e	-0.015205232
44	0xbe148947	-0.14505492
45	0xbcfbcc26	-0.030736994
46	0xbda4cada	-0.08046503
47	0xbe0bebe0	-0.13664198
48	0x3dfca0c9	0.12335355
49	0xbd80aae7	-0.06282597
50	0xbda338f3	-0.079698466
51	0xbd4651b6	-0.04841777
52	0xbd8a43a1	-0.067511804
53	0x3deab998	0.114611804
54	0xbdc25906	-0.09489636
55	0xbd3c4d53	-0.04597218
56	0xbe2f1581	-0.17098047
57	0xbde608da	-0.11232157
58	0xbdc94719	-0.09828014
59	0xbd9692b4	-0.073522
60	0xbd65a992	-0.056069918
61	0x3de26224	0.11053875
62	0x3ecb28e7	0.39679644
63	0xbe353f31	-0.17699887
64	0xbe0fd633	-0.14046554
65	0x3e4fe76e	0.20303127
66	0xbdaf03e7	-0.08545666
67	0xba796c54	-0.00095147383
68	0xbd863092	-0.06552233
69	0xbdeccf99	-0.115630336
70	0x3e330d34	0.17485505
71	0x3e68f212	0.22748592
72	0xbd34f62b	-0.044180077
73	0x3cfbf011	0.030754121
74	0x3de4c1b7	0.11169761
75	0x3e57c6c9	0.21071924
76	0x3cc47aa1	0.023984255
77	0xbdaf1c00	-0.085502625
78	0x3c93df09	0.018050687
79	0xbde8c6b8	-0.113660276
80	0x3e9e21ce	0.30885166
81	0xbcc13dd8	-0.02358906
82	0xbd610357	-0.054934826
83	0xbd84a0a0	-0.06475949
84	0x3e93f044	0.28894246
85	0xbdbd40c1	-0.092408665
86	0xbcbc7fef	-0.023010222
87	0xbdfcd84d	-0.123459436
88	0x3ee8a0f7	0.45435306
89	0xbe23ce47	-0.15996657
90	0xbd484ef4	-0.04890342
91	0x3cec2159	0.028824495
92	0xbe57cf79	-0.21075238
93	0x3e53a63c	0.20668882
94	0xbe125f9f	-0.14294289
95	0x3cfe02c5	0.03100718
96	0x3ca386c9	0.019961732
97	0xbdfc158c	-0.12308797
98	0x3e4f10a0	0.20221186
99	0xbca74be2	-0.020421926
100	0x3d17fb92	0.03710515
101	0x3d0d1933	0.03444786
102	0xbd4e26ea	-0.05033008
103	0xbe4fc549	-0.20290102
104	0xbd2a0b43	-0.041514646
105	0x3f0818ec	0.5316303
106	0x3e7201ff	0.23633574
107	0xbd39c123	-0.045350205
108	0x3e99209b	0.29907688
109	0x3ba86be2	0.0051398138
110	0x3e89de11	0.26927236
111	0xbe3ed260	-0.18634939
112	0xbdbdf780	-0.092757225
113	0x3cf63017	0.030052228
114	0x3e6319ae	0.22177765
115	0xbccbe667	-0.024890138
116	0x3cc1aaa5	0.02364094
117	0xbe400a91	-0.18754031
118	0x3d8dc8b5	0.069230475
119	0x38b13595	8.449998e-05
120	0x3e1e44de	0.15455958
121	0xbe1195ed	-0.14217348
122	0x3de44ea2	0.111478105
123	0xbd89e017	-0.06732195
124	0x3e78ec62	0.24308923
125	0x3e860430	0.2617507
126	0x3d950d0f	0.07277881
127	0xbd017d6d	-0.031613756
128	0xbcaf36d3	-0.021388447
129	0x3b3eb7b6	0.00291012
130	0xbdc5538b	-0.09635075
131	0xbccae203	-0.024765974
132	0xbdfb1f5e	-0.12261842
133	0xbd4a18e4	-0.049340144
134	0xbe09a2bc	-0.13440984
135	0xbe29b3df	-0.16572522
136	0xbc751bd6	-0.01496025
137	0x3d97302b	0.07382234
138	0x3d96a06a	0.07354815
139	0x3d0bd376	0.03413721
140	0x3d981e50	0.07427657
141	0x3daa995a	0.08330031
142	0x3e6db224	0.23212487
143	0x3ec34a22	0.38142496
144	0xbe141b8b	-0.14463632
145	0xbe3ad9e5	-0.18247183
146	0x3cdaa598	0.02669029
147	0x3eadf562	0.33976275
148	0xbd7c6d3a	-0.061627604
149	0xbddc170c	-0.10746583
150	0xbe072941	-0.13199331
151	0xbd826197	-0.0636627
152	0xbd4743e5	-0.048648734
153	0x3e82e95a	0.25568658
154	0xbccecfef	-0.025245635
155	0xbdb4bae0	-0.08824706
156	0xbd6fddbe	-0.05856108
157	0x3e930eb7	0.28722164
158	0xbce2cd80	-0.02768588
159	0xbc99d349	-0.018777506
160	0xbd25089b	-0.04029141
161	0xbe217d63	-0.15770487
162	0xbd113299	-0.035448644
163	0xbe341e97	-0.17589794
164	0xbbfbde61	-0.0076864217
165	0xbdc70377	-0.09717458
166	0x3d97818c	0.07397756
167	0xbe04e4d8	-0.12977922
168	0x3d6b5af6	0.057459794
169	0xbe869950	-0.26288843
170	0x3dc5f5c1	0.096660145
171	0x3e3695a1	0.17830516
172	0xbd103f26	-0.035216473
173	0xbd1e51ec	-0.038652346
174	0xbdf9f134	-0.12204209
175	0xbe0c3056	-0.13690314
176	0xbbf8aa65	-0.007588672
177	0xbdf9d68c	-0.12199125
178	0x3e116e16	0.1420215
179	0xbe1fe993	-0.15616445
180	0x3e876db5	0.26450887
181	0x3e2eba20	0.17063189
182	0xbe205abd	-0.15659614
183	0xbd163948	-0.03667572
184	0xbde5d38c	-0.1122199
185	0xbe05a037	-0.13049398
186	0xbdf177ae	-0.11790405
187	0xbcfd409b	-0.030914595
188	0xbe892c49	-0.267916
189	0x3e458332	0.19288328
190	0x3d9cc522	0.076547876
191	0xbdd34e1f	-0.10317635
192	0x3c34ed79	0.011042946
193	0x3cf5228c	0.0299237
194	0xbe422670	-0.18959975
195	0xbe728746	-0.23684415
196	0x3c01f3ca	0.007931659
197	0xbc91acb9	-0.017782556
198	0xbe2eb538	-0.17061317
199	0x3df277a8	0.11839229
200	0xbdb27849	-0.08714349
201	0xbd89176d	-0.06693921
202	0x3d1d0ea1	0.03834403
203	0x3cd4f491	0.025995525
204	0xbe23d2d6	-0.15998396
205	0x3e445066	0.19171295
206	0x3cc81b78	0.02442716
207	0xbdaf61bb	-0.085635625
208	0xbd95e7dd	-0.07319615
209	0x3dbab100	0.09115791
210	0xbd082b6e	-0.033244543
211	0x3ea3510b	0.31897768
212	0xbd9ebbc5	-0.07750658
213	0xbcfcb22d	-0.03084668
214	0xbd54b3e2	-0.051929362
215	0x3e65c0ef	0.2243688
216	0xbc9d173a	-0.019176114
217	0xbd9b0a85	-0.07570366
218	0x3e554753	0.2082799
219	0xbe52c144	-0.20581537
220	0x3dc6f949	0.09715516
221	0xbd80ee86	-0.06295495
222	0xba99c7cf	-0.0011732521
223	0xbe0bf457	-0.13667427
224	0xbe3903df	-0.18067883
225	0xbc864312	-0.016389403
226	0xbd9b3049	-0.07577569
227	0x3d112555	0.035435993
228	0x3e502465	0.20326383
229	0x3e05f931	0.1308334
230	0xbe61acb0	-0.22038531
231	0xbd3e552f	-0.046467956
232	0xbc0a8a96	-0.008455893
233	0x3e3dd0ba	0.18536654
234	0xbd5575d2	-0.052114315
235	0x3b668553	0.0035174682
236	0x3ebc93c4	0.36831486
237	0x3da4752f	0.080301635
238	0xbdba5301	-0.09097863
239	0xbd3abaea	-0.04558841
240	0xbde14435	-0.109993376
241	0xbcb338e9	-0.021877723
242	0xbdf40eb2	-0.119168654
243	0xbddc4eb3	-0.10757198
244	0x3e0717c3	0.13192658
245	0xbe1418d9	-0.14462604
246	0xbe75925d	-0.23981614
247	0x3d6354b8	0.055500716
248	0xbdbf8b29	-0.093527146
249	0xbd9f038d	-0.07764349
250	0xbddb66f2	-0.10712995
251	0xbdf5555d	-0.119791724
252	0xbd8e0b32	-0.06935729
253	0x3e79dbde	0.24400279
254	0x3e9970d6	0.299689
255	0xbd96a408	-0.07355505

bias f4 [13]
0	0xbcfeb7d9	-0.031093525
1	0xbde85249	-0.1134382
2	0xbec4643f	-0.38357732
3	0xbe475001	-0.19464113
4	0x3e972fcf	0.29528663
5	0xbe67c34e	-0.22633097
6	0xbdb469c9	-0.088092394
7	0x3ca1d855	0.019756475
8	0x3e9c7389	0.30556896
9	0x3ec6bc66	0.38815612
10	0xbe014b13	-0.12626295
11	0x3ea52216	0.32252568
12	0x3c8ae0d6	0.016952913
